baseline_rnn_birds.pth (torch, 31685 bytes, 12 tensors)

lstm.weight_ih_l0 f4 [128, 4]
000000 9f ac fc be 84 8a d7 be e9 1c 55 3f 5b 6f be bd
       -0.4935045 -0.42097867 0.8324724 -0.09298583
000010 30 40 ad 3e 08 c6 f1 be c1 1b 23 3f 24 8c 3e 3f
       0.33838034 -0.47221398 0.63714224 0.7443259
000020 39 37 13 3c 10 ae 16 3e 50 07 0b 3e 7d 90 f9 be
       0.008985334 0.14714837 0.13577008 -0.48743048
000030 61 2a ed bd 71 b0 1c 3f fb d8 21 be b6 0c 8b 3e
       -0.11580349 0.6120673 -0.15805428 0.27158135
000040 b6 b6 c6 3e 69 de da 3e fd 8f 19 be 86 0d 57 bf
       0.38811272 0.4274781 -0.14996333 -0.8400501
000050 b9 62 1b be ee e2 3e be 9e cf 4e 3e 3d fd 5f 3e
       -0.15174378 -0.18641254 0.20196387 0.21873946
000060 51 9b 86 be 34 e6 7e be fb 27 d1 bd f1 77 0c bf
       -0.26290372 -0.24892503 -0.10212704 -0.54870516
000070 5b ae 02 be 5d 69 5e 3e 12 fd cc bd 8a a4 e5 be
       -0.12761824 0.2171988 -0.10009207 -0.44852096
000080 8e d3 81 be 9e fb 29 3f ba 9e f0 3b 60 38 8a 3a
       -0.25356716 0.6639956 0.0073431404 0.0010545366
000090 d5 a0 00 bf 03 1d 32 3f 5b 67 9a 3e e2 fb 83 3e
       -0.5024541 0.6957552 0.3015698 0.2577811
0000a0 16 47 2d be 97 11 40 bd 1e 3b 2d 3e f2 08 12 bf
       -0.16921648 -0.046891775 0.16917083 -0.570449
0000b0 4e 48 9f be 18 95 3e 3e fe cd b0 3d 3c 25 9f 3e
       -0.31109852 0.18611562 0.0863304 0.31083095
0000c0 a9 20 34 bf 3e 96 9c be 81 ae ef 3d 48 52 f5 3d
       -0.70362335 -0.30583376 0.11703206 0.119785845
0000d0 bb b5 86 3d 1d 9b 17 be 61 33 57 3d eb 33 07 3d
       0.06577631 -0.14805265 0.052539233 0.033008497
0000e0 1c b0 ba be a9 fd bf 3e 73 b4 6e 3e c2 1b e4 3d
       -0.36462486 0.37498215 0.23311023 0.11138107
0000f0 d7 6b 07 bf 69 f8 35 3e f5 80 b1 3d 21 b4 2b be
       -0.52898926 0.17770542 0.08667175 -0.16767932
000100 36 a1 45 bf 8c 9d 48 3e 1f d9 ec be 51 aa 9d 3e
       -0.77199113 0.1959135 -0.462594 0.30794004
000110 c7 b9 b8 3c f3 d2 cf 3e 16 ed 72 be 63 9e 4a bf
       0.022549523 0.4059063 -0.23723254 -0.7914793
000120 45 d6 1a 3d 46 9f 9e 3d bf ac 7b be 04 d9 96 3d
       0.037802 0.07745223 -0.24577616 0.07365611
000130 23 45 92 be 4a 83 03 3f eb f7 07 be 61 a5 ab 3d
       -0.28568372 0.51372206 -0.13278167 0.08381153
000140 5b 25 37 3e 08 2a a4 bc 9a d7 6a 3d e8 fc b8 be
       0.17885344 -0.020039573 0.05733452 -0.36130452
000150 1c b8 8e 3d b6 25 bc bc 39 30 d8 3e 04 c0 8d b8
       0.0696871 -0.0229672 0.4222429 -6.7591696e-05
000160 a8 97 75 3d ff 2b 7b be 07 e5 df 3e 75 9c 06 3e
       0.059959084 -0.24528502 0.43729421 0.13145621
000170 cc 3a be bc d4 e7 d2 be a0 7d 73 3f 8a 8d da 3e
       -0.023221396 -0.41192496 0.95113564 0.4268611
000180 92 01 f6 be 24 49 fe 3b 37 d2 09 be 9e b3 46 be
       -0.48048073 0.007760184 -0.13459097 -0.19404456
000190 9a 5f db 3e 18 7f 65 bd 41 51 2b be 78 2f 45 3f
       0.42846376 -0.05602941 -0.16730215 0.77025557
0001a0 a7 2e 2f 3e d4 f1 d2 3d a7 c5 2b 3f d4 46 83 bc
       0.1710764 0.10300031 0.6709847 -0.016024984
0001b0 22 e3 a0 3e 03 54 d3 bd 78 50 69 bd 46 e6 0b 3f
       0.3142329 -0.10318758 -0.056961507 0.54648244
0001c0 57 13 79 be 3e 93 66 be 29 38 94 bc 0f fe 1a be
       -0.24323784 -0.22517106 -0.018093185 -0.15135978
0001d0 23 24 99 3e a0 55 2e bf c2 9f ee 3e de 2e 19 3f
       0.29910383 -0.68099403 0.4660626 0.5983714
0001e0 d1 b7 f3 be 9d 4b 20 be f5 52 53 3f 9d 9a 01 3f
       -0.47601178 -0.15653844 0.8254846 0.50626546
0001f0 d6 7d d0 bd e4 22 75 3e 41 af fd 3e cf cb 07 bf
       -0.10180251 0.23939091 0.4954777 -0.5304536
000200 0b 3f 31 3a 79 0f 8e bc a0 82 31 3e 2d 01 c1 3c
       0.00067614083 -0.017341362 0.17334986 0.023560131
000210 d1 aa 23 3d 2d bf a8 bd 2a bc 87 bd 2a b5 50 bd
       0.039957825 -0.08239589 -0.06627686 -0.05095402
000220 a5 99 9b 3d 60 5e 1c 3e 76 0c 5b bd 08 e2 b9 3d
       0.07597665 0.15270376 -0.05347868 0.09076315
000230 8d 15 2b 3e 01 61 ee bd 94 9a ca 3d d6 d7 95 3d
       0.1670744 -0.11639596 0.09892765 0.07316558
000240 26 14 03 be 14 f8 21 be 40 2d 68 3d 07 42 e9 3d
       -0.12800655 -0.1581729 0.05668378 0.11389547
000250 18 ef a8 bc e2 f7 3e bd 37 e9 39 bd b7 f0 b5 bd
       -0.020621821 -0.04662312 -0.045388427 -0.08883803
000260 4e f5 2e 3e 81 04 42 3d 4e 9c 27 3e dd 7d b5 bd
       0.17085764 0.047367577 0.1636822 -0.08861897
000270 09 e1 07 3e 03 44 af bd e8 1f b3 3d bd 2c 26 3e
       0.13269438 -0.08557894 0.0874632 0.16228004
000280 b6 52 eb bc ed ef 18 be 93 52 b1 3c 05 d9 1b bd
       -0.028725963 -0.14935274 0.02164582 -0.038048763
000290 fd 12 05 3d 9a cd 89 bd 90 d4 a6 3d 25 ab 28 3e
       0.03248881 -0.067286685 0.08146012 0.16471536
0002a0 e7 c2 3c 3d eb a3 a2 3d d4 bb 0a 3d 6b 20 5f 3d
       0.04608431 0.07941421 0.033870533 0.054474276
0002b0 28 28 3c 3d 7f 9e 19 bd e5 c1 b2 3d d6 e7 ef bd
       0.045936733 -0.03750467 0.08728389 -0.11714141
0002c0 33 73 01 bd 5c 23 84 bd 8c 20 17 be ee 8f 72 bd
       -0.031604003 -0.06452057 -0.1475851 -0.059219293
0002d0 68 8d 17 3e 5b 5e 2a 3e 09 1c cb 3d 91 dd 74 3d
       0.14800036 0.16637556 0.09917457 0.059781615
0002e0 e6 64 ef bc aa 12 c9 bd b7 13 ae bd ae 53 15 3e
       -0.029222917 -0.09818013 -0.08499854 0.14582703
0002f0 8d 6a f4 bc 44 6c 76 3c 23 1f 30 3e 9b bd 0d 3d
       -0.029835964 0.015040461 0.17199378 0.03460465
000300 6b ee ca bd 6a bf c0 3d 61 b3 0b be fc 08 2d be
       -0.09908756 0.09411509 -0.13642646 -0.16897959
000310 66 42 ee bd c0 ee 15 be 42 73 20 3e e1 75 1c 3e
       -0.11633758 -0.14641857 0.15668967 0.15279342
000320 8b d2 04 be 2c bc 5c bc 9e 1d 2d 3e 67 4b f5 3d
       -0.12970941 -0.013472598 0.1690583 0.119772725
000330 81 d5 24 3d b2 c5 84 bd 29 bb a0 3d 34 da a9 3d
       0.040242676 -0.0648302 0.07848198 0.08293572
000340 e4 09 d4 bc c3 03 94 3d 85 d6 df bc 3c 8d ca 3d
       -0.025883622 0.0722728 -0.02732397 0.098902196
000350 9f ef b5 3d f9 e0 97 bb 0a ab af bd c2 e2 5b 3d
       0.08883595 -0.004634973 -0.08577545 0.05368305
000360 4c 28 ed 3d b4 c3 26 bd 13 9b 94 3d 18 c4 17 bd
       0.11579952 -0.04071398 0.072561406 -0.037052244
000370 5d 7f 25 bb 20 ac db 3d 1f 60 34 3e d7 b8 53 3d
       -0.0025252916 0.107261896 0.17614792 0.05168995
000380 fa c4 67 3d 20 77 9a 3d e1 8c a2 3b 98 53 c6 bd
       0.056584336 0.075422525 0.0049606417 -0.09683913
000390 50 33 49 bd d9 cd 15 3e c0 a5 4e bc 2d 5f 2b 3e
       -0.0491212 0.14629306 -0.01261276 0.16735525
0003a0 e2 ea 3f bd 58 d8 1a 3e 93 87 6a bd df 3c f1 bd
       -0.04685486 0.15121591 -0.0572582 -0.11779188
0003b0 b4 97 66 bd 85 de bb 3d a1 96 c9 3d 68 97 1c be
       -0.05629702 0.091733016 0.09843183 -0.15292132
0003c0 a9 16 a2 3c e9 e7 25 3e be 35 ac bd ec b2 bf bd
       0.019786196 0.16201748 -0.08408688 -0.093602985
0003d0 29 c5 2f 3e 5e 74 0e 3d 49 19 0a be 13 a1 1a 3e
       0.17165054 0.034778945 -0.13486208 0.15100507
0003e0 f4 12 2f 3e fc e9 f0 3d ed 30 bd bc 55 ac 2d be
       0.17097074 0.11763379 -0.023094619 -0.1696027
0003f0 02 b6 13 be 4e 13 84 3d 10 e6 f6 3c b8 66 bb 3b
       -0.14424899 0.064489946 0.030139 0.005719032

lstm.weight_hh_l0 f4 [128, 32]
000000 90 be 3a bd 10 e4 0a 3e 17 0c 8a 3d b6 aa c4 3b
       -0.04559189 0.13563561 0.06740587 0.0060017956
000010 5e 3f 8a bd dc 66 1b be e0 d0 93 3d 52 12 fa bd
       -0.067503676 -0.15175956 0.07217574 -0.122105256
000020 cd 7d c5 bd af 47 a8 3d a4 d7 7d bd 4f 7a 10 be
       -0.09643135 0.082167976 -0.06197323 -0.14109157
000030 9f a9 6b bd ca 4d a7 bd d7 31 29 be 29 ae 4c bd
       -0.05753481 -0.08169134 -0.16522919 -0.04997078
000040 a6 df 1d 3e e8 bb 69 bc 71 09 7b 3d 39 16 b2 bc
       0.15417346 -0.014265992 0.0612883 -0.021739112
000050 e5 79 8e bd ca 25 2c be 30 f7 2f bd 87 4d 22 be
       -0.06956843 -0.1681129 -0.042960346 -0.15849887
000060 07 66 12 3e d1 94 6d 3d 04 58 1f 3e 01 0a 4b bd
       0.14296733 0.05800325 0.15560919 -0.049570087
000070 02 25 34 be 39 a7 3b 3d 03 e7 1b 3e 8d 22 4c bd
       -0.17592242 0.045813773 0.15224843 -0.049837638
000080 06 1a 10 bd 1e d9 01 be 09 c5 26 3e 56 80 29 be
       -0.035181068 -0.1268048 0.162861 -0.16552863
000090 68 55 fe bd 65 94 eb bd 7e 81 dc 3d 45 ed 0f be
       -0.12418634 -0.115029134 0.10766886 -0.14055355
0000a0 07 24 09 3c 54 33 d9 bd 8d 25 2c 3e 7d 94 b6 bd
       0.008370406 -0.10605493 0.168112 -0.08915041
0000b0 dc 66 bc bd 30 4f a8 3d 78 57 b1 bd 81 fa 76 3d
       -0.09199306 0.08218229 -0.086592615 0.060297493
0000c0 33 79 ee 3d 8b 4d 10 be 25 b5 07 be 6b b9 eb bc
       0.11644211 -0.1409208 -0.13252695 -0.028774938
0000d0 4f 4e 92 3d 27 5f 06 be 0c e4 09 be 1e 3d 18 3e
       0.071438424 -0.13122235 -0.13465899 0.14867064
0000e0 b3 50 33 3e 16 be cd bb eb b2 68 bb 3c 63 0f 3e
       0.17511253 -0.0062787635 -0.0035507034 0.14002699
0000f0 7c c4 31 3d 6a d5 91 3d ef 2d 36 3a 70 19 f3 bd
       0.043400273 0.071207836 0.00069495937 -0.11870086
000100 0e 86 28 3e 67 1a 01 be 6a a8 e5 3d e9 c4 1b 3e
       0.16457388 -0.12607728 0.11213763 0.15211834
000110 9b 4f bd 3d 0f 71 2e 3e 8c 78 14 be eb 25 f8 bd
       0.09243699 0.17035316 -0.1449911 -0.12116607
000120 45 31 8e 3d e1 42 93 3d d3 a7 ff 3d 68 4b 80 bd
       0.06942991 0.071904905 0.12483182 -0.062643826
000130 99 77 18 3e ce ad d2 bd ef 00 25 be 0b de 28 be
       0.14889373 -0.10287057 -0.16113637 -0.16490953
000140 50 95 e5 bd 4a cd 2b be eb 19 a9 bd 96 cb d1 ba
       -0.1121012 -0.1677753 -0.082568966 -0.0016006108
000150 3f 73 8f bd 46 0a d3 3c 9e c0 31 be 50 89 4a 3d
       -0.07004403 0.025761735 -0.17358634 0.049447358
000160 e4 9c 15 3e 41 89 0d be 87 50 da 3c 06 a5 14 3e
       0.1461063 -0.1382189 0.026649727 0.14516076
000170 b9 d2 22 3e 38 1f 2c 3e d8 b1 96 3d 7d cd e4 3d
       0.15900697 0.16808784 0.0735814 0.11172006
000180 54 4c 0e bd dc be 1a be b2 e7 fb 3c 71 51 12 be
       -0.03474076 -0.1511187 0.03075013 -0.1428888
000190 a2 52 18 be 3b ec ae 3d 73 2d 02 be 90 14 29 3e
       -0.14875272 0.08541151 -0.1271265 0.1651175
0001a0 e4 67 04 3d 4e 3e d2 bd 2b 78 1c 3e 63 05 a1 bd
       0.03232564 -0.1026579 0.15280215 -0.078623556
0001b0 79 82 14 be 89 8e b3 bd 22 f8 86 bd d9 82 65 3d
       -0.14502896 -0.08767421 -0.06590296 0.05603299
0001c0 04 42 a6 bd b8 27 bb bd 1a 49 25 3e 76 63 9b bd
       -0.0811806 -0.09138435 0.16141167 -0.0758733
0001d0 b6 72 77 bd 4b f8 2d 3e 5a b6 ab bd 07 78 2c be
       -0.06041213 0.16989248 -0.0838439 -0.16842662
0001e0 e6 ed bd 3d 77 15 72 3d 7b c2 ed bd 09 32 62 bd
       0.09273891 0.0591025 -0.1160936 -0.0552235
0001f0 99 02 f4 3d c0 b9 06 3e e9 ac 4e 3b 33 5f b4 3d
       0.11914558 0.13156796 0.0031536168 0.0880722
000200 5d 5e 16 bd e8 43 c1 3d 95 9e 80 3d bd 30 9f 3d
       -0.036711086 0.0943678 0.06280247 0.07772968
000210 06 84 9d 3d 81 5a 24 3e d4 30 33 be 82 99 0b 3e
       0.07691197 0.1605015 -0.17499095 0.13632777
000220 45 32 10 3e dc 40 c1 bc 9e 13 0f 3e 0f 46 91 bc
       0.14081676 -0.023590498 0.13972327 -0.017733602
000230 89 83 18 be 59 3b 1d 3e bc 43 16 bd 62 7a c6 3d
       -0.14893927 0.1535467 -0.03668569 0.096913114
000240 18 5d 0d 3e 69 0f 00 be 46 4a 45 3d 48 00 27 be
       0.13805044 -0.12505879 0.048166536 -0.16308701
000250 20 bb ab 3c 88 c2 d9 3b 8a 0a af bd 90 64 2e be
       0.020963252 0.0066455044 -0.08546932 -0.17030549
000260 0a bf 1e 3d cb 01 02 3d c8 45 ec bd ca e9 52 bd
       0.038756408 0.03173999 -0.11536747 -0.05149249
000270 ce 01 2b 3e 71 27 be bc c9 53 1a be 0e bc 5d bd
       0.16699907 -0.023212167 -0.15071024 -0.05413442
000280 cc d4 19 be 3c 97 02 be 5d 4d 8d 3d 69 16 15 3e
       -0.15022582 -0.12753004 0.068995215 0.1455933
000290 a2 0b 1e bd cf 99 91 bc 9f fa ba 3d a5 d1 d5 bd
       -0.038585313 -0.017773537 0.091298334 -0.10440377
0002a0 43 5b 02 3d 39 1b 5f bd d7 9d a6 3d fc a9 65 bc
       0.031825315 -0.05446932 0.08135574 -0.014017578
0002b0 73 d5 ce 3d ef 18 62 bd 60 71 00 3e 8a b2 dc 3b
       0.10099306 -0.05519956 0.12543249 0.0067351507
0002c0 a8 03 07 3e 50 5c 05 3e 2a cb b4 3d 85 d3 d5 bc
       0.13184988 0.13023496 0.08827813 -0.026101837
0002d0 8e 16 ed 3d ef 13 d0 bd 22 9d 35 3d 8a 32 ef bd
       0.115765676 -0.10160052 0.044339307 -0.116795614
0002e0 8f a3 2d bb 6f dd 0a be 77 9d 29 3e 1e ed 33 3e
       -0.0026495194 -0.13561033 0.16563974 0.17570922
0002f0 21 5b 23 be 28 d6 69 3d ff 98 17 be 33 65 0c 3e
       -0.15952732 0.057089 -0.14804457 0.1371048
000300 98 f9 12 3e ad 25 0f 3e 93 54 1f be 22 50 28 3e
       0.14353025 0.13979216 -0.15559606 0.16436818
000310 48 38 10 be d7 3e 25 bd 86 49 28 3e 69 b3 e0 bd
       -0.1408397 -0.040343132 0.16434297 -0.1097172
000320 77 06 4c bd 3a b5 03 be 53 95 a1 bd 87 cd b2 3d
       -0.049810853 -0.12862101 -0.078898095 0.087306075
000330 3f 88 ad bc 2e b2 8f bd cc 49 3f bc 36 60 f8 3d
       -0.021183131 -0.07016407 -0.011675309 0.12127726
000340 70 2a 31 be 46 f9 cb bd 69 2b f4 3d c9 ac 6a 3d
       -0.17301345 -0.099596545 0.11922342 0.057293687
000350 8a 9b bc bd a6 49 10 be a2 45 9b 3d a9 42 20 3e
       -0.09209354 -0.14090595 0.07581641 0.15650429
000360 34 59 f0 bd ce 08 1c be 16 4d f6 bd 2e 30 e2 3c
       -0.11735764 -0.15237734 -0.12026422 0.027610864
000370 e5 ad 54 bd 7f 6d 9f bd f0 5b e7 3d a4 56 5f bd
       -0.05192365 -0.077845566 0.112968326 -0.054525986
000380 1b 3a 02 be 18 48 ae 3d 43 52 a5 3d c8 b7 89 bd
       -0.12717478 0.085098445 0.08072331 -0.067245066
000390 fc 2b d0 bb 93 9a f3 3b f5 88 05 3e af 00 b1 3c
       -0.0063528996 0.007434198 0.13040526 0.021606771
0003a0 d1 82 23 3e c7 07 e3 bd 08 e5 fb bd ca b9 25 3c
       0.15967871 -0.11085468 -0.122995436 0.010115096
0003b0 35 3f ec 3d d0 6a 0b be 4d df c2 bd 44 35 11 be
       0.11535493 -0.13614964 -0.095152475 -0.14180475
0003c0 77 b1 2c be db 98 a2 bc da 4c a0 bc 3f 8c 53 bb
       -0.16864572 -0.019848278 -0.019567896 -0.0032279638
0003d0 83 aa 10 3e 01 19 84 bd cb c1 2c 3d bc 5f 03 3e
       0.14127545 -0.064500816 0.042177003 0.12829489
0003e0 a6 d1 2d be 92 5b 10 be 52 0b 81 bc 58 0b 2a 3e
       -0.16974506 -0.14097431 -0.015752468 0.1660589
0003f0 2c 9b 66 3d 9c 18 dc bc 2a 77 75 3b 19 17 f1 bd
       0.056300327 -0.026867203 0.003745506 -0.11771984

lstm.bias_ih_l0 f4 [128]
000000 21 62 3c 3f 05 ae 2f 3f 48 00 3e 3f 95 e4 1b 3f
       0.7358723 0.6862491 0.7421918 0.60895663
000010 cc 50 09 3f c7 7b 89 3e 5f ad 2f 3f 0c 93 45 3f
       0.5363891 0.26852247 0.6862392 0.771775
000020 eb 27 3c 3f b2 81 d3 3e 65 82 09 3f de 46 22 3f
       0.7349841 0.41309887 0.5371459 0.63389385
000030 1f a9 05 3f 04 8a b5 3e c5 eb ed 3e e3 b6 2f 3f
       0.52211183 0.3545686 0.4646894 0.6863844
000040 c1 cc 02 3f 7f 68 01 3f 6d 82 b8 3e 11 6e aa 3e
       0.5109368 0.50550073 0.36037007 0.332871
000050 bc 03 30 3f 80 9f 00 3f f1 5b fc 3e 64 cb d9 3e
       0.687557 0.5024338 0.49288896 0.42537987
000060 ab 1c 34 3f 8b 78 00 3f 7a 23 3f 3e 1a 4f c5 3e
       0.70356244 0.50183934 0.18665877 0.38536912
000070 5d 4a 1d 3f 8d 21 ae 3e 2c b5 05 3f b5 04 04 3f
       0.61441594 0.34009972 0.5222957 0.5156968
000080 6b 28 41 bc 49 15 0a bd 16 2f be bc 31 e1 4a 3d
       -0.011789422 -0.033711705 -0.023215812 0.049531166
000090 87 43 6c 3d 74 96 e4 bd 9b 71 20 be 2e bc d2 bb
       0.057681587 -0.11161509 -0.15668337 -0.006431124
0000a0 80 35 8a 3a 35 63 15 be db 80 2e 3e 55 28 a3 3d
       0.0010544509 -0.14588626 0.17041342 0.07966677
0000b0 bd 29 94 bb f1 d6 8a bc 52 d8 13 3e 0a f7 2e bd
       -0.004521577 -0.016948195 0.14437988 -0.042716064
0000c0 bb c5 0a 3e 64 c3 00 be 22 25 09 be 19 55 56 bc
       0.1355199 -0.12574536 -0.13393071 -0.013081812
0000d0 4a 3a 29 3e 24 45 05 be 43 f6 72 bd bf 79 91 3d
       0.16526142 -0.13014656 -0.059316885 0.07103299
0000e0 54 9e bd bd 58 ce f4 bd 6d 8a 1a 3e ea 3f 0c 3e
       -0.09258714 -0.119534194 0.15091868 0.13696256
0000f0 37 d5 29 be 0c fb 19 3e e5 08 a2 3d 5a 58 bc bd
       -0.16585241 0.15037173 0.07911853 -0.09196539
000100 a3 bc dc 3e 2a aa 5e bd 68 73 47 3e b6 1e 3f 3e
       0.43112668 -0.0543615 0.19477618 0.18664059
000110 6a a2 e3 be bd b4 d2 3e 89 19 be 3e 7c 41 20 bd
       -0.4445985 0.41153517 0.37128857 -0.03912495
000120 73 28 98 be 33 85 76 be 0b bc b1 3e a3 09 10 3c
       -0.2971836 -0.24074249 0.34713778 0.00879136
000130 19 49 f6 3d ca 7d ac 3d b2 6a f7 3e 29 77 a6 3e
       0.12025661 0.0842243 0.4832359 0.32512787
000140 10 70 a2 be 9f f3 a0 bd fd 9c 66 be 1c 56 d9 3e
       -0.31726122 -0.07858967 -0.22520824 0.4244851
000150 c0 8e e8 3b 76 32 0e 3f b5 67 ae 3e 11 21 30 3e
       0.0070970953 0.5554575 0.34063497 0.17200114
000160 51 9f ef 3e d1 cb f4 3d 22 74 1b 3e c7 f5 8f 3c
       0.46801236 0.119529374 0.1518102 0.01757325
000170 69 ab ae be 08 a6 26 be ae 96 98 be a9 f6 12 3d
       -0.3411515 -0.16274273 -0.2980246 0.035879765
000180 85 dd 55 3f 58 2c 2a 3f 7c b1 45 3f ce 16 1d 3f
       0.83541137 0.66473913 0.77223945 0.6136292
000190 a9 c2 14 3f df a0 0b 3f 8a b7 13 3f d9 9f 01 3f
       0.5810953 0.54542345 0.57701933 0.50634533
0001a0 23 0f 49 3f 2e bc 26 3f 5b 20 1f 3f fb 56 bd 3e
       0.7853872 0.6513089 0.62158746 0.36980423
0001b0 30 b4 c3 3e c5 4d ce 3e a2 0f 32 3f 81 46 2c 3f
       0.3822341 0.40293708 0.69555104 0.6729508
0001c0 61 cc 05 3f e9 82 c7 3e 3e 9a e7 3e ef 07 bb 3e
       0.5226498 0.38967064 0.45234865 0.3652949
0001d0 04 06 35 3f 23 5c 0d 3f 1b bd 22 3f 63 90 18 3f
       0.70712304 0.55218714 0.635698 0.59595317
0001e0 6c 20 08 3f ee c4 16 3f fd a5 d8 3e 3d 40 02 3f
       0.5317447 0.5889424 0.4231414 0.5087927
0001f0 4d 1b 3b 3f 9b 25 ff 3e f5 bf 36 3f 91 47 27 3f
       0.7308853 0.49833378 0.71386653 0.65343577

lstm.bias_hh_l0 f4 [128]
000000 82 38 ee 3e b3 ee 3e 3f de 17 43 3f 89 eb 02 3f
       0.46527487 0.74582976 0.76208293 0.5114065
000010 c3 14 2d 3f 3d 2b 10 3f e6 e4 2d 3f bd 69 ec 3e
       0.67609805 0.56315976 0.67927396 0.46174422
000020 2b e8 4c 3f ce 79 09 3f 90 0c 06 3f f8 e4 04 3f
       0.8004176 0.53701484 0.5236292 0.5191188
000030 74 05 aa 3e d6 cc c3 3e 2c 4e ea 3e de d8 1b 3f
       0.33207285 0.38242215 0.45762765 0.6087779
000040 21 e1 18 3f 02 5e e7 3e 98 9a 01 3f 24 42 80 3e
       0.5971852 0.4518891 0.50626516 0.2505046
000050 f0 43 19 3f 93 51 1b 3f c3 d2 1a 3f 8f f7 cc 3e
       0.5986929 0.6067135 0.60477847 0.40032622
000060 ff 90 d3 3e 80 51 03 3f ec d0 5d 3e 51 21 17 3f
       0.4132156 0.51296234 0.21661729 0.5903521
000070 89 cf 06 3f b3 b0 b6 3e f3 3a f7 3e 77 0c 2a 3f
       0.52660424 0.35681686 0.48287162 0.6642527
000080 e8 b1 1b 3e b2 87 15 be 5b ef b1 bd ce 26 2a 3e
       0.15204585 -0.14602545 -0.086882316 0.16616365
000090 97 00 35 be fc 74 56 bd c9 c9 08 3c 5a 88 ae bd
       -0.17676006 -0.05235766 0.008348891 -0.08522101
0000a0 ad d3 05 3b 06 92 1f 3e f8 06 15 3e 99 40 62 bd
       0.0020420358 0.15583047 0.1455344 -0.055237386
0000b0 38 21 0c 3e 52 68 0e 3e 94 9f 30 3e 55 dd 01 3a
       0.13684547 0.13906983 0.17248374 0.00049539405
0000c0 4a a6 ea 3d 9b b4 3c 3d bb 3b 45 bd 2e e9 15 bd
       0.11457498 0.046070676 -0.048152667 -0.03659933
0000d0 85 ee 21 be 8a ba 22 be 75 bd 83 3a 41 69 1e 3e
       -0.15813644 -0.15891472 0.001005097 0.15469839
0000e0 8b a0 08 3e 70 63 e7 3d 62 8c dd 3d 07 d8 27 3d
       0.13342492 0.11298263 0.108177915 0.040977504
0000f0 e5 66 09 be 54 63 8f b9 e1 e7 7a 3d 2a 1f 03 be
       -0.13418157 -0.0002734909 0.061256293 -0.12804857
000100 8b 15 b5 3e 77 39 62 3b 5a 8f ac 3e a9 43 ee bd
       0.35367998 0.0034519115 0.3370312 -0.11633999
000110 a8 1b a1 be b8 ec 82 3e 95 b2 98 3e 1f 69 7a 3e
       -0.31466413 0.25571227 0.29823747 0.24454163
000120 a7 e9 dd bd 7a 2f 92 bc db 8e c4 3e 36 33 25 3d
       -0.10835581 -0.017844904 0.3839024 0.04033204
000130 14 10 b3 3d 61 92 56 bd ae 46 ce 3e c1 be a2 3e
       0.08743301 -0.05238569 0.402883 0.3178616
000140 6e 93 db be f7 fc 5b 3d 74 ae 98 be ac f6 87 3e
       -0.42885917 0.053708043 -0.29820597 0.26555383
000150 72 b9 38 3e 65 ba eb 3e 9f 67 a3 3e 91 db 86 3e
       0.18039492 0.46040645 0.31914994 0.2633939
000160 98 04 f1 3e fb 6a f5 3c a3 38 84 3e da 2a 1a be
       0.47073817 0.029958239 0.2582446 -0.15055409
000170 5e 51 c0 be 6f 2f 00 be 00 62 c0 bd 0e 1f 9a bd
       -0.37562078 -0.12518094 -0.09393692 -0.075254545
000180 7c 60 0d 3f 8e 88 4c 3f dd 63 15 3f 46 db d4 3e
       0.5522535 0.79895866 0.58355504 0.41573542
000190 b8 f9 29 3f c5 bc 10 3f 28 59 0b 3f 46 99 30 3f
       0.66396666 0.5653804 0.54432917 0.68983877
0001a0 c2 8d 63 3f 09 5a 23 3f 51 2a 24 3f a9 38 bd 3e
       0.8888818 0.6380926 0.6412707 0.3695729
0001b0 41 f7 2c 3f e2 04 a5 3e 6d 3e 0b 3f b5 3f 15 3f
       0.6756478 0.32230288 0.5439213 0.58300334
0001c0 25 81 08 3f b5 52 11 3f 28 26 e7 3e 7f b2 b6 3e
       0.5332206 0.56766826 0.45146298 0.35683057
0001d0 59 00 37 3f 4e 00 de 3e a9 11 18 3f c7 21 03 3f
       0.71484905 0.43359607 0.5940195 0.51223415
0001e0 47 28 13 3f c9 2d d7 3e 52 8f 81 3e 23 78 c8 3e
       0.57483333 0.4202712 0.25304657 0.39154157
0001f0 bf cf ec 3e ec 82 c5 3e cb c3 03 3f f1 7d f3 3e
       0.46252248 0.38576448 0.5147063 0.47557023

reg_head.0.weight f4 [16, 32]
000000 a2 1a 4f bd 16 c3 db 3b 63 ba 72 bd c4 10 6b bd
       -0.05056251 0.0067066057 -0.059259783 -0.057389036
000010 53 05 d2 bd 98 12 87 3e 59 cf 40 3d 82 15 90 be
       -0.10254922 0.26381373 0.047072742 -0.2814141
000020 99 5b 30 be cf e5 61 3d 70 4e 86 3e 75 01 c1 3c
       -0.17222442 0.055150803 0.26231718 0.023560265
000030 2c 5b 8f 3e 6e 36 96 3e 57 61 78 3e b8 9d 1f 3d
       0.27999246 0.29338402 0.24255882 0.03896877
000040 58 8f 8a bd 32 75 bf 3d 43 cf 32 3e 9f a6 17 be
       -0.06765622 0.09348525 0.17461877 -0.14809655
000050 f7 bb 05 3d 0f 48 71 bb dd f9 8a bd e2 4f 0b bc
       0.03264996 -0.0036816632 -0.06785939 -0.008502932
000060 36 85 4e 3c 9f 38 bd 3c ac 6e 4b 3e 29 35 cb 3d
       0.012605002 0.023098288 0.19866437 0.09922249
000070 47 63 a9 be 6a 23 01 be d0 e8 12 be 3e 30 49 3d
       -0.33083555 -0.12611166 -0.14346623 0.049118273
000080 53 6e ae 3d 17 69 c2 bd 5d 2f 47 3e 29 81 56 be
       0.085171364 -0.094927005 0.19451661 -0.20947708
000090 52 64 a8 be 52 69 59 be d8 83 52 3e b6 b2 34 3d
       -0.32889038 -0.21231583 0.20558107 0.044115745
0000a0 77 d4 1b be 46 cf 54 be da aa a3 3e 89 86 4b 3e
       -0.15217768 -0.20782194 0.31966287 0.1987554
0000b0 2c dc de 3d 87 30 36 be d6 2c 82 3d 5e ff e4 bd
       0.10881838 -0.17791949 0.06356208 -0.1118152
0000c0 50 f9 74 be 92 83 f4 3d ff 36 28 be 57 8c bd 3e
       -0.2392323 0.119391575 -0.1642723 0.37021133
0000d0 5f 1a 91 3e e3 38 a0 3e 3c ee 03 3c 3f 9b fe bb
       0.28340432 0.312934 0.008052405 -0.0077699716
0000e0 1f d4 63 be 51 d6 9e ba 5d c0 dc bd b7 f2 7c be
       -0.22248887 -0.0012118315 -0.10778878 -0.24701963
0000f0 14 1e b8 bc 00 d3 60 3e 64 51 67 bd 71 80 7e bd
       -0.02247528 0.2195549 -0.056474105 -0.06213421
000100 a3 4d 8d 3e e8 69 fe bd 36 48 a2 3d 24 0f 87 bc
       0.27598295 -0.12422544 0.079239294 -0.016486712
000110 cc 2c 52 3d 0f 19 1e 3d b0 cf 2c 3e ca ee fe 3b
       0.051312253 0.038598116 0.16876101 0.0077799307
000120 18 da 6b 3c 96 6c 5c 3d 60 c9 91 bd 1d 87 06 3e
       0.014395259 0.053814493 -0.07118487 0.13137479
000130 2d 82 57 be 33 58 46 bc 6e 6b c4 3b e1 af 32 3e
       -0.21045752 -0.012105989 0.005994252 0.17449905
000140 f3 4c c0 3d 36 4e ed bd 7f 9f fc bd 91 37 0a 3e
       0.09389677 -0.11587183 -0.12335109 0.1349776
000150 23 8e 1c be 0c 17 42 3e 11 63 03 3e 80 f2 b8 3d
       -0.15288596 0.18954104 0.1283076 0.09030628
000160 77 8f 23 3e a5 e1 ef 3d e8 90 00 3c 85 11 8e bb
       0.15972696 0.1171296 0.007847048 -0.0043355846
000170 7d 7b 19 be 4e 6a 46 bd 80 56 1a 3e a0 da 11 3e
       -0.14988513 -0.048441224 0.1507206 0.14243555
000180 d7 44 16 3d ac 88 d3 bd 14 b3 80 be 30 b2 8a be
       0.036686745 -0.103288025 -0.25136626 -0.2708907
000190 be a2 1a bd a3 c8 91 3c d9 e8 5e 3e ff e0 13 be
       -0.03775286 0.017795866 0.21768512 -0.14441298
0001a0 81 01 16 3e 51 e6 37 3b 98 b7 2c bd 20 56 bd 3d
       0.14649011 0.0028060863 -0.042167276 0.09244943
0001b0 7c b4 75 be a2 25 84 be 55 ea 3e 3d 30 7a ca 3d
       -0.2399463 -0.25809962 0.046610195 0.09886587
0001c0 21 1d 9a bd 1c 26 4f bd fb 0e 28 bc 6a 95 6c 3e
       -0.07525087 -0.050573453 -0.010257478 0.23103872
0001d0 cb ce b0 bd b1 94 7b 3e 59 f4 4e 3e 98 12 ec bd
       -0.08633193 0.2456844 0.20210399 -0.11526984
0001e0 37 cd 5a 3e 3f bf e1 bc ab 48 b8 be 1a c4 09 be
       0.21367346 -0.027557014 -0.3599294 -0.13453713
0001f0 06 5e 8f be e2 95 0c be 6d 1f 9e bd db 01 d7 3d
       -0.28001422 -0.13729051 -0.07720838 0.10498401
000200 56 01 3b be ff 8a 70 bd 01 e4 76 be bc 91 51 be
       -0.18262228 -0.058726307 -0.24110414 -0.2046575
000210 fe 7e 4a be 9a d9 7f 3e 60 2b 96 3d f6 05 89 be
       -0.19775006 0.24985352 0.07332492 -0.2676236
000220 c9 6f f3 bc 57 3b 03 be 74 5b 25 3e 4b 0b 1f be
       -0.02971639 -0.12815605 0.16148168 -0.15531652
000230 de 50 af 3d 74 74 62 3e be c1 67 3d d0 af 8a 3e
       0.08560346 0.22114736 0.05658125 0.2708726
000240 db de 8b be 3f a8 f5 bd 21 45 24 3e a3 13 25 be
       -0.27318463 -0.11994981 0.16041996 -0.16120772
000250 61 e0 b5 3d ae 5f 45 be a9 f5 07 ba 95 61 d0 3c
       0.088806875 -0.1927478 -0.00051864475 0.025437156
000260 3e 6d 83 3e df d0 0e 3e 54 42 8b 3e 2a 4a 4c 3e
       0.25669283 0.13946865 0.27199042 0.19950166
000270 ba a3 97 be 73 2e e4 3d 6f 74 3d be c3 5e 59 3d
       -0.296171 0.11141672 -0.18501447 0.053068887
000280 5b c6 e0 3d 69 54 12 3e 14 b6 69 3d f7 43 4c 3c
       0.10975333 0.14290012 0.05705841 0.012467376
000290 99 74 ed 3d f8 92 a7 3b 6d af 9d 3e 9c f8 11 3e
       0.11594505 0.0051139556 0.30797902 0.14254993
0002a0 d1 b7 ea bd c8 b0 22 be 59 2d bb 3d 94 67 6f bc
       -0.114608414 -0.15887749 0.09139509 -0.014612097
0002b0 91 03 25 bd 68 46 2e bd e6 ab 96 3c 8d 61 95 3e
       -0.040286604 -0.042547613 0.018392514 0.29175988
0002c0 d6 2c f3 3b e3 22 c9 3d 41 d5 2e be 7c 64 95 3d
       0.0074211163 0.09821107 -0.17073537 0.072945565
0002d0 45 e7 29 bd b4 1c 8a 3e 54 d3 db 3d 39 81 1e 3e
       -0.04148032 0.26975024 0.10733667 0.15478982
0002e0 99 93 88 3e f6 f2 37 be dc 1b a5 be f5 6e 40 be
       0.26675108 -0.17963776 -0.32247818 -0.18792327
0002f0 d1 7b d0 bd 9c 6e 0b be b1 51 4a be 9c ca d0 3d
       -0.10179866 -0.13616413 -0.19757725 0.10194895
000300 91 47 77 3d 67 d0 c7 3d f9 ce 97 bd 8a 7f 89 be
       0.060370985 0.097565465 -0.07412524 -0.26855117
000310 f5 79 78 be bd 97 9b 3e c3 64 5b 3e c2 48 27 3e
       -0.24265273 0.30389205 0.21425156 0.16336349
000320 5f cf ce 3d 40 73 19 bd 3d 97 2d 3e 2f 78 d0 bc
       0.10098147 -0.037463427 0.16952224 -0.025447933
000330 ff 04 c7 bd 3e bb 5a be ef 00 ab bd b2 27 71 3e
       -0.0971775 -0.2136049 -0.083497874 0.23550299
000340 a0 b2 fc bd b1 a4 66 3b be 8c 2a be 8d ff 59 3e
       -0.123387575 0.0035193379 -0.16655251 0.21288891
000350 98 b5 9f be 34 4f 8c 3e 6b 20 ca 3d 86 39 82 bd
       -0.31193233 0.27404177 0.098694645 -0.06358628
000360 3b 85 08 3e 4e 93 4e be c3 2b 74 be fb 3b 41 3c
       0.13332073 -0.2017338 -0.23844819 0.011794086
000370 67 50 94 be e0 65 58 3d 7c 10 4b 3d 2e f2 67 3e
       -0.28967592 0.05283153 0.049576268 0.22650978
000380 5e 1f 3a be b1 7a 35 bd 8a 7b e9 3d a5 42 5c be
       -0.18176028 -0.04430646 0.11400516 -0.21509798
000390 b4 e4 30 bd 26 4f aa 3e 26 92 57 bd ca 38 4e 3e
       -0.04318686 0.3326351 -0.052629612 0.20138851
0003a0 cd 96 ab 3e bf 32 bf bc 57 00 ed 3d b4 69 29 3b
       0.3351349 -0.023339627 0.115723304 0.0025850357
0003b0 dd 3d d1 3d 4a 61 84 3e c2 e8 5c 3e 0a 49 01 bd
       0.102168776 0.25855476 0.21573165 -0.031563796
0003c0 5e 03 08 be e1 77 7d be 92 d2 eb 3c da 92 2d 3e
       -0.13282534 -0.24752761 0.028786931 0.1695055
0003d0 b8 d5 a6 3e 22 73 99 be 6d f6 85 be e1 92 e5 bd
       0.3258493 -0.29970652 -0.2616457 -0.112096556
0003e0 4b 3e 26 3e 9f c9 84 3e 87 6d 5c 3e fe f7 d8 3d
       0.162347 0.25935075 0.21526156 0.10594176
0003f0 c7 76 c3 bc f3 16 26 be 00 08 cb bd e6 33 c0 bd
       -0.023860348 -0.16219692 -0.09913635 -0.09384899

reg_head.0.bias f4 [16]
000000 9c ed 3f 3e 62 8b 1d 3e 77 33 5b 3e 31 fb 14 3e
       0.18742985 0.15385202 0.21406351 0.14548947
000010 39 77 85 3e ff 98 1f 3e 82 ed 00 3c 08 95 fc 3d
       0.26067522 0.15585707 0.007869126 0.12333113
000020 9b a1 42 3e c0 a1 6c 3e 40 31 0e 3e 5e f2 65 bd
       0.1900696 0.23108578 0.13885975 -0.056139342
000030 6b 73 0c 3e 94 74 80 3e 7c 12 a7 3d 1d 01 8e 3d
       0.13715903 0.25088942 0.081578225 0.06933806

reg_head.2.weight f4 [2, 16]
000000 7d 00 6d 3e dd 4b d1 bd be fa 8d be 96 91 9e be
       0.23144718 -0.10219548 -0.27730364 -0.30970448
000010 23 03 53 3e 20 5e 9a be f6 bf 62 be ee 34 a8 3e
       0.20606665 -0.30149937 -0.2214354 0.32852882
000020 8f 46 d1 3e 41 56 92 be 6a 71 85 3e 07 3b 34 be
       0.40874144 -0.28581432 0.2606309 -0.17600642
000030 9f 97 24 bd b1 ca 28 3d a1 d1 22 be 25 3c a2 3e
       -0.04018366 0.041208927 -0.1590028 0.31686512
000040 d4 38 be be 6e b1 db 3e 8a 8d 4a 3e 69 a7 0c be
       -0.3715273 0.42908806 0.19780555 -0.13735737
000050 2a 57 b1 be 62 62 79 bd fd 8a 0e be d6 eb 77 be
       -0.34636813 -0.06088484 -0.13920207 -0.24211058
000060 67 38 91 3e 52 58 64 3c 06 5f 9b be 82 2e e3 be
       0.28363344 0.013937073 -0.30345935 -0.4437142
000070 30 4b c8 3e c3 28 ad be e9 12 db 3e a8 21 7d be
       0.39119864 -0.3382016 0.42787865 -0.2471987

reg_head.2.bias f4 [2]
000000 72 df 62 3d 71 8a 09 bc
       0.055388875 -0.008394823

cls_head.0.weight f4 [16, 32]
000000 84 c4 86 3e a8 f7 5c be a3 22 19 3f 1a 31 fb be
       0.26321805 -0.21578848 0.59818476 -0.490609
000010 a9 88 9a be 3b 29 80 be e5 46 b2 bd d5 ac 2d 3f
       -0.30182388 -0.25031456 -0.08704928 0.67841846
000020 94 4f 46 3f 88 39 4a bf 8b 96 9e 3e a1 82 46 3f
       0.77465177 -0.78994036 0.3097423 0.77543074
000030 d6 5f 83 be 53 8e 5e bf e9 4d 02 3f 3d a8 55 bf
       -0.25659055 -0.8693592 0.5090013 -0.83459836
000040 e2 f2 dc be f5 bb 1a bf f4 ff 18 bf be da 08 3f
       -0.43154055 -0.6044305 -0.59765553 0.53458774
000050 35 e1 74 3e ac 22 01 3f ca e8 04 bd 0f 35 94 3e
       0.23914035 0.5044353 -0.032448567 0.2894673
000060 ce f9 f6 bd bd 7a 18 bf eb bc a1 3e bc 99 2c bf
       -0.12059365 -0.59562284 0.31589445 -0.6742208
000070 fb fc 60 3e c4 ba 2f bf 0a 35 4d bf bb 14 4c bf
       0.21971504 -0.68644357 -0.80159056 -0.7971913
000080 02 07 8e 3e 7e 8e 26 3f 41 b5 ac bd 47 30 ed be
       0.27739722 0.65061176 -0.08433009 -0.46325895
000090 a1 b2 30 3e 8d aa b6 3e ad f5 8b 3e ed 50 bc bd
       0.17255642 0.35676995 0.27335873 -0.09195123
0000a0 6d e5 bc be cb 56 99 be b0 11 79 be 4f 4d bf 3e
       -0.36893788 -0.2994903 -0.24323153 0.3736367
0000b0 2e 71 02 bf 62 8c 8a bd b3 98 43 3e 45 0f fd 3e
       -0.5095395 -0.06765057 0.19101219 0.49425712
0000c0 8a 05 03 bf 4a 18 06 3d 9a b9 e5 be 60 49 d5 3e
       -0.51180327 0.032738008 -0.44868165 0.41657543
0000d0 d5 c2 f4 be b0 c0 e4 3e 16 75 93 3e 97 65 34 3f
       -0.47804895 0.4467826 0.28800267 0.70467514
0000e0 a8 35 03 3f 23 5a 86 be 1d f8 e3 be a4 6f 9b be
       0.5125375 -0.26240644 -0.44525233 -0.30358613
0000f0 b9 90 5a 3d 67 31 16 bf 3f f3 b1 bd aa fc 3e 3f
       0.053360675 -0.5866913 -0.08688974 0.74604285
000100 d2 39 1e 3f 28 90 83 3d 7d b4 f7 3e 67 8a 8b be
       0.61806977 0.0642398 0.4837989 -0.2725403
000110 40 9c 48 be 5f 51 71 3e 3b b1 4b be c6 c0 18 3f
       -0.19590855 0.23566197 -0.19891827 0.5966915
000120 c2 ca 4a bc b8 28 0d bf 23 d3 e0 bd 57 79 e7 3e
       -0.012377443 -0.55140257 -0.10977771 0.45209762
000130 dd ff 11 bf 10 5a 0c bf 6d 2b 2e 3f c1 73 14 be
       -0.5703104 -0.54824924 0.6803501 -0.14497282
000140 34 aa 9b be ba 6c 11 bf ef 45 35 be dc 0d ad 3e
       -0.30403292 -0.5680653 -0.17702459 0.33799636
000150 4b 5a 98 be 9f 29 d2 3e 33 40 f7 3d 74 0e 56 3e
       -0.29756388 0.4104738 0.12072792 0.20903951
000160 d3 2b 25 3b f2 c1 84 be cd 22 a8 3e 55 3e ba be
       0.0025203123 -0.2592922 0.3283905 -0.3637568
000170 fe 7a 9f 3e 8e 2e 94 be e5 b0 e1 be 16 3c f8 be
       0.31148523 -0.28941768 -0.44080272 -0.48483342
000180 47 44 93 3f 59 f5 bd be ca 82 c2 bd 1d 23 f8 3e
       1.1505212 -0.37101248 -0.09497602 0.4846429
000190 ca 16 b2 bd e0 33 37 3e 69 c2 cd 3e 6c 18 cd be
       -0.08695753 0.17890882 0.40187386 -0.40057695
0001a0 ca 22 45 bf 04 84 12 3d fd b4 f4 3e 23 55 54 be
       -0.7700621 0.03577043 0.47794333 -0.20735602
0001b0 3b 3d 4a be f1 74 60 be 4e 8e 00 3f 94 b9 25 3f
       -0.1974992 -0.2191961 0.5021714 0.64736295
0001c0 10 9f e0 bd 23 c3 37 3f 7a 86 bc be e3 1a 39 3e
       -0.10967839 0.7178213 -0.36821347 0.18076663
0001d0 0f 69 03 bf af f3 67 3f 9c 29 61 3f fa 1c 49 3f
       -0.5133218 0.90606207 0.87954116 0.7855984
0001e0 a1 82 2d 3f ca 53 8d 3e b5 a4 14 be 4f dd c7 bd
       0.6777745 0.27602988 -0.14515956 -0.09759008
0001f0 24 c2 38 bf d4 4c 08 bf 46 4b 63 bf 06 41 1f 3f
       -0.72171235 -0.5324223 -0.88786733 0.6220859
000200 34 f8 88 3e a8 21 04 3f b5 5f ad 3e 78 05 fa be
       0.26751864 0.51613855 0.3386208 -0.48832297
000210 ea 50 02 bf b9 27 3a 3e c9 87 ba 3e b4 03 15 3f
       -0.50904715 0.18179215 0.3643172 0.58208776
000220 28 3f 11 3d e0 40 c7 be 79 97 67 3e 3b 06 8e 3e
       0.03546062 -0.38916683 0.22616376 0.27739128
000230 3b 50 af 3e 76 5f ad be e5 0b c0 3e 0b dc 52 3e
       0.34240898 -0.33861893 0.37509075 0.20591752
000240 eb ea 49 bf 35 76 2b bd ba f2 3c bf a0 c2 1c 3f
       -0.7887408 -0.041860778 -0.7380787 0.61234474
000250 58 3f 30 3f f2 be 65 3e 06 a8 73 3e 72 2c c3 3e
       0.68846655 0.22436121 0.23794565 0.38119847
000260 05 f3 9b 3d 9e 2c 21 bf 82 ee f9 3d 6e d3 56 bf
       0.07614712 -0.62958705 0.12203695 -0.83916366
000270 2f 87 52 bd 45 7d 3a bf 2e 1f 20 3e e0 7a 0b bf
       -0.051398452 -0.72847396 0.15636894 -0.5448437
000280 db 8e 15 be 57 d7 97 bd 7c 87 a3 3d 38 2e da 3d
       -0.14605276 -0.0741412 0.07984826 0.10653347
000290 91 42 9e bd 6f 04 08 3d 5b ef 12 be af 5f 13 be
       -0.0772754 0.033207353 -0.1434912 -0.14391969
0002a0 31 36 c0 3c f8 3c f1 3d 00 a5 b7 3d ea d1 32 3e
       0.02346334 0.11779207 0.08967018 0.17462888
0002b0 5f 94 32 be aa ed b5 bd 5d 54 2d be 5e 87 8f 3d
       -0.17439412 -0.088832214 -0.16926713 0.07008241
0002c0 c5 5e 90 3d 8a 9a 88 bd 6b 08 07 bd c1 8c 02 3e
       0.07049326 -0.06670101 -0.032967012 0.12749006
0002d0 ed 63 fc 3c 90 4b cc 3c 8f 82 dd bc 81 c9 02 bd
       0.030809367 0.024938375 -0.027039794 -0.03193045
0002e0 44 00 12 3e 46 76 c8 ba 02 f2 13 bd 5d f2 1b 3c
       0.14257914 -0.0015294037 -0.03611947 0.009518233
0002f0 6a b6 1f bd 56 c6 18 be b4 52 5c bd dc 9e 7c bd
       -0.038992323 -0.14919409 -0.05378981 -0.061674938
000300 1e 5e 7a 3d ab dd 34 3f 71 2b e1 bd 8c b3 2c bf
       0.061124913 0.7065074 -0.10994614 -0.67461467
000310 d4 62 cf bb 5d 62 30 3f 7c a4 58 be c1 6a 05 3e
       -0.00632892 0.6890009 -0.21156496 0.13029005
000320 ec 2d 1e bf 3e 6d 90 be 59 54 05 bf d1 ab 83 3e
       -0.6178882 -0.28208345 -0.5208183 0.25717023
000330 2f bd c8 be 5d 48 00 be 5f d1 98 3e 1d 91 f5 3e
       -0.39206836 -0.12527604 0.29847237 0.47962275
000340 99 1d ce be 1c 2c 20 be 66 32 69 be 0f 96 c0 3e
       -0.40256956 -0.15641826 -0.22773132 0.37614486
000350 bc 75 66 be f5 b5 bf 3e 79 70 e2 3e 98 42 80 3e
       -0.2250585 0.3744351 0.44226435 0.25050807
000360 6e b4 04 3f 01 a3 0b bf 36 82 86 be 85 ef 54 be
       0.51837814 -0.545456 -0.26271218 -0.20794494
000370 46 2b 47 3e 91 1c b3 be f6 8a cd be d9 94 f3 3e
       0.19450101 -0.34982732 -0.4014508 0.475745
000380 8a a4 87 3e 6f 76 38 bf 1f 4f b6 3e 4e 31 06 bd
       0.2649272 -0.72055715 0.3560724 -0.032761864
000390 7f ef f7 be 3c 11 90 bd e2 a1 5d 3e ba e0 d3 3e
       -0.4842491 -0.07034537 0.21643785 0.4138239
0003a0 f3 83 52 3f a5 d2 3a bf 61 79 e9 3e 5a d4 fc 3e
       0.8223259 -0.7297767 0.45600417 0.4938076
0003b0 16 21 93 be 72 c5 98 be 40 69 28 3f 96 28 13 be
       -0.2873618 -0.2983814 0.657856 -0.14370951
0003c0 9e 06 ac 3b 8a 5c f4 be dd 6b 3f bd 0f 65 89 3e
       0.0052498123 -0.47726852 -0.046733726 0.26834914
0003d0 d4 b2 e6 3e bb 10 97 3e 4c c3 69 be 65 06 73 be
       0.4505831 0.29504952 -0.22828406 -0.23732908
0003e0 63 77 2d be 90 5e c4 3e 5e 1f 3c 3f 65 64 f9 3e
       -0.16940074 0.38353395 0.7348536 0.48709407
0003f0 3c 2a b6 be 18 9d fb 3e ab 02 10 bf d1 cc b8 be
       -0.35579097 0.4914329 -0.5625407 -0.36093763

cls_head.0.bias f4 [16]
000000 bd eb 96 3e 31 5b 56 3d 4c 02 94 3e ef ea d5 3e
       0.2947673 0.05233306 0.28908002 0.41780803
000010 72 34 97 3e 1e 4b f2 bd 73 8e 36 3d f8 fd 29 3e
       0.295322 -0.11830734 0.044569444 0.16600788
000020 0d 55 77 3e 42 93 e5 3e 55 ad aa bd d8 88 29 3e
       0.24153538 0.4483891 -0.08333842 0.16556108
000030 cf 73 97 3e c9 1c ae bd f0 67 6f 3e 99 85 c2 3e
       0.29580542 -0.08501584 0.23379493 0.37992552

cls_head.2.weight f4 [25, 16]
000000 4a fe 92 be 8d b8 6c be 80 e1 20 bf b2 e1 0f be
       -0.28709632 -0.23117276 -0.62844086 -0.1405094
000010 be 46 03 3e a4 51 6a 3e 4f c9 29 be 96 4c d1 be
       0.12819955 0.22882706 -0.165807 -0.40878743
000020 c3 62 cf 3d 6e fe 32 3e 35 80 19 bf 50 e9 80 3e
       0.10126259 0.1747987 -0.59961253 0.25178003
000030 70 57 22 be ea 2a 49 3d d0 35 cb 3e a8 f0 6c 3e
       -0.15853667 0.04911319 0.39689493 0.23138678
000040 d5 4c 84 3e 3e 65 e9 be a6 2f 7b 3d 6b 92 af bf
       0.25839868 -0.45585054 0.061324738 -1.3716558
000050 4d 03 b4 3e 38 be 7f be 26 83 b8 bd 23 da b1 3e
       0.35158768 -0.24974906 -0.090093896 0.34736738
000060 17 50 52 bf d9 91 a3 bf 56 2f be be e0 ad 7f be
       -0.8215346 -1.2778884 -0.3714549 -0.24968672
000070 45 e6 20 3e 9c 28 01 bd 38 2c 85 bf b3 1f d2 3e
       0.15712841 -0.03153287 -1.040412 0.4103981
000080 7a a1 46 bf 1e bb 16 bf 67 31 d4 bd 8d 7d 1f be
       -0.77590144 -0.5887927 -0.10360985 -0.15575238
000090 fa d5 13 bf a6 f7 49 3e 4a b1 1b be db 7a 08 3d
       -0.5774838 0.19723377 -0.15204349 0.03332029
0000a0 55 0f 90 3e 9a 90 80 3e 86 1a 15 bd 13 96 34 bf
       0.28136697 0.25110322 -0.036402248 -0.70541495
0000b0 20 6d 11 bf 1b c9 43 be c5 5d df 3e 91 40 2d bf
       -0.56807137 -0.19119684 0.43626228 -0.67676646
0000c0 a3 a7 da be b9 33 15 be d5 dc 0c bf 40 d7 a5 3d
       -0.42706022 -0.14570512 -0.5502446 0.08097696
0000d0 a8 57 57 be a8 c0 60 3e f7 6e d6 be 3d 8c 87 3e
       -0.21029532 0.21948493 -0.41881534 0.2647418
0000e0 a4 52 a0 3d 13 25 a6 3e 8b 21 f5 be 7f 94 78 be
       0.078282624 0.3245016 -0.47877154 -0.24275397
0000f0 52 a3 1f 3e 8c 3a 56 bc 63 41 17 be 23 20 1d be
       0.15589646 -0.013075482 -0.14771037 -0.1534429
000100 fa ee cb 3b 7e e1 0a 3e 97 41 ab 3d 3a 31 6d bf
       0.0062235566 0.13562581 0.0836212 -0.9265324
000110 3e ae bc 3d f4 4b ca 3d 8a 26 aa 3e 07 5c 22 3e
       0.092129216 0.09877768 0.33232528 0.15855418
000120 81 33 eb be d6 85 07 bd b4 4e 4d bf 7a 77 3b bb
       -0.45937732 -0.03308662 -0.80198216 -0.002860515
000130 8d 81 86 3e 98 58 88 bd ed 4d 90 3e 56 b8 ac 3e
       0.26270714 -0.06657523 0.28184453 0.33734387
000140 c4 63 8e 3e 43 a1 93 be 0f b0 d7 bd 16 1c c4 3d
       0.2781049 -0.2883397 -0.105316274 0.095756695
000150 5a 34 62 3e b6 fe 13 3e 17 f0 70 be c8 50 31 be
       0.22090283 0.14452633 -0.23529087 -0.17315972
000160 d3 f4 4a bf 32 81 28 3d 1f 2a 2e bf 7e 26 ca be
       -0.7927982 0.041138835 -0.6803302 -0.39482492
000170 ad 23 98 3d 84 b6 50 3e 41 e3 96 3e c0 8f 97 3e
       0.074286796 0.20382124 0.29470256 0.2960186
000180 66 57 f2 be 39 ef 8d be 7f a0 06 be b0 4f 1e bf
       -0.47332305 -0.27721575 -0.13147162 -0.61840343
000190 22 a8 bf be 16 6e 15 3e 94 db f7 be a7 6f d5 3c
       -0.37432963 0.14592776 -0.48409712 0.026054217
0001a0 9f 5d 8a 3e d2 70 2d 3e dd 6c b9 3d ce f3 8f be
       0.27024552 0.16937569 0.09053967 -0.28115696
0001b0 7a a0 c6 be d0 a9 31 be c4 91 39 bc a9 3c db be
       -0.3879431 -0.17349935 -0.011326257 -0.42819718
0001c0 4f 75 2f bf 7f 31 d7 be 90 66 2a bf d0 6f 5d 3e
       -0.68538374 -0.4202995 -0.6656275 0.21624684
0001d0 32 0f 94 3e ce 7c 00 be dd 8a e2 be cb 06 e2 be
       0.28917843 -0.12547609 -0.4424657 -0.44145808
0001e0 fb ef b6 3d 2a c7 93 3e f8 52 e9 be 20 db d7 be
       0.089324914 0.28862888 -0.45571113 -0.42159367
0001f0 ac 47 64 3e f5 7e 4c 3e 95 c6 a4 3e 97 54 17 be
       0.22292966 0.19970305 0.32182756 -0.14778362
000200 a1 48 db 3c 00 cb c1 3e 7c 1e c3 3e d4 cd 09 bd
       0.02676803 0.3785019 0.38109195 -0.03364356
000210 c4 9b b1 3e d4 89 bd bd b5 c6 06 3f 44 7a 5c bf
       0.34689152 -0.09254804 0.5264695 -0.8612406
000220 92 8b c9 be 20 25 38 bf ea d6 eb 3e 1e 6c af 3e
       -0.39364296 -0.7193165 0.46062404 0.34262174
000230 0d a6 e6 3e dc 50 ae 3c 5d 59 08 bf f8 c6 13 bf
       0.45048562 0.021278791 -0.5326136 -0.5772548
000240 64 38 e3 be 3a 7d cb be e4 13 40 bf 08 de 1c 3e
       -0.4437896 -0.39743978 -0.7503035 0.15319073
000250 7a 43 c6 3d 54 a6 35 be 0e b5 3c bf 9f b0 3f be
       0.09680839 -0.1773923 -0.7371377 -0.1871972
000260 f8 ba 7e 3e 98 8f 24 3e dd 23 d7 3d f2 80 fb be
       0.2487601 0.16070402 0.10504887 -0.49121815
000270 b5 d4 cd 3d 7c 28 fa 3d 53 ac a0 bd bb 29 17 bc
       0.10050336 0.12214753 -0.07845368 -0.009226258
000280 bb 37 1f be 53 6f 00 bf 81 6a 5a be 6c 4b 79 be
       -0.15548603 -0.5016987 -0.2132969 -0.24345177
000290 d8 c7 8b be 44 9c 05 3e 69 28 13 bf 12 19 8e 3e
       -0.27300906 0.13047892 -0.57483536 0.27753502
0002a0 a0 cb 64 be f2 c9 81 be 57 b2 28 be bb ff c1 be
       -0.22343302 -0.25349385 -0.16474281 -0.3789042
0002b0 ec 48 a2 be 77 60 26 3d c8 95 bf 3d f9 b2 6f be
       -0.3169626 0.04061934 0.093547404 -0.23408116
0002c0 1f cc ee be 9a 69 11 bf 94 a9 18 be d6 f4 bc 3e
       -0.46640107 -0.5680176 -0.14908439 0.36905545
0002d0 f0 66 b2 be 10 1a d6 bd 4e 88 c1 be 30 72 c6 3c
       -0.3484416 -0.1045419 -0.37799305 0.02422437
0002e0 27 1d c7 3d 80 c2 97 3d 1b c0 07 bf 77 a1 bb be
       0.09722357 0.07410145 -0.53027505 -0.36646625
0002f0 42 f4 af bd f4 43 5b be ab f1 ee bc 08 e6 8c bd
       -0.0859151 -0.21412641 -0.02916797 -0.068798125
000300 63 79 c8 3e f0 7c 0e be 15 b8 1b 3d a2 95 b4 be
       0.3915511 -0.13914847 0.03801735 -0.3527041
000310 8c 4b 2b 3e c0 ec 14 3c 21 5a 10 3e 48 52 9a 3d
       0.16728038 0.009089649 0.14096881 0.07535225
000320 16 72 13 3f fa 2b b1 bd a3 75 39 bf 33 d3 e6 bd
       0.57595956 -0.08650966 -0.72445124 -0.11270752
000330 2f 2a 6b be 7a c1 46 be 00 95 8e bc 21 0b 0d be
       -0.2296531 -0.19409743 -0.017405033 -0.13773777
000340 18 57 c6 3a e5 6a d6 be 77 3c 28 be 76 02 d8 be
       0.0015132157 -0.4187843 -0.16429316 -0.42189378
000350 83 30 c3 bd 30 59 15 be 55 27 b9 bd e5 9f b5 3d
       -0.09530737 -0.14584804 -0.09040705 0.08868388
000360 03 3e 5f bf fd 9e eb bd d8 18 62 3d bd b7 a5 be
       -0.87204 -0.11504934 0.055199474 -0.32366744
000370 0c 5e 31 be f6 cb 14 3e d4 0d ae bd b8 c9 8c 3e
       -0.17321032 0.1453093 -0.08498731 0.2749765
000380 6c 71 5b be 9c 0b 16 bf e7 09 ff be 64 ca a7 3e
       -0.21429986 -0.58611465 -0.49812242 0.327716
000390 c8 dc 66 bf 30 c2 01 3e 56 30 29 bf e8 01 be bf
       -0.90180635 0.12671733 -0.6608938 -1.4844332
0003a0 16 0a 22 3f 89 c8 08 3e 8a 5a 17 3e f4 57 df be
       0.6329664 0.13357748 0.14780632 -0.4362179
0003b0 98 fe 23 bf 71 52 44 3d a7 4a 4e 3d 4a dd af bf
       -0.64060354 0.047930185 0.050364163 -1.3739407
0003c0 83 50 ea be 64 15 27 bf 01 87 20 bf 91 59 38 be
       -0.4576455 -0.65267015 -0.62706 -0.18002917
0003d0 ba 7c 0f bf e4 54 47 3e 2b 18 0d bf 7f 4d 01 be
       -0.5604969 0.19465977 -0.55115 -0.12627219
0003e0 b2 ec ac 3e 8c 59 f0 3d 59 0d 08 be f9 3b 82 be
       0.33774334 0.1173583 -0.13286342 -0.2543638
0003f0 87 e8 19 bf 89 91 9e bd 9c b0 5e bd fd 6d da be
       -0.60120434 -0.077426024 -0.054367647 -0.4266204

cls_head.2.bias f4 [25]
000000 ca b7 5e 3e ea 1a 7e bd cf 20 25 3e 35 09 45 3e
       0.21749797 -0.062037386 0.16125797 0.19241793
000010 f1 5d c2 3e 43 e1 2e 3e a4 18 7f 3c 41 36 f1 bc
       0.37962297 0.17078118 0.01556984 -0.029444816
000020 82 e7 a3 bd a3 31 51 bd df a3 70 3d 72 a6 38 3e
       -0.08003141 -0.051072728 0.05875003 0.18032244
000030 c0 1a 92 be a6 40 33 bd 65 25 c7 3d ae 38 03 3e
       -0.28536034 -0.043762825 0.09723929 0.1281459
000040 2d 7b 93 be 85 5c 9b 3e c9 cd 9d bc ef d0 57 be
       -0.28804913 0.30344024 -0.019263165 -0.21075796
000050 1c df aa be 2d 6e 77 3e 5e bc 9c 3d 44 de c2 3a
       -0.33373344 0.24163122 0.07653116 0.0014867266
000060 c8 61 aa 3e
       0.33277726
