baseline_rnn_birds.pth (torch, 31266 bytes, 12 tensors)

lstm.weight_ih_l0 f4 [128, 4]
000000 41 fb 1b be d0 a2 a6 be 44 02 b0 be 55 48 bf bc
       -0.15232565 -0.3254609 -0.3437673 -0.02334992
000010 28 6a f1 bd bb f0 ed bd 50 27 aa bd 1c 8b df 3e
       -0.11787826 -0.11618181 -0.083082795 0.4366082
000020 e8 68 82 be 4e 91 de 3e 4a d2 d8 be dd 43 05 3e
       -0.25470662 0.43470234 -0.42347938 0.13014169
000030 e9 c0 d7 3e 46 17 55 be 07 36 95 3e 5b 47 ce 3e
       0.42139366 -0.2080966 0.29142782 0.40288815
000040 e4 7c a3 be 6d 7e 9f 3e 52 ab 72 3e dd 1b 20 3e
       -0.3193122 0.31151143 0.23698166 0.15635629
000050 dc 4b 02 bf 88 45 2c 3e e1 47 39 bf bf 21 5e be
       -0.50897 0.16823399 -0.72375304 -0.2169256
000060 d1 d5 d3 be 5e ba 73 3c 68 ea bb 3d 7e 6d 01 3f
       -0.41374066 0.014875976 0.09175569 0.50557697
000070 bf e3 b7 3e 7a 41 09 3e 35 72 42 be c6 37 a6 be
       0.35915944 0.13403884 -0.18988879 -0.32464427
000080 98 d7 56 bc 3b e1 e3 bc 78 82 85 be bf be af 3e
       -0.013112925 -0.02781736 -0.26076102 0.34325215
000090 2b 6f e4 be 11 71 92 be cc 1e 6d be ee e4 91 3e
       -0.44616064 -0.28601888 -0.2315628 0.28494972
0000a0 62 bc 1d be 27 04 14 3f db 35 61 bd bc be 00 3e
       -0.15403894 0.57818836 -0.054983 0.1257276
0000b0 97 f5 05 be 65 b4 2b be fa ff e2 bc 3c 89 af be
       -0.13081966 -0.16768034 -0.02770995 -0.3428439
0000c0 85 45 c5 be 29 74 39 bf 7c 75 e5 bd 31 ac 14 3e
       -0.38529602 -0.7244287 -0.11204049 0.14518811
0000d0 b6 75 53 3e d3 fc cb 3d 1f 47 0a 3e e9 ac 9e be
       0.20650372 0.09960332 0.13503693 -0.30991295
0000e0 0c d7 a1 3e 21 a7 47 be 69 c1 2a 3e 95 02 1b 3f
       0.3160938 -0.19497348 0.16675343 0.60550815
0000f0 f6 46 db bd 44 2a b4 bd 9c 88 8d 3d fa b5 86 bd
       -0.10706894 -0.08797124 0.06910822 -0.06577678
000100 0c 4f d9 3e fb b6 99 3e 62 2e fe be d8 bd d8 bd
       0.4244312 0.30022416 -0.49644762 -0.10583085
000110 c6 26 20 3b 8a 1f 90 be 05 5f 22 be f8 c1 68 3e
       0.0024437173 -0.28149062 -0.1585656 0.22730243
000120 6b a9 f8 be cf 47 c7 be aa 78 7e be 8f b7 f3 bd
       -0.48566756 -0.38921973 -0.24850717 -0.119002454
000130 9f 77 5c be c2 2f 4d 3e 9c 65 b8 be 2f e8 c2 bd
       -0.21530007 0.2003775 -0.36015022 -0.09516942
000140 b2 fd 7e bd 1c 15 a4 bd 8c ad a3 3c df 2b c0 3e
       -0.06225366 -0.08011839 0.019980215 0.3753347
000150 4d 45 d2 3d 56 c1 7d be 18 a7 82 be d4 61 76 3e
       0.10267124 -0.24780783 -0.25518107 0.24060756
000160 55 3e 82 3e 91 8e 21 3e 83 12 e4 bd fc 7e 03 be
       0.2543818 0.15777041 -0.11136343 -0.1284141
000170 92 06 7f 3e d8 2d 8e 3c 4b 92 b4 be ac 4d d5 bc
       0.2490485 0.017355844 -0.35267863 -0.026038013
000180 ca 4f df be 8e 8a 96 be 17 b5 a4 bd 09 6a 66 be
       -0.43615562 -0.29402584 -0.08042353 -0.22501387
000190 d7 32 e8 3c d4 7b 9f bd 6f 8b 54 3e 8b 91 11 3e
       0.028344555 -0.0778729 0.20756315 0.14215676
0001a0 fd c1 ee bd d9 84 54 3d a8 03 e6 3d a3 19 41 3e
       -0.11658094 0.051884506 0.11231166 0.18857436
0001b0 c9 2f 41 3e b3 57 2b 3e 7c c7 42 bd d1 a1 bf 3e
       0.18865885 0.16732673 -0.047553524 0.37428144
0001c0 fb d1 dc bc 19 ca 40 bf 82 42 b1 3e 81 84 8b be
       -0.026955595 -0.75308377 0.34621054 -0.2724953
0001d0 21 6c 7d 3e a0 5a 20 3f b7 bb 89 3e 6b bc 12 3e
       0.24748279 0.6263828 0.26901028 0.14329688
0001e0 08 1a 22 3f 2d cf cb bc ae 57 81 3e 46 9c c9 3b
       0.6332097 -0.024879063 0.25262207 0.0061526624
0001f0 3e c4 fe 3d 1e d2 22 be 9a b3 a1 3b 7c 00 4c be
       0.12439774 -0.15900466 0.0049347403 -0.1992206
000200 74 b0 1d be 61 91 31 3e 50 2a 22 bd b0 2f 41 bc
       -0.15399343 0.17340614 -0.039591134 -0.011791155
000210 ec a7 0f be 30 41 14 be e2 39 9b 3d 1a 27 d2 3d
       -0.14028901 -0.14477992 0.075794 0.10261364
000220 4c 53 d8 bd a0 14 08 3d d0 43 4f bc 23 fc 04 be
       -0.105627626 0.033222795 -0.012650445 -0.12986808
000230 6c 71 2e bd 39 30 08 3e c4 d0 ef bd 18 47 b9 bc
       -0.042588636 0.13299645 -0.11709741 -0.022616908
000240 00 a8 f7 3a 00 d5 7c bc ec 04 11 be 18 a1 04 bd
       0.0018894672 -0.0154316425 -0.14162034 -0.032380193
000250 f0 96 66 3c 98 aa 90 3c db 10 cf bd e0 0d 0a bc
       0.014074072 0.01765947 -0.10110637 -0.00842616
000260 90 e0 6d bc 60 8e 8c 3d 44 bd 17 bd 00 4b 95 3c
       -0.014518872 0.068630934 -0.037045732 0.01822424
000270 00 29 66 bc 40 4d d7 bb 20 d2 8c 3c 78 97 8c 3c
       -0.014047861 -0.006570488 0.01719004 0.01716207
000280 d2 10 b0 3d 7a 1d a5 3d 35 f4 27 3e 16 4a d0 3d
       0.08596958 0.08062263 0.16401751 0.10170381
000290 42 4b 9f bd 7a ff 29 be d7 b7 18 3e 48 6d a4 bd
       -0.07778026 -0.16601363 0.1491388 -0.08028656
0002a0 3a 4a 6f bd 1b 39 cd bd 80 ba 34 bd c4 b1 90 bd
       -0.058420397 -0.10020658 -0.044123173 -0.07065156
0002b0 48 8b 0a 3d db 09 17 3e ab 72 ba bd 40 5c 9a 3c
       0.033824235 0.14749853 -0.091039024 0.018842816
0002c0 ce d0 d7 3d 14 b5 b6 bd af 25 be bd 62 a0 99 bd
       0.10537873 -0.08921257 -0.09284531 -0.07501294
0002d0 f0 06 89 bc 62 18 b4 3d 60 a2 a1 3c 00 c3 b8 3c
       -0.01672694 0.08793713 0.019730747 0.02255392
0002e0 10 df 31 3d 42 66 eb bd c0 ec df 3c 06 43 b0 bd
       0.04342562 -0.114941135 0.02733457 -0.08606534
0002f0 b0 c1 6a 3c 00 07 49 3b d0 c1 7d bd 0e 2a a8 3d
       0.014328405 0.0030674338 -0.061952412 0.08211146
000300 d2 38 db bd 56 5b 76 bd 0f 07 11 3e 5f 76 1d be
       -0.10704197 -0.0601457 0.14162849 -0.15377186
000310 12 23 ce 3d bf 26 af bd f0 75 3e 3c 39 86 13 3e
       0.10065283 -0.08552312 0.011624798 0.1440667
000320 27 da 8b bd ca b9 90 3d 60 57 10 bc 5c 82 21 3d
       -0.06828719 0.070666865 -0.008809894 0.03943096
000330 5c 89 81 3d 9c 13 19 bd b4 d6 02 3d 01 62 0e 3e
       0.06325027 -0.037372217 0.031943038 0.13904573
000340 b3 00 16 be 80 f0 86 3c 1d 59 33 3e f6 d8 c9 3d
       -0.14648704 0.016472101 0.17514463 0.09855835
000350 3a 5f 31 be d2 67 dd 3d 6e 57 fc 3d 68 da 2a 3d
       -0.17321482 0.10810818 0.123213634 0.041712195
000360 60 f2 92 3d c0 aa 1f be a8 a2 06 bd 58 17 d7 3c
       0.071751356 -0.1559248 -0.032869965 0.026256248
000370 29 8a 9a bd c0 3e 2f 3d 12 14 a4 3d fe 1b 5c bd
       -0.07545883 0.042784452 0.080116406 -0.053737633
000380 e0 27 6f 3d 44 aa 6a bd 5e a4 df 3d c0 dd 22 3d
       0.058387637 -0.057291284 0.109200224 0.03976226
000390 67 98 c8 bd 7f ad 12 be 00 f0 b7 b8 81 95 92 bd
       -0.097946934 -0.14323996 -8.7708235e-05 -0.07157422
0003a0 21 8b 32 3e 00 0f 02 3c 62 0c 0a be 12 79 b3 3d
       0.17435886 0.007938147 -0.13481286 0.08763327
0003b0 fc 15 67 3d 47 5b 02 3e cf 69 13 be dd a7 2d 3e
       0.05641745 0.12730132 -0.14395832 0.16958566
0003c0 d5 03 20 3e 90 6d 5b bc 15 e2 00 3e c3 6d 22 3e
       0.15626462 -0.013392821 0.12586243 0.15862183
0003d0 3c 88 34 3d 18 ef 03 bd 40 2d 0c bd 88 5e b9 bd
       0.044075236 -0.03221044 -0.03422284 -0.090512335
0003e0 8f 43 18 3e c1 6b 23 3e 0f bc e9 bd 94 56 67 3d
       0.14869522 0.15959074 -0.114128225 0.05647905
0003f0 5c f0 7a 3d e3 03 09 be 5a 09 f6 3d d3 e5 1e be
       0.06126438 -0.13380389 0.120135024 -0.15517358

lstm.weight_hh_l0 f4 [128, 32]
000000 a3 77 29 3e 39 9f 04 3e 92 41 a0 3d 08 13 d1 bd
       0.16549544 0.12951364 0.078250065 -0.10208708
000010 e3 d2 84 bd b5 ec bd bd 68 03 f4 3c f0 bb 44 3c
       -0.06485536 -0.09273664 0.02978678 0.012007698
000020 20 0b 3b 3d eb 08 23 3e 2a 1e 9c 3d 1a 92 f2 3d
       0.045664907 0.1592137 0.07622941 0.11844273
000030 ed a6 28 3e e9 2f 11 3e b5 de 11 3e b6 1e b5 3d
       0.16469927 0.14178433 0.14245112 0.08843748
000040 e1 e3 26 3e de 3e f9 3d 2a 99 66 bd 19 3a 00 3e
       0.16297866 0.12170194 -0.056298412 0.12522162
000050 48 af 6d 3d 28 fc 0f bd 91 db 8d bd 9f b5 19 3e
       0.05802849 -0.035152584 -0.069266446 0.15010689
000060 50 31 8b 3d 9e 10 d4 3d 24 03 88 bd 40 a6 68 3b
       0.06796515 0.10354732 -0.06641224 0.0035499483
000070 91 7f 31 be e2 48 a3 3d 37 a6 21 be d1 34 18 3e
       -0.17333819 0.07972886 -0.15786062 0.14863898
000080 f1 1b 24 3e 24 95 b8 bd 57 64 1a 3e 10 b0 68 3c
       0.16026284 -0.09012821 0.15077339 0.014202133
000090 51 5b 31 3e e6 72 d8 3d b0 8a 2c bc 78 e4 49 3d
       0.1731999 0.1056879 -0.010531113 0.04929015
0000a0 90 e7 28 3c 93 f2 9b bd 6b 9f 9c bd 07 f3 bf bd
       0.010309115 -0.07614627 -0.07647594 -0.09372526
0000b0 b2 56 c5 3d 27 4a 8a bd 0b 32 12 3e 1b da 9a bd
       0.096356764 -0.06752425 0.14276902 -0.075611316
0000c0 41 87 1d be d8 9e d5 bc cd cb 93 bd d4 8b 08 bd
       -0.15383627 -0.02607672 -0.07216606 -0.033336475
0000d0 e6 2f 01 be 32 29 b4 bd 9a c7 de 3d 5f 5f 2f 3e
       -0.12615928 -0.0879692 0.10877915 0.17126225
0000e0 b3 58 20 3e 79 87 83 bd 92 81 df 3d d0 ad 7d bc
       0.15658836 -0.06422324 0.109133855 -0.015483335
0000f0 26 78 dd 3d 7c 87 19 3d d0 11 88 bd c2 66 85 3d
       0.10813932 0.037482724 -0.066440225 0.0651374
000100 93 e1 2b 3e 5d f0 0c 3e 36 df db 3d 10 10 b8 bc
       0.16785268 0.13763566 0.107359335 -0.022468597
000110 88 51 dc 3c 75 ef 2e be 26 a4 af 3d 12 ac a2 3d
       0.026894346 -0.17083533 0.08576231 0.07942976
000120 c0 0c 2d bd 65 6e 0c 3e 22 bd 9f bd a5 06 12 3e
       -0.042248487 0.13713987 -0.07799746 0.14260347
000130 b4 8f c9 bd a8 2e 9a bd ac 07 09 bd 7d 65 22 3e
       -0.09841862 -0.0752843 -0.033454582 0.15859027
000140 b0 90 08 bc f4 ac 73 3d b3 06 2a 3e 80 bc 69 3b
       -0.008335277 0.059491113 0.16604118 0.0035665333
000150 40 09 30 be 26 b5 d2 3d f4 9b 7b 3d 50 cf fd bd
       -0.17191029 0.102884576 0.061428025 -0.12393057
000160 68 da dd 3c fb 3e 08 be 60 b0 04 3d 70 15 b0 bd
       0.027081683 -0.13305275 0.032394767 -0.08597839
000170 c0 9d b8 bc a0 6d cc 3c 40 b8 05 bc ac 77 30 be
       -0.022536159 0.024954617 -0.008161604 -0.17233151
000180 50 38 e4 3c 49 d1 24 3e ae 74 2a be a0 40 b2 bb
       0.027858883 0.16095461 -0.16646072 -0.005439833
000190 fe a3 b2 3d e9 2c ee bd f5 a2 d8 bd bc 65 35 bd
       0.08722685 -0.1162966 -0.105779566 -0.044286475
0001a0 3e 51 d0 bd a7 d4 2b be e1 eb 80 bd 18 7c bc 3c
       -0.10171746 -0.16780339 -0.0629499 0.023008391
0001b0 70 1d 2b 3c 79 33 21 3e e2 c3 e5 bd d0 dd ae bc
       0.01044403 0.15742292 -0.11219002 -0.021346003
0001c0 b1 b3 c8 bd f8 6d 8c 3c b0 6b 5d bd c4 d4 8c bd
       -0.097998984 0.017142281 -0.054057777 -0.06876519
0001d0 f2 ca 1f be e0 f7 ab 3b aa fd 84 3d 03 d0 b3 bd
       -0.15604761 0.005248055 0.06493695 -0.087799095
0001e0 90 26 64 bc 4f a1 10 be 28 87 31 be 68 a6 33 3d
       -0.01392521 -0.14124034 -0.17336714 0.04385987
0001f0 d8 56 86 bd 62 9e f5 3d 76 03 08 be fd 55 2f 3e
       -0.06559533 0.119931 -0.1328257 0.17122646
000200 80 13 fa 3c b2 93 e8 3d 6a ac c6 3d 6f 83 16 3e
       0.030526876 0.11356296 0.09700854 0.14698575
000210 c9 5c 29 3e e2 71 f2 3d 60 08 0b bd 20 4c cc 3c
       0.16539301 0.11838128 -0.033943534 0.024938643
000220 48 33 08 3d c0 e0 23 3c 35 59 01 3e 80 1e 0d be
       0.03325203 0.010002315 0.12631686 -0.13781166
000230 c0 97 69 3c 0a 6e 20 be ca 54 fa bd 80 92 f9 bd
       0.014257371 -0.15666977 -0.122232035 -0.12186146
000240 90 dd 44 bc d8 6d f7 bc ff 2b a6 bd f8 a6 1f bd
       -0.012015715 -0.030203745 -0.0811386 -0.038977593
000250 63 ee 15 3e da 48 a8 3d a8 9f a1 3c 51 6d 01 be
       0.14641719 0.0821702 0.01972945 -0.12639357
000260 8f 94 28 be fa 9c 0d be 80 9b d1 bb e0 99 0f be
       -0.1646292 -0.13829413 -0.006396711 -0.14023542
000270 40 14 2b be 96 c4 a2 bd d0 69 79 3c bf ca 1a 3e
       -0.16706944 -0.07947652 0.015222982 0.15116404
000280 9e 63 23 be d0 9c 8f bc 7a 77 ea 3d 6b b9 fc bd
       -0.1595597 -0.017530829 0.114485696 -0.12340053
000290 c0 da e0 bb f9 01 c9 bd 48 55 b1 bd 2c e5 16 be
       -0.0068620145 -0.098148294 -0.08658844 -0.1473586
0002a0 c8 35 2f be f0 3d b6 3c c0 21 2a bd 10 a3 04 bc
       -0.1711036 0.022246331 -0.041536093 -0.008095518
0002b0 46 19 a4 3d 29 6b 05 3e e8 86 dd bc 01 6c 90 bd
       0.08012633 0.1302916 -0.027041867 -0.0705185
0002c0 38 36 64 3d 1d 32 d7 bd 97 ff 86 bd f2 3c 99 bd
       0.05571577 -0.10507605 -0.06591719 -0.074823275
0002d0 39 4e 0e 3e d0 21 7e bc 94 83 bb bd b2 b1 a3 3d
       0.13897027 -0.015510991 -0.09155956 0.07992877
0002e0 51 ce bc bd 76 c6 fb bd 04 3e 16 bd fb e3 0d be
       -0.09219039 -0.12293713 -0.036680236 -0.13856499
0002f0 18 6a 16 be ec 50 10 be 61 5c 1c 3e c6 a8 8c 3d
       -0.14688909 -0.14093369 0.15269615 0.068681285
000300 93 90 06 3e a7 76 29 3e ac 92 08 be 88 6d 86 bc
       0.13141088 0.16549169 -0.13337201 -0.01640965
000310 e5 92 b8 bd ae 2f ca 3d 1f 61 86 bd e6 47 d0 3d
       -0.09012393 0.098723754 -0.06561493 0.101699635
000320 99 db 9c bd 4d 5b 0d 3e bc c6 71 3d 05 54 30 3e
       -0.076590724 0.1380436 0.05902742 0.17219551
000330 8c e7 22 bd 75 0c 29 3e f2 a1 a0 3d 92 2f bf 3d
       -0.0397716 0.16508658 0.078433886 0.09335245
000340 4d 73 0e 3e 15 9a db bd 3f 7d b3 bd 28 df ee 3c
       0.13911171 -0.10722748 -0.08764123 0.029159144
000350 c9 68 18 3e ac 9e 0a be 8b b4 1f be 0b c8 08 be
       0.14883722 -0.13537091 -0.15596215 -0.1335756
000360 c5 f9 31 3e e9 56 ac bd d8 54 64 3d 9a 51 9a bd
       0.17380436 -0.08415014 0.055744976 -0.075350955
000370 12 6d 08 be e3 de 2d be 75 ee 08 3e 58 a8 48 bd
       -0.13322857 -0.16979556 0.13372214 -0.04898867
000380 58 39 10 bd 00 c0 78 38 f2 3b e2 3d 5a d8 2c be
       -0.035210937 5.930662e-05 0.1104659 -0.16879407
000390 e8 aa c8 bc 37 39 81 bd b4 c2 7c bd 64 92 83 bd
       -0.024495557 -0.06309741 -0.06170912 -0.06424406
0003a0 e4 c7 13 be 74 9c 0d 3d ad 01 25 3e 08 38 c9 bc
       -0.14431721 0.034573033 0.1611392 -0.02456285
0003b0 c1 02 bd bd 66 15 d0 3d c2 5e fa 3d 9e 99 bb 3d
       -0.09229041 0.101603314 0.12225105 0.091601595
0003c0 3d bc 30 3e c8 4f af bd 49 49 80 bd 4c e1 53 bd
       0.17259307 -0.08560139 -0.06263978 -0.05172853
0003d0 60 81 ab 3c 00 86 36 bc 20 d4 40 3d 32 82 d1 3d
       0.020935714 -0.0111403465 0.0470773 0.10229911
0003e0 08 0e 97 3c 80 19 a4 bd 25 f7 18 3e 38 f7 30 be
       0.018439308 -0.08012676 0.14938028 -0.17281806
0003f0 f8 a3 be bc 42 31 0b be 23 01 08 3e 00 50 58 b8
       -0.023271546 -0.13593009 0.13281684 -5.157292e-05

lstm.bias_ih_l0 f4 [128]
000000 f5 37 33 3f e4 50 cd 3e 43 a6 9c 3e 26 47 00 3f
       0.7000726 0.40100777 0.30595598 0.50108564
000010 4a 15 f8 3e 7f 19 42 3f 49 11 1c 3f 01 c0 0d 3f
       0.48453742 0.75820154 0.60963875 0.553711
000020 a9 53 45 3f 1f bd cd 3e 6a f9 f3 3e bc 79 03 3f
       0.7708078 0.4018335 0.47651225 0.51357627
000030 e4 ab ce 3e 6f b1 bc 3e 29 9a d2 3e 87 f6 21 3f
       0.40365517 0.3685412 0.4113324 0.63266796
000040 af aa d7 3e ae 35 19 3f 5d ca 0e 3f 39 49 16 3f
       0.4212241 0.59847534 0.5577753 0.5870548
000050 8c 42 f5 3e 9f 0d 0d 3f b0 51 21 3f e9 fe 3a 3f
       0.47902334 0.5509891 0.6301527 0.7304521
000060 ca d6 08 3f 87 e2 32 3f 3d 1e 2d 3f 21 eb 0a 3f
       0.5345274 0.69876903 0.67624265 0.5426503
000070 d9 5f 49 3f 72 dc bf 3e 27 87 bb 3e 18 da 3d 3f
       0.78661877 0.37472874 0.3662655 0.7416091
000080 ef 87 bd bd c0 35 8f 3c 40 c2 c7 bd 90 bf a6 bd
       -0.09254443 0.017481685 -0.09753847 -0.081420064
000090 1c f7 79 bd cc 28 12 be ea 12 89 3d 1e cd f4 3d
       -0.061026677 -0.14273375 0.06693061 0.119531855
0000a0 50 c9 8f 3d 38 e2 19 3d 09 ca e5 bd 3f 55 e6 bd
       0.07020819 0.037569255 -0.11220176 -0.11246728
0000b0 70 bc b0 bd 64 6c 6c 3d bb 17 23 3e da 6d 2c be
       -0.086296916 0.057720557 0.15927021 -0.1683878
0000c0 8e 91 c0 3d 10 9d 06 3d 28 c9 f1 bc 10 f8 64 3d
       0.09402762 0.03286463 -0.029514864 0.055900633
0000d0 06 43 eb bd 85 ab 88 bd 10 77 6c 3d 5c 76 76 3d
       -0.11487393 -0.0667334 0.057730734 0.06017147
0000e0 ab 24 00 3e f6 6f c9 3d 90 3c 6b 3c 74 84 0d be
       0.12513988 0.09835808 0.014357701 -0.13820058
0000f0 b2 59 30 be c2 0b 99 3d e6 c6 63 bd 2c 53 4a bd
       -0.17221716 0.07472946 -0.055609606 -0.049395725
000100 73 c4 e8 3d 5b a2 1d be 5f c0 ad be 1f d3 8d 3e
       0.11365595 -0.15393965 -0.3393583 0.27700135
000110 42 d6 cd 3e a9 8a 16 3e 22 3d a4 be 26 3f ad 3e
       0.40202528 0.14701332 -0.3207789 0.3383724
000120 03 39 16 be 35 98 0c be 9b 4c ae 3e 7d 9b c8 be
       -0.14670186 -0.13729937 0.3404282 -0.39181128
000130 b1 11 6c bd cc 1f ce be 0a f1 72 3d 3c f8 ff bd
       -0.05763406 -0.40258634 0.059311904 -0.12498519
000140 44 06 04 3e bd f5 09 3f 1e 36 61 3e 5b 9b 77 3e
       0.12893015 0.5389059 0.219933 0.24180357
000150 21 b5 d5 3d f7 11 50 3e 42 a3 c5 3e 71 2a ec bd
       0.10434938 0.20319353 0.38601118 -0.115315326
000160 70 7c ce be 25 b9 44 bc 81 86 2e 3d 19 99 c9 bb
       -0.40329313 -0.0120070325 0.04260874 -0.006152284
000170 ba 1e 0e 3e ca 9f 8e be e6 2e bc be 22 fb df be
       0.13878909 -0.27856284 -0.3675453 -0.43746287
000180 89 34 17 3f 9d dc b3 3e 37 fb e1 3e ae f7 9c 3e
       0.5906454 0.35129252 0.44136974 0.30657715
000190 0d 9c 17 3f 41 56 44 3f 01 42 04 3f e5 40 2e 3f
       0.5922249 0.76694113 0.51663214 0.6806777
0001a0 e9 26 0d 3f 92 7b 23 3f 01 5f 8a 3e eb 89 fe 3e
       0.551375 0.6386043 0.27025607 0.49714598
0001b0 63 3d df 3e 08 35 0e 3f d1 7d 8c 3e 87 15 19 3f
       0.43601522 0.5554967 0.2743974 0.59798473
0001c0 ec 0a 00 3f 7e 8a cd 3e 96 45 cb 3e f3 99 12 3f
       0.50016665 0.40144724 0.39701527 0.5726616
0001d0 8e b3 e9 3e ce ca 26 3f c9 80 02 3f b9 84 46 3f
       0.45644802 0.65153205 0.5097776 0.7754627
0001e0 ab 7d 14 3f 2f 7d 1b 3f 02 56 ec 3e 21 05 32 3f
       0.58004254 0.6073789 0.4615937 0.69539076
0001f0 88 18 43 3f e6 63 bd 3e 27 6d 0e 3f 3e 60 2f 3f
       0.76209307 0.3699028 0.55635303 0.6850623

lstm.bias_hh_l0 f4 [128]
000000 f3 ca d5 3e 75 7d aa 3e a3 a0 f5 3e 6d f0 d0 3e
       0.417564 0.3329884 0.4797412 0.4080843
000010 3a c4 17 3f 81 32 1a 3f 73 c2 2c 3f a1 21 05 3f
       0.5928379 0.6023331 0.67484206 0.5200444
000020 21 66 47 3f f0 24 0d 3f 2b 2a 0b 3f 51 59 4a 3f
       0.7789021 0.5513449 0.5436122 0.79042536
000030 fa 85 19 3f 34 2a 18 3f 29 16 9a 3e 08 26 04 3f
       0.59970057 0.59439397 0.30095032 0.5162053
000040 2a 14 1c 3f 66 0f 11 3f ed b7 1e 3f d7 5e 08 3f
       0.6096827 0.5666412 0.619994 0.53269714
000050 bb e1 2e 3f 28 f6 0e 3f 97 32 12 3f 75 67 27 3f
       0.6831319 0.55844355 0.57108444 0.6539224
000060 bc 80 c5 3e d0 8b 3b 3f a9 7e bb 3e 28 52 1d 3f
       0.3857478 0.7326021 0.36620072 0.61453485
000070 3a 9e 46 3f b1 16 c6 3e a6 f2 24 3f 92 1b 34 3f
       0.77585185 0.38689187 0.6443275 0.7035457
000080 75 2e 0d 3e 08 03 d0 bc 25 76 2a be c0 f2 38 bb
       0.13787253 -0.02539207 -0.16646631 -0.0028220862
000090 f2 93 b6 bd 6d 8e 15 3e dc 1f 5d 3d 9b fc 25 3e
       -0.08914937 0.14605112 0.05398546 0.16209643
0000a0 e0 51 45 bc 76 e0 09 be f0 0d 07 bd 6c 74 04 be
       -0.012043446 -0.13464531 -0.032972276 -0.12935036
0000b0 de dc df 3d be f3 b2 3d 48 d0 28 be 70 50 fa 3c
       0.10930799 0.087378964 -0.16485703 0.030555934
0000c0 ba 35 d9 3d 68 e1 7e 3d c4 92 5b 3d 90 79 3b 3c
       0.10605951 0.062226683 0.053606763 0.011442557
0000d0 76 01 98 3d 05 d9 25 3e c8 ff 23 3d c8 21 33 be
       0.07422154 0.16196068 0.040038854 -0.17493355
0000e0 a6 5d 0a be e9 39 01 3e df 17 dc bd bc e1 c1 bd
       -0.13512287 0.12619747 -0.107467405 -0.094668835
0000f0 93 a8 33 3e 4e ef b8 bd eb 46 2d 3e 2b f1 33 be
       0.17544775 -0.09030019 0.16921584 -0.17572467
000100 dd 6e 8a 3e 1c fe 20 3c 81 3f ca be 58 7a d6 3e
       0.27037707 0.009826209 -0.39501575 0.41890216
000110 dc d7 c0 3e ed 4a a9 3e ac 62 5a be e6 45 cb 3e
       0.37664688 0.33064976 -0.21326703 0.39701766
000120 fc 74 c2 be 92 5b a4 be 9f 0b 8b 3e d1 d3 00 bf
       -0.37979877 -0.32101113 0.27157304 -0.50323206
000130 44 e6 18 be 10 cd d7 be 6e 2b 72 3e 6b 81 af bd
       -0.1493159 -0.42148638 0.2364938 -0.085696064
000140 c0 1d 8f 3e 78 cf 8e 3e ee 9e bf 3e 5c 0a ce 3e
       0.27952385 0.2789266 0.3742594 0.4024228
000150 e5 65 af 3e 5f 3b e3 3e 2c 2d e6 3e d0 7f 1c 3b
       0.34257427 0.44381234 0.44956338 0.0023879893
000160 8b 97 1d be d0 80 e6 bd 66 25 af 3e a4 70 cf bd
       -0.1538984 -0.11255038 0.3420822 -0.10128906
000170 08 8f 8a 3e c3 d6 a5 be 2d 49 66 be 49 de 9a be
       0.2706225 -0.32390413 -0.22488852 -0.30247715
000180 56 fe 3b 3f 86 81 ab 3e f4 c2 1a 3f b8 48 dc 3e
       0.7343496 0.33497256 0.60453725 0.4302423
000190 05 ba 11 3f a2 53 14 3f be f7 fa 3e 0f fb 13 3f
       0.5692447 0.57940114 0.49017137 0.5780496
0001a0 d4 39 35 3f 50 e1 f2 3e 51 27 0f 3f ed 39 46 3f
       0.70791364 0.47437525 0.5591937 0.7743214
0001b0 57 46 ec 3e c7 45 2f 3f bf 4f e5 3e d3 2c 08 3f
       0.46147415 0.68465847 0.44787404 0.53193396
0001c0 93 23 05 3f 8b b1 c7 3e e5 87 00 3f 5c af 41 3f
       0.52007407 0.39002642 0.5020736 0.756582
0001d0 f8 1b 23 3f 2a 0f 22 3f db 77 51 3f 1f 58 55 3f
       0.6371455 0.6330439 0.8182351 0.8333759
0001e0 95 0e e6 3e ba a5 26 3f 77 0f fc 3e 1f ca 16 3f
       0.44933 0.6509663 0.4923055 0.5890216
0001f0 53 04 5d 3f 01 c2 23 3f 76 16 27 3f f4 cd 34 3f
       0.86334723 0.639679 0.6526865 0.7062676

reg_head.0.weight f4 [16, 32]
000000 86 09 af 3e da d8 8f 3d 69 13 c1 be 81 0d 2f 3d
       0.34186953 0.07023783 -0.3771012 0.042737488
000010 f6 35 a0 3d 23 d0 ba 3d 54 ea de bd 01 41 ae 3d
       0.07822792 0.0912173 -0.10884538 0.08508492
000020 b5 83 49 be c3 d0 7c be c7 56 a9 3e 7c 67 73 be
       -0.19679148 -0.24689011 0.33074018 -0.23769945
000030 22 45 e3 bd cc 96 05 be ae 68 cd 3b b8 48 08 be
       -0.110971704 -0.13045806 0.0062685823 -0.1330899
000040 f6 8a 3f 3e da 37 06 be e4 a1 70 be 4a 0e 7e 3e
       0.18705353 -0.13107243 -0.23499256 0.24810138
000050 6d 4f fd bd b2 0f 69 3e b0 86 8b 3d d6 84 8e bd
       -0.12368665 0.22759894 0.06812799 -0.0695893
000060 29 2c ff 3d c2 99 15 3d 43 8b a5 be 7d 2c 93 bd
       0.12459595 0.036523588 -0.3233281 -0.0718622
000070 36 e8 8e 3e f0 38 70 3d 4f d1 54 be 62 df c6 3d
       0.27911538 0.05864805 -0.2078297 0.09710576
000080 57 df 6a 3e 9b 36 35 3d ff 66 98 bd 09 d6 5a 3e
       0.2293676 0.04424153 -0.0744152 0.2137071
000090 ca 76 17 3e a7 70 e6 3b a8 5b 97 3d 89 ea 2a 3e
       0.14791408 0.007032472 0.07390529 0.1669103
0000a0 68 fd 4b 3d 03 ec 02 3c ec f9 04 3e b7 ef 70 bd
       0.049802214 0.00799084 0.12985963 -0.05882236
0000b0 75 e3 5b be 9f e7 b8 bd f6 25 30 3e 5d 41 77 3d
       -0.21473487 -0.09028553 0.17201981 0.06036507
0000c0 db 2e 46 3d ea 12 2a 3e 32 9d 36 be 8e 04 74 3e
       0.04838453 0.16608778 -0.17833403 0.23829862
0000d0 e5 0f 58 bd 04 c4 e6 3d 52 04 e3 3c 17 54 56 3e
       -0.052749533 0.11267856 0.027712021 0.20930515
0000e0 4b bf f8 3d 88 cf a1 3d d6 f5 38 be 3f d3 81 bd
       0.12145861 0.079009116 -0.18062529 -0.0633912
0000f0 78 cb aa 3e 23 78 b5 bd 0d 3f e9 bd d6 81 b6 bd
       0.3335836 -0.08860805 -0.11388979 -0.08911483
000100 57 e9 3b bc f1 62 99 3d e0 57 dd 3d a6 62 e8 3d
       -0.011469207 0.07489575 0.108077765 0.11346941
000110 a4 f9 0e bd f7 2b bd 3d f7 ce 09 bd 49 55 87 bd
       -0.034906045 0.09236901 -0.033644643 -0.06608064
000120 8c a0 b7 3d 05 ce bd bd de b0 2c 3d 71 4a 01 3e
       0.08966169 -0.09267811 0.04216086 0.12626053
000130 f0 bd 9d bd 31 31 26 3d ea 32 3c be 17 67 9a bd
       -0.07702243 0.040574256 -0.18378797 -0.07539194
000140 43 38 03 be 16 71 0d be 08 f6 45 3d 1d ea 98 bc
       -0.12814431 -0.1381267 0.048330337 -0.018666321
000150 45 01 ce bd 53 a4 1c be 4b 45 0b be 30 c9 c0 bd
       -0.10058836 -0.1529706 -0.13600652 -0.094133735
000160 fa ef d6 bd a4 50 2e 3e e4 2d ba 3d 8d 98 c3 3c
       -0.10494991 0.1702295 0.09090784 0.023876453
000170 a1 b9 6f bd a2 20 dc 3b 53 88 d1 3c 8b b4 d6 bd
       -0.05852664 0.0067177573 0.0255777 -0.104836546
000180 3f 7b 1a 3d f4 a2 0d 3e 79 b9 c4 bd f9 89 37 be
       0.037715193 0.13831693 -0.096056886 -0.17923726
000190 a9 98 04 3e 64 bd 22 be 9d cf 44 bd 45 dc c7 bd
       0.1294886 -0.1589256 -0.048049558 -0.0975881
0001a0 c1 f3 e3 bd 71 af 29 3e e5 6c 07 be 31 90 08 be
       -0.11130477 0.16570832 -0.13225134 -0.13336255
0001b0 92 aa 18 3d 2b 6d 09 3e ef 64 f0 bc 90 e7 b6 3d
       0.037272044 0.1342055 -0.029345004 0.08930886
0001c0 29 9d 1c bd 6c 77 27 bd ad a5 90 bd 53 f9 e2 3d
       -0.038235817 -0.040885374 -0.0706285 0.11082711
0001d0 d3 b2 24 3e e6 41 39 3c e0 1e 1c be ab 0c fd bd
       0.16083841 0.011307215 -0.15246153 -0.12355932
0001e0 2a e8 70 bd 8c 8c 29 3e 9c 72 6d bd 7d 38 98 bd
       -0.05881516 0.1655752 -0.05797063 -0.07432649
0001f0 c7 8a 1e bc 08 fa b0 bd 6d cc 2d 3d 8c 99 67 bd
       -0.009676642 -0.0864144 0.042431284 -0.056542918
000200 ec 57 23 be c1 e4 4a be 71 10 1e 3b 48 9d cd 3e
       -0.15951508 -0.19813825 0.0024118687 0.4015906
000210 11 dd 00 3e 97 d6 87 3e ec bc 84 3c 80 3a 34 be
       0.1258433 0.26530907 0.016203366 -0.17600441
000220 12 77 59 be fd c3 97 be 9d be 11 3e 4c a4 99 bd
       -0.21236828 -0.29641715 0.1423287 -0.0750204
000230 c4 48 96 be cd 5e 8c be 9a a1 bd 3c e0 42 98 be
       -0.2935239 -0.27416077 0.023148347 -0.29738522
000240 47 34 07 be e9 00 7b 3e 1c 76 e2 3c 5b 91 8a 3c
       -0.13203536 0.24512066 0.02764421 0.016915014
000250 ef 16 ea 3d d2 10 77 be 34 8b 80 3e 90 48 86 3e
       0.114301555 -0.2412751 0.25106204 0.26227236
000260 d3 bc 0b be f6 55 59 3e b0 9b ad 3e db dc b8 bc
       -0.1364625 0.21224198 0.33907843 -0.02256625
000270 1d 5f ab 3e 77 44 e0 3c ce 8b db 3d 6c ac 9b be
       0.33471003 0.027376397 0.10720025 -0.30404985
000280 34 00 82 3d 20 da f5 bb f8 e7 78 3d 83 3a 1d be
       0.06347695 -0.007502809 0.060768098 -0.15354352
000290 b7 92 c1 bd 00 4a 61 3d 60 54 d3 bc 72 b3 ac 3d
       -0.09451812 0.055002213 -0.02579707 0.08432664
0002a0 a0 93 09 bd 09 5d 04 3e 3a 5c 0b be 6e 83 5c bd
       -0.03358805 0.12926115 -0.136094 -0.05383628
0002b0 40 47 81 3c 34 31 c1 bd b0 52 14 bc 60 a1 1c 3c
       0.015781045 -0.09433213 -0.009052917 0.009559959
0002c0 cb 1c 26 3e a0 71 24 be 92 a2 ba 3d 40 8c 1b 3b
       0.16221921 -0.1605897 0.09113039 0.0023734719
0002d0 9a 9e 09 be fe 18 e1 3d 6f 38 28 3e 3c 6e 0c 3d
       -0.13439408 0.10991095 0.16427778 0.034284815
0002e0 88 66 8e 3c 5b 45 06 be 00 8c cd 3b ae 19 f6 bd
       0.017382875 -0.13112395 0.006272793 -0.12016617
0002f0 05 5d a4 bd f2 bd 63 bd 28 5e 91 3c 91 cc 2c 3e
       -0.080255546 -0.055601068 0.017745093 0.16874911
000300 67 a0 f4 3c df 06 bc 3d 0f ba b8 bd 58 5f 92 bc
       0.029861642 0.09180998 -0.09019863 -0.017867729
000310 78 9d ef bd e4 3b 2f 3d b3 d6 7d bc 70 14 2b be
       -0.11699957 0.042781726 -0.015493083 -0.16707015
000320 bb c7 f3 3d ee f3 d2 bd cf 8f 70 3d db 17 11 3e
       0.1190333 -0.10300432 0.058730897 0.14169256
000330 6c 5e 27 3e b1 d0 4e 3d bd bd ce bd ec cd dc 3d
       0.16344613 0.050491992 -0.100947835 0.10781464
000340 a7 1d c2 bd 68 99 85 3d 41 a3 46 3e 26 96 d9 3c
       -0.09478312 0.065234005 0.19398214 0.026560854
000350 81 ed 0c be e9 e6 af bd 91 0f 58 bd 64 51 a3 3d
       -0.13762476 -0.085889645 -0.05274922 0.079745084
000360 ed 26 30 bd 7b 5b 2c 3e fa 39 af bd a0 8a 53 bc
       -0.043005873 0.16831772 -0.0855598 -0.012911469
000370 04 ee c0 bd fb b8 bd 3c 61 0c 68 3c 17 eb 0d be
       -0.09420398 0.023159495 0.014163108 -0.13859211
000380 96 16 86 be a1 42 19 3c 32 81 d3 3c 8c 20 6a 3e
       -0.26189107 0.0093542645 0.025818441 0.22863978
000390 7c 1e 71 be 84 6b a4 3d c9 e9 11 be 22 92 ee bd
       -0.23546785 0.080283195 -0.14249338 -0.11648966
0003a0 e2 34 4b bd 15 c0 a3 bc 75 5d 4a 3e b1 70 25 be
       -0.04961098 -0.019989053 0.19762214 -0.1615627
0003b0 37 9c 25 3e ec 51 bb be 3c c3 7e 3e 3e e7 3a bd
       0.16172872 -0.3658594 0.24879164 -0.045630686
0003c0 06 27 a4 3d 6f e7 2f 3e 0d d9 8e bd 65 97 63 bd
       0.08015256 0.17178129 -0.06974993 -0.055564303
0003d0 44 fd 06 3e 33 ae 0e be 4a 67 92 3d 68 40 46 be
       0.1318255 -0.13933639 0.07148607 -0.19360507
0003e0 49 ce 3a bd 81 81 8b bd 9b 58 7c 3e c2 63 e5 bd
       -0.045606885 -0.0681181 0.24643175 -0.11200668
0003f0 ad 02 4c be cc 36 da be fa 2c 0e 3e 7e 16 bd bc
       -0.19922896 -0.42619932 0.13884345 -0.023082014

reg_head.0.bias f4 [16]
000000 de 79 89 3e e5 d3 32 bc b8 c5 ef bd 25 d4 06 be
       0.2685079 -0.010914777 -0.11707634 -0.13166864
000010 fa 22 2d 3e 36 37 20 be e4 8a 13 bd 49 b0 c6 3d
       0.16907874 -0.15646061 -0.03602113 0.097015925
000020 eb 35 87 3e 4b 4c dd bd 64 33 01 be 8d b6 da 3d
       0.26408324 -0.10805567 -0.1261726 0.1067935
000030 59 ca a7 3d 44 75 c2 3e ae d8 78 3e b1 49 66 bd
       0.08192892 0.37980092 0.24301407 -0.05622262

reg_head.2.weight f4 [2, 16]
000000 a8 03 d3 be de 9e c7 be 00 6d 4f be 3e d7 5c 3e
       -0.41213727 -0.38988394 -0.20256424 0.21566483
000010 c5 61 0a 3e 22 41 05 be 35 2f 4d 3e fb d5 a3 3e
       0.13513859 -0.13013127 0.2003754 0.31999192
000020 66 4a de be 74 41 67 be 89 89 8d 3e e7 d5 ad 3e
       -0.43416137 -0.22583562 0.27643993 0.33952257
000030 8a a5 81 3d 94 e6 da 3c e2 88 7c 3e b5 87 91 3d
       0.06330402 0.026721276 0.24661592 0.07105962
000040 c8 00 81 3e c9 41 00 3d 82 63 35 be 85 e2 ec 3d
       0.2519591 0.031312738 -0.1771374 0.11566643
000050 74 72 b9 be 32 06 60 be 6d 90 41 be 94 26 c4 bd
       -0.36220133 -0.21877363 -0.1890275 -0.09577671
000060 70 6e 2e be 50 b1 24 3c 01 27 91 3e 5c 69 2d be
       -0.17034316 0.01005204 0.2835007 -0.16934723
000070 1a ce 86 be a7 fc d4 3e 70 e6 d1 be cb d5 d8 3e
       -0.26329118 0.41599008 -0.40996122 0.4235061

reg_head.2.bias f4 [2]
000000 e5 1e d7 3d 8d ad 16 3e
       0.105039395 0.14714642

cls_head.0.weight f4 [16, 32]
000000 9d a2 8e 3e 6b cc a4 3e 3f 30 e5 be 7f ac 70 3d
       0.2785844 0.3218721 -0.4476337 0.058758255
000010 e9 56 90 3d b9 b8 1f 3f 0d ae fe be 09 a3 0d 3f
       0.07047827 0.6239124 -0.49742165 0.55326897
000020 29 9c 3d bd 92 c0 a9 be 7e e5 fc 3e a1 8a 4c be
       -0.046291504 -0.33154732 0.4939384 -0.19974758
000030 a5 71 e6 bd 88 95 cb be 64 81 cf 3c 54 09 1a 3e
       -0.11252145 -0.3976252 0.025330253 0.15042621
000040 86 3b 9c 3e 33 1b 5a 3e 9a 4d 99 3e 00 1a 74 3e
       0.30514163 0.21299438 0.29942018 0.23838043
000050 da b9 04 3e 09 3c 18 3f 7d 77 85 be 77 e9 a2 be
       0.12961522 0.59466606 -0.26067725 -0.31818745
000060 91 38 92 be 10 40 c8 be c9 6e bf 3e d2 75 06 bf
       -0.28558782 -0.39111376 0.3738921 -0.5252353
000070 2b 27 0a 3f 70 c7 85 be 8e 09 d6 be 13 e2 06 bf
       0.53966016 -0.2612872 -0.41804165 -0.5268871
000080 c1 a2 77 3e 06 27 3d 3f d4 f8 14 bf 86 02 a5 3d
       0.2418318 0.7388767 -0.5819218 0.08057122
000090 69 ed d2 3e b8 c5 d1 3e 55 55 1c bf ce 8a d5 3e
       0.41196755 0.4097116 -0.61067706 0.41707462
0000a0 95 be a0 3c 66 e2 22 be bd 78 30 3f ca da 81 3e
       0.019622127 -0.15906677 0.6893423 0.25362235
0000b0 94 18 68 3e 16 11 a7 be e2 6c 0f bf f8 1f 66 3f
       0.22665626 -0.32630223 -0.56025517 0.8989253
0000c0 47 e6 3a 3f 94 e4 9b be 2f 02 26 bf 5c 15 4f be
       0.73007625 -0.3044783 -0.6484708 -0.20222992
0000d0 8e aa bb 3d e0 8c a8 3e d4 b8 e5 be e0 09 5e bf
       0.0916339 0.3291998 -0.44867575 -0.8673382
0000e0 74 cf 3f 3f ff 59 2e bf 1c 8a 9c bd 97 2c 38 bf
       0.74925923 -0.68106073 -0.0764353 -0.7194304
0000f0 eb 3f 23 be 47 88 4c bf cb ae 05 bf 8a 46 74 bd
       -0.15942352 -0.7989544 -0.5221984 -0.059637584
000100 29 09 15 3f 83 a1 25 bf c0 5d b5 be ba b8 be 3e
       0.582171 -0.6469957 -0.35423088 0.3725031
000110 80 89 0b 3f 38 0d 09 3f f0 b8 84 3d f8 57 2c be
       0.54506683 0.53535795 0.064805865 -0.16830432
000120 3b e0 08 bf 86 8b 11 bf c0 02 0a be a1 6e 05 bf
       -0.5346715 -0.5685352 -0.13477612 -0.5212193
000130 d5 2c f6 be d6 34 02 be 1d d1 ed 3e f6 48 2f bf
       -0.4808108 -0.12715468 0.46448603 -0.68470705
000140 f1 b9 b7 bc 55 65 f5 3e df 53 03 3f 66 14 2b 3f
       -0.022427531 0.47928873 0.5129985 0.66828
000150 a3 f6 39 3f 3a df 7c 3d d5 0e d0 3e ba 41 0f bd
       0.7264196 0.061736323 0.40636316 -0.03497479
000160 2b 02 cc be 32 e9 09 3f 04 b4 cb bb 63 da 16 3f
       -0.39845404 0.5387145 -0.006216528 0.5892698
000170 0d de c7 3e 53 a6 b8 bc 03 d5 ad 3e c2 d5 30 be
       0.390366 -0.022540247 0.33951578 -0.17269042
000180 12 f0 4f bf c7 ea 15 bd d9 1f e6 3e 7e 6f d6 3e
       -0.81225693 -0.036600854 0.44946173 0.41881937
000190 c5 98 3c bd b5 25 e2 be 78 de 9c 3e b0 eb 15 3e
       -0.04604413 -0.44169393 0.3063848 0.14640689
0001a0 58 34 f3 3e 4e 94 d4 3e 52 44 45 bd 0c 28 28 bf
       0.47500873 0.41519397 -0.04816086 -0.65686107
0001b0 11 28 ac 3e 6e 3a e1 be f4 e4 db 3c 22 5e 9f be
       0.33624318 -0.4398989 0.026842572 -0.31126505
0001c0 6f 1d 00 bf 5c 6d e0 3e 03 21 33 3f a5 0e 91 be
       -0.5004491 0.43833435 0.69972247 -0.28331485
0001d0 2a 8e 14 bc b2 51 63 3e 99 ea fb 3e 71 f0 60 3f
       -0.009067098 0.22199133 0.4920242 0.87866884
0001e0 26 47 6f bf 6f 0a a5 3e e2 a2 2d 3f 3b 6d 40 be
       -0.9346794 0.32234523 0.67826664 -0.18791668
0001f0 20 c2 82 3f 1f 80 f9 bb a0 d6 22 bf b6 2d 40 bf
       1.0215492 -0.00761415 -0.6360874 -0.7506975
000200 41 c5 12 3f 8b 22 9a 3e 2e e0 04 bf 59 51 8b 3e
       0.57332236 0.3010448 -0.5190457 0.272105
000210 e3 5e 63 3e 45 19 d4 3e e6 50 3b bf 68 a9 bb 3e
       0.22204165 0.4142553 -0.73170316 0.36652684
000220 64 7d 01 bf 01 b3 8d be 46 a8 ab 3e c7 80 e8 be
       -0.50581956 -0.27675632 0.3352682 -0.4541075
000230 3e 97 2b bd c0 ea 33 bd df 8f 35 3d b8 b0 96 be
       -0.041892283 -0.043925047 0.04432666 -0.294317
000240 61 46 c5 3e 01 b7 69 3e 2f 9e 17 be aa 4a 2c 3f
       0.38530257 0.22823717 -0.14806436 0.6730143
000250 84 2a b2 3e 06 c2 e4 3e 7f b4 20 3f 7a 6c b4 be
       0.34798062 0.44679278 0.62775415 -0.3523901
000260 d7 7c 46 3e eb c5 64 be 59 35 0e be 65 02 b9 be
       0.1938356 -0.22341125 -0.13887538 -0.3613464
000270 9d db a2 3c db 6e a5 be f8 c3 93 be b0 a7 40 be
       0.01988011 -0.3231114 -0.2886045 -0.18813968
000280 9a b7 8a 3e bb ca 17 3f ed 25 8d be f9 81 f6 3d
       0.27093202 0.5929372 -0.27567998 0.12036509
000290 43 75 40 3f 1c 95 0d bc 5f a5 d2 be a9 74 c0 bd
       0.7517893 -0.0086415075 -0.41141793 -0.09397251
0002a0 37 12 3a be eb 09 0b bf 62 1a ff 3e c6 cb ff be
       -0.18171011 -0.5431201 0.49824816 -0.49960154
0002b0 9b 86 eb be c0 8f e5 3e b4 df c2 be e8 77 60 3e
       -0.46001133 0.44836235 -0.38061297 0.2192074
0002c0 ed f1 f1 3d 69 cd a4 be 0b e1 37 bf fe 42 20 3f
       0.11813722 -0.32187966 -0.71827763 0.6260222
0002d0 0b ff 31 bf 68 5f d6 3e 89 7d d6 3e f8 f6 5a be
       -0.6952979 0.41869664 0.4189265 -0.21383274
0002e0 b4 c3 1f 3f 86 fd f3 be 3a ca 0b bf b0 4e 86 be
       0.62407994 -0.4765436 -0.5460545 -0.2623191
0002f0 a3 07 7d 3e 66 32 7d bb cc fe 9c be 8f 3a f6 3e
       0.24709944 -0.0038634776 -0.30663145 0.48091552
000300 4b e7 db be bc d7 a9 3c f4 1a ca be 26 ef d2 3e
       -0.429499 0.020732753 -0.3947369 0.4119808
000310 60 a5 55 3e 3d 5b 84 bc da cc 35 3e 0b 5c d0 3e
       0.20863867 -0.016156787 0.17753926 0.40695223
000320 44 6c b3 3d 50 0a f0 3e 28 c0 da 3e eb e7 93 bd
       0.087608844 0.46882868 0.4272473 -0.07221969
000330 e6 97 fa 3e ed 37 0c bf e7 5f 06 bd 5b d1 38 3f
       0.48944014 -0.54772836 -0.032806303 0.7219445
000340 39 7c 1d 3f d7 2e ae 3e 02 db 17 3f 34 93 a8 be
       0.61517674 0.3402011 0.59318554 -0.32924807
000350 db 13 af 3e bf 27 7a 3e a3 dc c5 bd 3f 2a a1 be
       0.34194836 0.24429224 -0.09661224 -0.31477544
000360 a8 80 05 bf 54 84 36 bf dc 34 27 3f 41 65 fd be
       -0.5214944 -0.71295667 0.6531503 -0.49491313
000370 d4 db 3b 3e 5e 69 b5 be 6f c4 2d bf 99 e9 1b bf
       0.18345577 -0.3543195 -0.6787786 -0.60903317
000380 fe fc 4b 3f 18 29 a6 be 02 b5 cf be 4f 53 51 3d
       0.7968291 -0.32453227 -0.40567786 0.05110484
000390 04 fc cd 3e 9f ce 31 3f cc 0f 6d be ac 6c c9 bd
       0.40231335 0.69455904 -0.23150557 -0.09835181
0003a0 a2 4a f7 be d6 af 29 bf 55 01 da bd ba b6 f4 be
       -0.48299128 -0.6628393 -0.10644785 -0.4779566
0003b0 7c 6d 3b bf 93 ce 83 b9 10 09 c9 3e 82 64 be be
       -0.73213935 -0.00025140177 0.39264727 -0.37186056
0003c0 a5 df cd be e3 84 ed 3e e8 7b 83 3d be ba 55 3f
       -0.4020969 0.46390447 0.064201176 0.8348807
0003d0 d3 44 92 3e 0b ce fc 3e a6 e7 c4 3e d5 01 d5 3e
       0.28568134 0.49375948 0.38457984 0.4160296
0003e0 54 dc 0c bf 10 6a 51 3f 03 aa 33 bd 75 36 cb 3e
       -0.55023694 0.81802464 -0.043863308 0.39689985
0003f0 ff 29 02 3f 35 05 a0 3e cc 67 a3 3e e4 e8 0e bf
       0.5084533 0.31253973 0.31915128 -0.5582411

cls_head.0.bias f4 [16]
000000 fd 38 c1 3e b2 80 65 3e 5e 49 91 3e 41 08 00 3e
       0.3773879 0.22412375 0.28376287 0.12503149
000010 f7 1b 7b 3e 95 ac 22 3e 83 90 ae 3e 2a 16 a4 3e
       0.24522386 0.15886147 0.3409463 0.3204816
000020 90 a8 6b bd ff 5f d4 3e bb e4 79 3e 32 79 83 3e
       -0.0575338 0.4147949 0.2440366 0.25678402
000030 97 7c 08 be f7 45 ba 3e 5d fd 4d 3e 67 09 3c be
       -0.13328777 0.36381504 0.20116182 -0.18362962

cls_head.2.weight f4 [25, 16]
000000 b3 c2 c3 3d fb 0f 58 bf 4a 9c 5a 3e d0 90 c9 be
       0.0955862 -0.84399384 0.21348682 -0.39368296
000010 46 1b 25 3e bc 14 52 bf 41 ae f1 bd c9 f2 85 3e
       0.16123685 -0.8206289 -0.118008144 0.26161793
000020 37 87 de 3d 9a af 45 3e 3a 9b 11 3e 77 1c e0 3c
       0.10865634 0.19305268 0.1421937 0.027357323
000030 d3 f1 ac bc 9b 4f 94 be ee c0 23 3e 12 75 96 bd
       -0.021111405 -0.28966984 0.15991566 -0.07346548
000040 8e 74 ed 3e 30 be a6 3e 26 89 88 bf 4f da 49 bf
       0.46377987 0.32566977 -1.0666854 -0.7884874
000050 ab 42 f3 be 1b 26 f5 be 76 e7 af 3e 9c 41 74 bf
       -0.475118 -0.47880635 0.34356278 -0.9541261
000060 b3 1e 98 3d 46 d0 33 bf 4b 77 03 be 94 a5 93 3e
       0.074277304 -0.70239675 -0.12838475 0.28837264
000070 d5 47 6f 3b 13 25 0e 3f d1 e6 b2 be 8c 88 89 bd
       0.003651132 0.5552532 -0.34941724 -0.067154974
000080 c2 0e 89 bf 5d f4 2f bf ac 8c 31 3e d8 8d f1 bc
       -1.0707629 -0.68732244 0.17338818 -0.029486582
000090 91 65 e2 be 03 7e 5d bd 82 14 1b bf 8d 4d bb 3d
       -0.44218114 -0.054075252 -0.6057817 0.09145651
0000a0 b3 4b 3e be 91 19 b6 3e 19 01 a8 3e 3e 7b 82 bf
       -0.18583564 0.3556638 0.32813337 -1.019386
0000b0 45 85 86 bc 96 73 08 bf 3c 19 0f 3f 45 92 40 be
       -0.01642097 -0.5330137 0.5589788 -0.18805797
0000c0 24 f4 21 be ad 2c 96 be 16 ac bf 3c 2d 4f b7 3e
       -0.15815789 -0.2933096 0.023397487 0.35802594
0000d0 fa 72 e6 3d c8 97 d1 3d c2 7b 97 3e cd 2e 05 3d
       0.11252399 0.10234028 0.29586607 0.032515336
0000e0 19 28 e5 bd 8e 3b 93 be 54 43 30 be dc 86 3b be
       -0.11189289 -0.28756374 -0.17213184 -0.18313164
0000f0 14 36 e6 3b be 40 65 be aa d7 36 bc ef cb 0a be
       0.0070254896 -0.22387978 -0.011159817 -0.13554357
000100 5f 71 80 bc 6f 88 2b 3d c5 bf a6 3e 64 99 a3 bf
       -0.01567906 0.04187816 0.32568184 -1.2781186
000110 fc ca 9b 3e 8c 38 8e be 9b ee 0d 3e d2 73 d2 bd
       0.30428302 -0.27777517 0.13860552 -0.10275997
000120 18 99 a2 bb 08 79 b2 be dd 25 de 3e 73 6b cd 3e
       -0.004962098 -0.34857965 0.43388262 0.4012104
000130 55 55 81 be f9 9f 20 3e 94 c1 1a 3e e7 2a 73 be
       -0.25260416 0.15686025 0.15112907 -0.23746835
000140 8a 3c b9 3d 8a d6 0f 3e 6f c0 c3 bd f9 b3 13 3f
       0.0904475 0.14046684 -0.09558188 0.5769649
000150 39 e6 8e 3b 64 f4 d8 3d 54 65 0f 3e 7f ed f9 be
       0.004360941 0.10593489 0.14003497 -0.48814008
000160 b5 ea 28 be 97 66 98 be a6 45 99 3d f8 12 eb 3e
       -0.16495784 -0.2976577 0.074839875 0.4591291
000170 14 d6 49 3e 84 61 03 3e c2 09 b4 be f8 f7 29 3e
       0.1971057 0.12830168 -0.35163695 0.16598499
000180 e7 75 f2 bd 6f 5d 29 be 46 66 f8 be 98 d7 f9 be
       -0.11838894 -0.16539548 -0.48515528 -0.48797297
000190 36 43 c7 be ab b4 c6 be 8c 13 86 be d5 5e d2 be
       -0.38918465 -0.38809714 -0.26186788 -0.41087976
0001a0 5c 9d 59 3e 0f d3 5a be 1e 8e 05 be fb 30 6e be
       0.21251434 -0.21369575 -0.13042495 -0.23260872
0001b0 81 1c 17 be 3e 84 11 be 16 3c e5 be a8 25 f6 3d
       -0.14756967 -0.14210603 -0.44772404 0.12018901
0001c0 75 e5 0c 3e d5 64 56 bf 03 dd b2 bd 82 3d e3 3e
       0.13759406 -0.8374761 -0.08733561 0.44382864
0001d0 09 a5 c9 3d 91 8d a2 3d 98 5e 76 3e 8a 53 71 3d
       0.09845931 0.07937158 0.24059522 0.05891756
0001e0 ac d1 3a 3e d4 df ad 3d a7 35 34 be 64 24 cc bd
       0.18244046 0.084899575 -0.17598592 -0.099678785
0001f0 38 4a 29 3e 97 79 4e 3e 40 ed 9e 3d 09 49 1a be
       0.16532218 0.2016357 0.077600956 -0.15066923
000200 c7 c1 ac bd af 7f 0e bf 56 53 b5 be c0 17 33 be
       -0.084353976 -0.5566358 -0.35415143 -0.17489529
000210 69 76 c5 be b4 7d c6 be 96 da 5e be 50 28 26 bf
       -0.38566902 -0.3876778 -0.21763071 -0.6490526
000220 2e 82 3a be cc a0 cb be 3d e3 27 be 6f ed ae be
       -0.18213722 -0.39771116 -0.16395278 -0.34165522
000230 fe 9a 34 be 84 9f b4 be fd 65 09 bf 22 53 c4 bd
       -0.1763725 -0.3527795 -0.53671247 -0.09586169
000240 ff 23 35 be 04 67 0d bf 74 37 8d 3d 40 98 98 3e
       -0.17689513 -0.55235314 0.068953425 0.29803658
000250 83 1c 8a be f6 e2 72 be 1d 37 79 3e eb 90 92 bc
       -0.26974878 -0.23719391 0.2433743 -0.017891368
000260 26 b2 ee bd 48 21 1e 3e 16 78 23 be 94 5c 12 3e
       -0.11655073 0.15442383 -0.15963778 0.14293128
000270 e7 3d 29 3e 8d 14 61 3d be 67 d1 bd 58 d2 a5 bd
       0.1652752 0.05495124 -0.102248654 -0.080967605
000280 c5 fb 07 be 35 d2 0f bf ca 85 0f bf c8 19 ab be
       -0.13279636 -0.56180125 -0.5606352 -0.33418107
000290 91 b7 a9 be a6 f6 b9 bd 5b e3 fb be 1a 6b 05 bf
       -0.33147863 -0.090802476 -0.49196896 -0.5211655
0002a0 cd ad a1 bd 05 0d 09 be 86 09 01 be 30 55 5f be
       -0.07894478 -0.13383873 -0.12601289 -0.2180984
0002b0 c4 99 06 3e fd 57 ef be 18 2e 08 bf d7 77 30 3e
       0.13144594 -0.46746817 -0.53195333 0.17233215
0002c0 46 22 8c 3d fe 60 bb be 23 d1 27 3e 32 8b 25 3d
       0.06842475 -0.36597437 0.16388373 0.04041595
0002d0 ae 72 35 3e ac fc 22 3e 68 ca 18 3e 6a d7 7c bc
       0.17719528 0.15916699 0.14920962 -0.015432218
0002e0 32 b6 5a 3e cb 3e 89 3c 4d 45 ae 3e 20 95 55 be
       0.21358564 0.016753575 0.34037247 -0.20857668
0002f0 12 e9 80 bc f0 6c 81 bf 2a e0 50 3e 08 5b 59 bd
       -0.015736137 -1.011137 0.20398012 -0.05306533
000300 27 1f 25 3e 89 7e 71 3e ee 5e 4e be b4 2e ae 39
       0.16125165 0.23583426 -0.201534 0.00033222663
000310 ff 94 cc bd 4a 13 c3 3d 14 16 0d 3e f1 5a 93 3e
       -0.09989356 0.095251635 0.13777953 0.2878032
000320 de cc 2b 3e 1c 59 93 be ea e5 c3 bc 5f 8b 10 be
       0.1677737 -0.28778923 -0.023913343 -0.14115666
000330 f9 8f 87 be a6 48 27 3e e5 61 82 3e 9e 9b c3 bd
       -0.2647703 0.16336307 0.25465313 -0.09551166
000340 44 4a b8 3d d8 a0 07 be 44 81 ce bd 01 0a 4c 3e
       0.0899854 -0.13244951 -0.10083249 0.19925691
000350 a5 b5 96 bd e2 6e fb be 02 af 99 3d 66 4c e5 bd
       -0.07358865 -0.49108034 0.07504083 -0.111962125
000360 7c 7b 64 3e bd d8 14 bf 63 51 12 be e1 73 b1 bd
       0.2231273 -0.58143216 -0.14288859 -0.0866468
000370 82 15 84 3d cd f1 59 3e 8a 77 18 bf 62 27 4e bc
       0.06449415 0.21283646 -0.595574 -0.012582632
000380 b0 f5 d1 be d6 f5 9a be 95 07 ce 3d 59 25 12 3e
       -0.41007757 -0.30265683 0.1006004 0.1427206
000390 92 0e 09 bf 97 f3 c1 be 50 79 61 be af 15 e3 3d
       -0.5353786 -0.37881157 -0.22018933 0.1108812
0003a0 f3 8f 15 bd a4 ac bb 3e 51 b1 19 bf 1d 68 00 bf
       -0.036514234 0.36655152 -0.6003619 -0.50158864
0003b0 14 9c d0 3d d6 69 2d bf 76 50 a1 3e 9a d9 22 3e
       0.101860195 -0.6773962 0.315067 0.15903321
0003c0 f4 74 37 bf 59 f0 fb be 63 06 0f 3e 88 9b 18 3e
       -0.7166283 -0.49206808 0.1396728 0.1490308
0003d0 e3 99 22 bf f0 60 40 bf a1 7f 51 3d f7 d5 9a 3e
       -0.6351606 -0.75147915 0.051147107 0.30241367
0003e0 ef 4c c7 3d de f2 39 3a a5 57 97 be a2 60 12 bf
       0.09731471 0.000709338 -0.29559055 -0.571787
0003f0 d8 91 8f 3d 60 c9 c4 be 41 39 93 3e c0 28 2b 3e
       0.07010239 -0.38434887 0.2875462 0.16714764

cls_head.2.bias f4 [25]
000000 e6 7b 0f 3e 8b cb 18 be bb 7b 24 3d ad 15 19 3e
       0.14012107 -0.14921395 0.04015706 0.14949675
000010 4e 48 1f 3e ca dd 5e bd a1 fb 38 be 1b ff a9 bd
       0.15554926 -0.054410733 -0.18064739 -0.08300611
000020 d4 1f 8f bd 33 ad 34 be c5 45 8c be 2a 08 77 3d
       -0.069884926 -0.17644195 -0.2739698 0.06031052
000030 da 59 c1 bc 8f 20 34 3d a1 2a d0 3d 2e e7 7e be
       -0.023602415 0.043976363 0.10164381 -0.24892876
000040 bd 9e bc be cf fb 5d 3e 0d 2c 26 3d 65 3e 0a 3c
       -0.36839858 0.21678089 0.040569354 0.008437728
000050 e6 84 8b 3d 86 c1 0c bd 86 7b f8 bd 2b 21 85 bd
       0.06812458 -0.034364246 -0.12132935 -0.06500467
000060 66 a2 9d 3e
       0.30787963
