baseline_rnn_birds.pth (torch, 31266 bytes, 12 tensors)

lstm.weight_ih_l0 f4 [128, 4]
0.32521927 -0.2100409 0.32049727 0.5003649 0.022311343 0.32602808 0.27334735 -0.57320696
0.21288136 -0.01711835 0.480355 0.5262178 -0.65724546 0.41264933 -0.006759071 0.161947
0.13441412 -0.18259278 -0.2271071 -0.2321384 -0.100169785 -0.106852524 -0.107024275 -0.3273077
-0.40980816 -0.33375978 0.92720133 -0.20918465 -0.4093202 0.42137477 -0.196506 0.106455036
-0.16622816 0.15834522 -0.67345697 0.15285145 0.24522261 -0.21103767 0.2138195 0.026427848
-0.21306738 0.23663746 0.26913193 0.28787285 -0.5479835 0.45141223 -0.47202808 -0.3619292
0.17563936 0.33212924 0.0113676675 -0.67245406 -0.024442958 0.12380217 -0.073414 -0.1853757
-0.4149561 -0.34352484 0.50944495 -0.7852583 -0.6448295 0.5091086 0.28556153 -0.005122105
0.26746678 -0.19935267 0.04563385 0.21947323 0.095777534 -0.3495703 0.26129818 -0.30190575
-0.16835041 -0.16840126 0.18823761 0.2498048 -0.37430254 0.5607867 -0.2736199 0.21486022
-0.051266417 -0.17824799 0.039050967 -0.36314195 -0.47547826 0.47496787 -0.13169542 0.22340769
-0.4989804 0.11920948 0.21609092 -0.29573765 -0.10906698 -0.35587782 0.3783856 0.36032155
-0.21445253 0.5921003 -0.09314854 0.29306695 -0.35581073 -0.43294716 0.78978485 0.2947168
0.3096565 -0.79491085 0.40043303 0.46743193 -0.4144492 0.4774639 -0.035358097 -0.0040915185
-0.50319386 0.18082955 0.34699628 0.09846282 0.34641227 0.045592457 -0.34275922 -0.7123164
0.2241 -0.39946744 0.42808205 0.61247516 -0.3894426 -0.22186622 0.39670378 0.008504596
0.11935143 0.09734903 0.0016584396 0.05379261 -0.047407404 0.08682121 0.14447738 -0.07558742
-0.06651409 0.15334578 -0.007650271 0.15785863 0.11234425 -0.040822938 0.0688231 -0.019401297
-0.15208776 -0.14572126 0.15530004 -0.13866019 0.08473547 0.0970494 -0.1514274 0.010389745
-0.11727969 0.0110073835 0.13126327 0.08131759 -0.15199536 0.06306681 -0.055636287 0.13311164
0.16931935 -0.040437356 -0.16546758 -0.066910416 0.06374508 -0.1528753 -0.0041747987 0.16438292
-0.07030775 0.07730733 -0.043977648 -0.06539665 -0.12392372 -0.011133298 -0.13672462 0.10230063
-0.12668271 0.006763205 -0.013789147 -0.04976757 0.16231714 0.17103134 0.15126063 -0.09999807
-0.018025368 -0.014284492 0.05539958 0.009796739 0.12651424 -0.135459 0.14990608 -0.07605953
0.12285988 0.0518433 0.14327829 -0.0015258044 0.098271444 0.058993876 0.060974225 0.12827449
-0.014002949 0.16224675 0.13267125 -0.16169672 -0.052674837 0.054706812 -0.15331905 0.1381493
0.08890937 0.095357195 -0.041432753 -0.027281806 -0.008282274 0.13378014 -0.046812236 0.063800395
0.026932344 0.028348222 -0.16391379 0.12613098 0.036112472 0.0018288195 0.17096733 -0.12769635
-0.1655535 -0.029362977 -0.010260299 -0.1237379 -0.08932639 0.17079331 0.15120982 0.086670265
-0.12382007 0.018456087 -0.09366357 0.17365818 0.014319748 0.012658805 -0.07637742 -0.14983124
-0.06390533 0.085723326 -0.061701886 0.17079248 -0.033507377 -0.06991739 -0.08291979 0.07020977
0.09647454 -0.15327169 -0.15655309 0.11771341 0.049732357 -0.1313191 0.06506458 -0.0068417788
00000000: 2483 a63e f614 57be 3818 a43e ea17 003f
00000010: 47c6 b63c 27ed a63e 2ff4 8b3e b1bd 12bf
00000020: 92fd 593e c83b 8cbc 17f1 f53e 36b6 063f
00000030: 3d41 28bf c646 d33e 327b ddbb 6fd5 253e
00000040: dba3 093e 9af9 3abe c38e 68be b0b5 6dbe
00000050: d125 cdbd 7fd5 dabd 8b2f dbbd e094 a7be
00000060: 60d2 d1be 90e2 aabe 115d 6d3f 8034 56be
00000070: 6b92 d1be 6fbe d73e de38 49be 1905 da3d
00000080: b737 2abe 4025 223e ad67 2cbf 1785 1c3e
00000090: a31b 7b3e 421a 58be 80f3 5a3e 377f d83c
000000a0: 562e 5abe 1751 723e a9cb 893e 1264 933e
000000b0: a648 0cbf 811f e73e aaad f1be c94e b9be
000000c0: ceda 333e d80c aa3e 743f 3a3c f325 2cbf
000000d0: 993c c8bc fe8b fd3d 145a 96bd 21d3 3dbe
000000e0: 2075 d4be 7de2 afbe fc6a 023f b006 49bf
000000f0: 8c13 25bf f154 023f 1f35 923e 55d7 a7bb
00000100: 68f1 883e 1b23 4cbe 8fea 3a3d 97bd 603e
00000110: 0327 c43d e1fa b2be e0c8 853e 6493 9abe
00000120: 0d64 2cbe 6171 2cbe 5cc1 403e d4cc 7f3e
00000130: 95a4 bfbe b88f 0f3f e817 8cbe 5104 5c3e
00000140: bcfc 51bd a486 36be e8f3 1f3d beed b9be
00000150: e371 f3be fd2e f33e 2adb 06be fcc4 643e
00000160: 5c7a ffbe 1a24 f43d f046 5d3e ed6a 97be
00000170: 825e dfbd 9e35 b6be c2bb c13e 117c b83e
00000180: 7299 5bbe e393 173f a9c4 bebd df0c 963e
00000190: d32c b6be 40ab ddbe 572f 4a3f 1fe5 963e
000001a0: 4c8b 9e3e 477f 4bbf 8f05 cd3e 3d53 ef3e
000001b0: af32 d4be 2676 f43e a7d3 10bd 2512 86bb
000001c0: 50d1 00bf 622b 393e 7fa9 b13e e0a6 c93d
000001d0: f35c b13e 28bf 3a3d 237e afbe 5e5a 36bf
000001e0: 787a 653e ff86 ccbe 922d db3e 2ccb 1c3f
000001f0: 0565 c7be e630 63be c21c cb3e dc56 0b3c
00000200: 866e f43d ee5e c73d 0060 d93a a455 5c3d
00000210: 442e 42bd 52cf b13d e1f1 133e 94cd 9abd
00000220: 8a38 88bd ad06 1d3e 20af fabb b1a5 213e
00000230: be14 e63d f435 27bd 20f3 8c3d 78ef 9ebc
00000240: e5bc 1bbe f437 15be f906 1f3e f0fc 0dbe
00000250: ca89 ad3d d6c1 c63d c90f 1bbe c039 2a3c
00000260: 5630 f0bd 5058 343c e169 063e d689 a63d
00000270: aca4 1bbe 2c29 813d e0e2 63bd 6b4e 083e
00000280: 0d62 2d3e a4a1 25bd 5570 29be 5408 89bd
00000290: c88c 823d 588b 1cbe c0cc 88bb ff53 283e
000002a0: 82fd 8fbd 4e53 9e3d e821 34bd aeee 85bd
000002b0: b8cb fdbd 7068 36bc 8a01 0cbe fe82 d13d
000002c0: 1db9 01be e09d dd3b e0eb 61bc 14d9 4bbd
000002d0: 7736 263e d722 2f3e 11e4 1a3e cacb ccbd
000002e0: f0a9 93bc 8009 6abc acea 623d 8082 203c
000002f0: f38c 013e c4b5 0abe fb80 193e 19c5 9bbd
00000300: f69d fb3d a459 543d 8bb7 123e 80fd c7ba
00000310: 8a42 c93d 90a3 713d 1cc0 793d 635a 033e
00000320: a06c 65bc 0324 263e f9da 073e d393 25be
00000330: 92c1 57bd 4014 603d abff 1cbe 0377 0d3e
00000340: 1e16 b63d a24a c33d 64b5 29bd 187e dfbc
00000350: 60b2 07bc a9fd 083e 30be 3fbd c8a9 823d
00000360: 38a1 dc3c 883a e83c 04d9 27be 7b28 013e
00000370: acea 133d 00b5 ef3a 0f12 2f3e d5c2 02be
00000380: db86 29be a08a f0bc d01a 28bc 4c6a fdbd
00000390: c1f0 b6bd 71e4 2e3e bfd6 1a3e 2e80 b13d
000003a0: 6095 fdbd 3831 973c b0d2 bfbd 73d3 313e
000003b0: 609d 6a3c e066 4f3c c46b 9cbd 5c6d 19be
000003c0: cce0 82bd b68f af3d 1ebb 7cbd 39e4 2e3e
000003d0: 083f 09bd d930 8fbd dad1 a9bd 24ca 8f3d
000003e0: 7294 c53d 41f3 1cbe 744f 20be ba13 f13d
000003f0: 28b4 4b3d 8478 06be 9440 853d 0031 e0bb

lstm.weight_hh_l0 f4 [128, 32]
-0.15548591 -0.08109444 0.0077738166 -0.07896267 -0.115412354 0.1054769 0.03656949 -0.0102675855
-0.11438714 -0.12939544 0.11839624 -0.029494062 0.14401217 0.17154358 0.06541853 -0.1501576
-0.020040005 0.018835917 0.046503708 0.060543627 -0.12957378 0.042944074 0.1322621 0.1277077
0.075445965 -0.12852456 0.051339954 0.147878 -0.13247067 -0.124456674 0.120026365 -0.12539372
-0.12372585 0.021877632 -0.046250895 -0.15696985 0.051647678 -0.040970594 -0.020556033 0.116029665
0.078672454 -0.08339481 0.0010319799 0.056683317 0.12556575 -0.10618034 -0.14904347 -0.03900872
0.058568656 0.15811373 0.03240265 -0.14728631 -0.04885456 0.15392603 -0.011420146 -0.1666872
0.0013850927 0.098990366 0.11248647 0.064356714 0.062653795 -0.034551412 0.038304552 0.09843208
0.17084537 -0.15752164 -0.055097833 0.12713973 0.16278435 0.073961064 0.14272182 0.17163299
-0.16249242 0.052108616 -0.047623664 0.0791512 0.080479994 -0.08816446 0.114336446 0.09437452
-0.11562549 -0.09475379 0.045926318 -0.1715903 -0.061197415 -0.08984349 -0.081147514 0.104597166
-0.044491842 0.123242155 -0.10029531 0.06925781 -0.014133081 0.16894381 -0.15845391 -0.11615533
0.05267282 0.09248532 -0.0064997673 -0.12178275 -0.11825894 -0.1390171 0.053999305 -0.03162074
-0.13710302 -0.03654875 -0.16958366 -0.03407429 -0.1513176 -0.12293625 -0.15942815 -0.11033832
-0.046609208 0.06850383 -0.0336999 -0.15863048 0.021750078 -0.072156645 0.17358156 -0.0030476153
-0.14916478 0.010262951 -0.16139345 -0.09223686 -0.030914888 0.0053139627 -0.059884623 -0.06571867
-0.028288797 0.16849466 -0.12528759 0.14426343 0.050865367 -0.07226979 -0.1138135 0.016011193
0.009216607 -0.08534216 -0.06875891 -0.08223516 0.062025934 0.0034424663 -0.1072295 -0.0060310066
0.026050374 0.06867319 0.016606033 0.1261897 -0.10957715 -0.006643191 0.07361238 0.17005269
-0.15026917 0.16158338 -0.13508703 0.065623716 -0.1534291 0.099579826 0.13936351 -0.08099926
-0.17106603 -0.025941595 0.088871434 0.08774476 0.019672588 -0.049131364 0.054493636 -0.17195529
0.15866207 0.047784895 0.10527675 -0.17306456 0.06140788 -0.10249637 0.1571488 -0.12457171
0.074634984 -0.16196026 -0.114068314 0.14135881 0.13618357 0.044892818 0.012647808 -0.14359064
-0.07845779 0.1390615 -0.1253137 -0.09324042 0.08737959 0.13883425 -0.047784284 0.16664355
-0.1311654 0.1721449 -0.04665403 -0.016522527 -0.058103077 0.08108421 0.1506101 -0.17010242
0.12958707 -0.090109244 -0.05257988 0.022962227 -0.026084036 0.08673732 0.17369552 0.006000474
-0.07973956 0.12777407 0.089739844 -0.16844477 0.022561163 -0.08233058 0.053811684 0.016808704
0.03973028 0.06688471 -0.11248705 -0.15800165 0.13546409 0.004556641 -0.005709529 0.15493257
-0.15232988 -0.16160794 -0.008232504 -0.040289313 -0.13186349 -0.08142084 0.02404958 0.07593186
0.13008101 0.06783883 -0.0765647 -0.03955421 -0.15846 -0.09832196 0.03445123 -0.05891712
-0.14119367 0.041356906 -0.03427306 0.14747728 0.09406878 0.08270191 -0.024714008 -0.14374952
-0.03109327 -0.07726198 0.17001142 0.010617211 0.008152261 0.11798607 0.10805808 0.092034236
00000000: b337 1fbe d714 a6bd 80bb fe3b 2eb7 a1bd
00000010: 505d ecbd 4604 d83d e4c9 153d 6039 28bc
00000020: ce43 eabd 3d80 04be ba79 f23d 889d f1bc
00000030: ed77 133e 1fa9 2f3e 26fa 853d eac2 19be
00000040: f02a a4bc c84d 9a3c ac7a 3e3d 98fc 773d
00000050: fdae 04be 20e6 2f3d b76f 073e cfc5 023e
00000060: 6a83 9a3d f19b 03be d849 523d 556d 173e
00000070: 64a6 07be 24e3 febd 62d0 f53d 3667 00be
00000080: fa63 fdbd b838 b33c 9471 3dbd b4bc 20be
00000090: 848c 533d c8d0 27bd 2065 a8bc f6a0 ed3d
000000a0: 061f a13d e6ca aabd 8043 873a c42c 683d
000000b0: 4f94 003e 1475 d9bd da9e 18be 9cc7 1fbd
000000c0: b0e5 6f3d 91e8 213e a4b8 043d 39d2 16be
000000d0: b81b 48bd c99e 1d3e 901b 3bbc 0db0 2abe
000000e0: 008c b53a 76bb ca3d 4e5f e63d 74cd 833d
000000f0: a250 803d c885 0dbd 3ce5 1c3d c296 c93d
00000100: 17f2 2e3e 5a4d 21be 44ae 61bd eb30 023e
00000110: f1b0 263e e678 973d ab25 123e 8fc0 2f3e
00000120: 6a64 26be d86f 553d 0811 43bd 061a a23d
00000130: b2d2 a43d 928f b4bd 3a29 ea3d 6e47 c13d
00000140: 0fcd ecbd 460e c2bd 3c1d 3c3d 5eb5 2fbe
00000150: 24aa 7abd ddff b7bd ab30 a6bd 0a37 d63d
00000160: 143d 36bd 6266 fc3d a167 cdbd 0ad7 8d3d
00000170: 708e 67bc 9bff 2c3e be41 22be d8e2 edbd
00000180: 74bf 573d f268 bd3d 00fc d4bb 3c69 f9bd
00000190: be31 f2bd 805a 0ebe 602e 5d3d c084 01bd
000001a0: bc64 0cbe 24b4 15bd 57a7 2dbe 7c91 0bbd
000001b0: 00f3 1abe 00c6 fbbd 2241 23be 0ff9 e1bd
000001c0: 4ce9 3ebd bc4b 8c3d e808 0abd 0770 22be
000001d0: 382d b23c ddc6 93bd 5dbf 313e 80ba 47bb
000001e0: a7be 18be f025 283c 5344 25be aee6 bcbd
000001f0: 3841 fdbc c020 ae3b 9449 75bd 8397 86bd
00000200: e8bd e7bc dd89 2c3e 644b 00be cbb9 133e
00000210: 3458 503d 2f02 94bd 0d17 e9bd e829 833c
00000220: 4001 173c dfc7 aebd 79d1 8cbd e86a a8bd
00000230: e80e 7e3d 009b 613b 249b dbbd c09f c5bb
00000240: 9867 d53c 88a4 8c3d 6009 883c df37 013e
00000250: fc69 e0bd 20af d9bb 16c2 963d 4b22 2e3e
00000260: 29e0 19be 1d76 253e 4154 0abe ba65 863d
00000270: 851c 1dbe 82f0 cb3d 4fb5 0e3e f1e2 a5bd
00000280: ef2b 2fbe 7883 d4bc 3a02 b63d 86b3 b33d
00000290: 6828 a13c f83d 49bd b834 5f3d 0c15 30be
000002a0: 4f78 223e 18ba 433d 569b d73d d637 31be
000002b0: d486 7b3d 9ee9 d1bd 9deb 203e 741f ffbd
000002c0: 3ada 983d e9d8 25be a69c e9bd 5dc0 103e
000002d0: b573 0b3e 88e1 373d c038 4f3c 6d09 13be
000002e0: 7aae a0bd 2366 0e3e 3c52 00be d5f4 bebd
000002f0: 12f4 b23d 912a 0e3e 74b9 43bd 9ba4 2a3e
00000300: 3950 06be c146 303e 4c18 3fbd 405a 87bc
00000310: 7efd 6dbd 7a0f a63d 8939 1a3e 542f 2ebe
00000320: 79b2 043e 328b b8bd 005e 57bd 481b bc3c
00000330: 30ae d5bc 56a3 b13d 3ddd 313e a09f c43b
00000340: 7f4e a3bd 35d7 023e 86c9 b73d c97c 2cbe
00000350: 30d2 b83c ef9c a8bd a469 5c3d 68b2 893c
00000360: 38bc 223d dafa 883d 9c5f e6bd 2fcb 21be
00000370: 19b7 0a3e e04f 953b 0017 bbbb a5a6 1e3e
00000380: 5dfc 1bbe 8d7c 25be a0e1 06bc 6806 25bd
00000390: 3907 07be f8bf a6bd a003 c53c 2a82 9b3d
000003a0: f533 053e 16ef 8a3d f4cd 9cbd 9803 22bd
000003b0: 5743 22be 065d c9bd bc1c 0d3d 1453 71bd
000003c0: 1395 10be dc65 293d e861 0cbd 4904 173e
000003d0: 22a7 c03d 9e5f a93d 0875 cabc 1333 13be
000003e0: 50b7 febc 873b 9ebd 7917 2e3e d0f3 2d3c
000003f0: 1091 053c aea2 f13d 8e4d dd3d 727c bc3d

lstm.bias_ih_l0 f4 [128]
0.43834504 0.57097334 0.34632334 0.5005622 0.53938925 0.6509034 0.48979846 0.38455757
0.528877 0.5663609 0.61764306 0.7324365 0.5339097 0.529172 0.60793835 0.44978017
0.33918482 0.593738 0.51157045 0.7778243 0.58046347 0.6814147 0.83302903 0.6802373
0.301868 0.45375052 0.7657009 0.72428364 0.75301737 0.727438 0.3321002 0.6172174
-0.1441392 0.12792887 0.07973154 0.121945724 -0.122211464 -0.11493865 0.1519569 -0.12667142
-0.015026599 -0.057267785 0.13450511 -0.08657331 -0.10136281 0.03240046 0.104119524 -0.11564518
-0.045606494 -0.042209893 0.041827604 0.07468198 0.0039611906 0.01394625 0.02267924 0.16552807
-0.124758504 0.01416263 -0.09366408 -0.049749598 0.045021415 -0.017062604 -0.04558818 0.13077913
-0.01659859 -0.010854668 -0.19748846 -0.32923752 0.532333 -0.4607566 0.33208632 0.27791855
0.37226966 -0.020592315 -0.11542197 -0.34031284 0.43308118 0.1024277 -0.25533623 0.13770793
0.048169866 -0.12741825 -0.39048684 0.17373341 0.40537065 -0.24257225 -0.2594963 -0.24201278
0.38688606 -0.2626275 0.2792538 0.12342782 -0.019156793 -0.26443675 -0.25797966 -0.046439562
0.7002726 0.36607355 0.3276835 0.5362663 0.8470367 0.5143334 0.5607117 0.61912054
0.70009714 0.65234625 0.59404564 0.84420097 0.35224956 0.6183338 0.5528762 0.5670859
0.41925612 0.542876 0.47366914 0.5589601 0.4196423 0.4929472 0.70498264 0.550898
0.59127027 0.55007094 0.80232555 0.5655667 0.47304824 0.4585121 0.43760028 0.45293427
00000000: c36e e03e 4f2b 123f 4b51 b13e d824 003f
00000010: 6a15 0a3f 9ba1 263f ddc6 fa3e bbe4 c43e
00000020: 7c64 073f 07fd 103f db1d 1e3f f580 3b3f
00000030: 4eae 083f d177 073f d9a1 1b3f 9649 e63e
00000040: a2a9 ad3e 37ff 173f 48f6 023f 7e1f 473f
00000050: 4199 143f 3271 2e3f 6441 553f 0824 2e3f
00000060: 718e 9a3e fd51 e83e f904 443f a76a 393f
00000070: bfc5 403f 6039 3a3f 0a09 aa3e f601 1e3f
00000080: 3a99 13be c9ff 023e 4a4a a33d aebe f93d
00000090: 014a fabd f464 ebbd 979a 1b3e 27b6 01be
000000a0: 2032 76bc a091 6abd b5bb 093e 594d b1bd
000000b0: 4e97 cfbd 58b6 043d 9e3c d53d 61d7 ecbd
000000c0: e0cd 3abd 48e4 2cbd 6c53 2b3d def2 983d
000000d0: e0cc 813b d07e 643c d0c9 b93c 3180 293e
000000e0: 6381 ffbd 600a 683c f4d2 bfbd 3cc6 4bbd
000000f0: 6068 383d e0c6 8bbc acba 3abd f7ea 053e
00000100: c4f9 87bc c7d7 31bc 6a3a 4abe d291 a8be
00000110: fa46 083f 4ae8 ebbe 3807 aa3e 574b 8e3e
00000120: 219a be3e 37b1 a8bc 5b62 ecbd 7c3d aebe
00000130: d1bc dd3e 9dc5 d13d 6ebb 82be 4f03 0d3e
00000140: c44d 453d ee79 02be e4ed c7be 2ce7 313e
00000150: be8c cf3e dc64 78be b3dc 84be 33d2 77be
00000160: ee15 c63e 1d77 86be 5bfa 8e3e bac7 fc3d
00000170: b5ee 9cbc 4164 87be e915 84be 6937 3ebd
00000180: 1145 333f fe6d bb3e 22c6 a73e c048 093f
00000190: 66d7 583f 5bab 033f cd8a 0f3f af7e 1e3f
000001a0: 9139 333f 2a00 273f 6013 183f 8e1d 583f
000001b0: 0e5a b43e 204b 1e3f 4b89 0d3f 8b2c 113f
000001c0: bda8 d63e ecf9 0a3f c384 f23e 0218 0f3f
000001d0: 5bdb d63e 9363 fc3e be79 343f a707 0d3f
000001e0: 7d5d 173f 73d1 0c3f 3565 4d3f fbc8 103f
000001f0: 6133 f23e 19c2 ea3e 250d e03e 00e7 e73e

lstm.bias_hh_l0 f4 [128]
0.4075682 0.62600565 0.4285991 0.36948815 0.6897566 0.67889833 0.5122256 0.44993472
0.48538753 0.6330076 0.7271272 0.7486699 0.38476038 0.6715565 0.6271838 0.5673644
0.3666486 0.674878 0.49026328 0.53103215 0.57857406 0.46651846 0.731429 0.5733282
0.32305983 0.6352612 0.8039815 0.63221085 0.6755507 0.45941898 0.4750734 0.6214289
-0.06351496 0.10514559 -0.075603686 -0.0198479 0.02224572 0.017276898 0.0012706667 0.14461185
-0.08382553 -0.029150993 0.09505002 -0.16306241 -0.16586065 0.011143729 0.023728535 0.08563842
-0.15537111 -0.16498573 -0.07347555 0.0039922744 0.09159689 -0.047814667 -0.1114027 0.028125122
-0.095732726 0.013218656 0.052839816 0.118173614 0.10780452 -0.02180314 -0.023386955 -0.13197434
-0.09889375 0.17729208 -0.15144277 -0.092861615 0.3476587 -0.44418067 0.22170632 0.40710273
0.23467448 -0.18154867 -0.13921814 -0.24166782 0.37071058 -0.10881706 -0.28972274 -0.0011319285
0.08680009 -0.06940831 -0.15416163 0.3381608 0.37639797 -0.056885652 -0.32859948 -0.44790718
0.40537685 0.037293807 0.19293328 0.34124175 0.28080428 -0.33783337 -0.026298974 0.019964088
0.535164 0.406264 0.33556414 0.52319586 0.66477704 0.48618156 0.63596994 0.33801967
0.61991054 0.67387587 0.7181857 0.68409103 0.36185843 0.6454854 0.5737895 0.68023664
0.39754486 0.7367872 0.6345302 0.7228082 0.49318194 0.4207537 0.82016647 0.5856477
0.53130585 0.7249829 0.66921455 0.76867807 0.758034 0.6640929 0.4929919 0.4156403
00000000: c7ac d03e e841 203f 5771 db3e 8d2d bd3e
00000010: e393 303f 48cc 2d3f 3821 033f d85d e63e
00000020: b784 f83e c90c 223f 0225 3a3f d5a8 3f3f
00000030: 50ff c43e 20eb 2b3f 1e8f 203f cb3e 113f
00000040: 5eb9 bb3e cec4 2c3f ca03 fb3e b9f1 073f
00000050: 6e1d 143f 82db ee3e ee3e 3b3f a3c5 123f
00000060: 1968 a53e 7aa0 223f bbd1 4d3f 92d8 213f
00000070: e4f0 2c3f f738 eb3e d23c f33e f715 1f3f
00000080: 2214 82bd 9256 d73d 1bd6 9abd 1098 a2bc
00000090: a83c b63c 4888 8d3c 808c a63a 2115 143e
000000a0: b8ac abbd 10ce eebc 96a9 c23d d5f9 26be
000000b0: 60d7 29be 3094 363c 5862 c23c 3263 af3d
000000c0: 9b19 1fbe 05f2 28be 597a 96bd a0d1 823b
000000d0: 2697 bb3d 50d9 43bd 1927 e4bd a866 e63c
000000e0: 850f c4bd 1093 583c 906e 583d 0205 f23d
000000f0: 9ec8 dc3d 809c b2bc 0096 bfbc 4824 07be
00000100: ce88 cabd 0e8c 353e d013 1bbe 3b2e bebd
00000110: 5200 b23e a66b e3be fb06 633e c56f d03e
00000120: 824e 703e e5e7 39be 338f 0ebe c577 77be
00000130: c7cd bd3e 7bdb debd 8a56 94be 385d 94ba
00000140: 3fc4 b13d f225 8ebd 8cdc 1dbe 6a23 ad3e
00000150: 3cb7 c03e ee00 69bd 313e a8be 1754 e5be
00000160: 8e8d cf3e 64c1 183d 4d90 453e 3db7 ae3e
00000170: 94c5 8f3e 7ff8 acbe f270 d7bc ba8b a33c
00000180: 8200 093f d601 d03e 10cf ab3e 2af0 053f
00000190: d42e 2a3f caec f83e edce 223f ea10 ad3e
000001a0: 75b2 1e3f 2183 2c3f 05db 373f 9720 2f3f
000001b0: 8245 b93e 883e 253f dee3 123f fd23 2e3f
000001c0: 008b cb3e 169e 3c3f 9270 223f f509 393f
000001d0: 5882 fc3e 076d d73e 6ef6 513f 02ed 153f
000001e0: a903 083f 7b98 393f a551 2b3f 16c8 443f
000001f0: 840e 423f fe01 2a3f 6f69 fc3e cece d43e

reg_head.0.weight f4 [16, 32]
-0.1486674 0.19904974 0.06840841 0.043596897 0.19634743 0.39947984 0.07963589 0.17516246
-0.12197442 0.17066815 0.07830917 -0.22190408 -0.16598012 -0.11893503 -0.14047946 0.2769022
0.30389482 -0.29998165 0.0795327 0.17713888 -0.4505906 -0.070632756 0.3479262 -0.16625343
0.11467995 0.3764998 -0.2320022 0.105417766 -0.25743803 0.32447836 -0.112748645 0.2874211
-0.16718282 -0.12120196 0.1185903 -0.31644714 0.20956719 -0.17131358 0.2708951 0.28210792
0.07272943 -0.067014635 0.01647046 0.03835242 0.06500545 0.036420107 -0.10871271 0.19346513
-0.045796838 -0.23268211 0.039494645 -0.06768861 0.16116393 0.05309944 0.013202739 -0.24064945
0.15980136 0.09512651 -0.1742603 0.2220809 -0.1480518 -0.19553168 0.030932501 0.060143843
-0.04863375 -0.30330756 0.028803838 -0.16290092 0.19447997 -0.06860638 0.35773703 0.16078226
0.26406723 -0.30011895 0.16101511 0.21420413 -0.2084614 0.12723087 -0.29142922 0.09303228
0.24809663 0.17176016 -0.15051594 0.14135227 0.05073014 -0.34556377 -0.156042 -0.28423798
0.22541946 0.20716007 -0.047013037 0.20287947 -0.00865578 0.10802074 -0.103420965 0.22352551
-0.2997933 0.29058865 -0.19991304 -0.033557866 -0.57472354 0.17797782 -0.3795554 -0.38751167
0.038921855 -0.107762545 -0.043498173 0.36832556 0.053669386 -0.049715657 0.31412613 -0.33894306
0.3088819 0.17337134 0.03339872 -0.29334182 0.2354543 0.2013614 0.09787373 0.4154485
-0.37037137 -0.09784722 -0.3847465 -0.22817637 0.039307643 0.43700913 0.079738975 -0.16887541
-0.16650496 0.0020013389 -0.13084814 -0.16636087 0.21691777 -0.095269315 0.08036077 -0.066446505
0.20280395 -0.22675298 0.013805604 0.0071224635 0.17563404 0.29283646 -0.16779083 -0.097023696
0.09197812 0.111213975 -0.36378273 0.11800086 0.2803658 0.089608304 -0.24909838 -0.20762376
-0.07526376 -0.22470504 -0.11498644 0.059775088 0.17297506 0.30121174 0.20656526 -0.053070832
0.0824322 0.021765335 -0.11123427 -0.09306908 0.28496635 -0.15228859 0.05639407 0.14645536
0.10359517 0.039923348 0.019251168 0.08959114 0.21102329 -0.15764692 0.18875651 0.14816155
0.12879246 -0.14270355 0.054225743 -0.12631342 0.38330713 -0.1563562 -0.038115393 -0.19737555
0.24762553 0.0488069 -0.29694507 0.015594602 -0.02843985 -0.2831565 -0.18391594 0.12516409
-0.034118947 -0.38641897 0.06630578 -0.28235322 0.12690899 -0.017120725 0.35939834 0.30926508
-0.05657202 -0.19098276 0.19219303 0.17116201 0.06374454 0.13437873 -0.15211502 0.104891844
0.033121284 0.09519494 0.23658009 0.24179576 -0.11358375 -0.30921918 -0.008674858 -0.10251691
0.1026798 0.30900154 -0.20961608 0.12978369 -0.18687463 -0.01712021 -0.03978367 0.10063322
0.061651986 0.14393833 0.0067532123 -0.026678925 -0.10809962 -0.057577662 -0.05544811 -0.08843876
-0.21003874 -0.04985513 0.11110539 0.24359907 0.0992513 -0.22753024 0.013628966 -0.1882165
-0.13280769 0.11173191 0.12498343 0.10634622 -0.03195857 0.07456037 0.12573773 -0.17136253
-0.087123476 -0.17783408 -0.25967807 0.0498915 -0.21792263 0.09843023 0.3523046 0.093123265
00000000: 443c 18be b2d3 4b3e b519 8c3d a992 323d
00000010: 4d0f 493e 9f88 cc3e 2418 a33d ca5d 333e
00000020: bacd f9bd a2c3 2e3e 8f60 a03d d33a 63be
00000030: b1f6 29be 3694 f3bd d9d9 0fbe 20c6 8d3e
00000040: 1a98 9b3e 3297 99be 0ae2 a23d e563 353e
00000050: d0b3 e6be e8a7 90bd 6223 b23e 573e 2abe
00000060: 52dd ea3d 95c4 c03e fc91 6dbe 45e5 d73d
00000070: ebce 83be 0722 a63e c3e8 e6bd dc28 933e
00000080: f931 2bbe bc38 f8bd 79df f23d 5c05 a2be
00000090: c898 563e d46c 2fbe c3b2 8a3e 7370 903e
000000a0: 2bf3 943d f83e 89bd 0fed 863c 6d17 1d3d
000000b0: 9421 853d 402d 153d c5a4 debd b91b 463e
000000c0: 7795 3bbd 3844 6ebe 23c5 213d 53a0 8abd
000000d0: 2808 253e cc7e 593d 4d50 583c cf6c 76be
000000e0: f8a2 233e b0d1 c23d 4b71 32be 2d69 633e
000000f0: e49a 17be 7539 48be 2866 fd3c 6459 763d
00000100: 2f34 47bd 214b 9bbe 07f6 eb3c 80cf 26be
00000110: c225 473e 8081 8cbd 4f29 b73e 1ba4 243e
00000120: d233 873e 31a9 99be 25e1 243e 5458 5b3e
00000130: e876 55be cf48 023e 3636 95be b587 be3d
00000140: 0b0d 7e3e e5e1 2f3e da20 1abe a6be 103e
00000150: 68ca 4f3d bced b0be 79c9 1fbe a487 91be
00000160: 5cd4 663e c521 543e be90 40bd a3bf 4f3e
00000170: f9d0 0dbc fa39 dd3d 5fce d3bd dfe3 643e
00000180: 827e 99be 09c8 943e 01b6 4cbe f973 09bd
00000190: 1521 13bf d13f 363e 1655 c2be ee67 c6be
000001a0: 866c 1f3d 9cb2 dcbd 242b 32bd 2b95 bc3e
000001b0: 6ed4 5b3d a5a2 4bbd 24d5 a03e f289 adbe
000001c0: c525 9e3e 4288 313e 19cd 083d e630 96be
000001d0: ef1a 713e af31 4e3e 0672 c83d aab5 d43e
000001e0: 51a1 bdbe 2064 c8bd 7efd c4be 11a7 69be
000001f0: 0d01 213d a9bf df3e 304e a33d aded 2cbe
00000200: 4780 2abe e528 033b 0efd 05be 815a 2abe
00000210: b11f 5e3e 8f1c c3bd 3094 a43d 1b15 88bd
00000220: d7ab 4f3e ef31 68be e630 623c 8e63 e93b
00000230: 69d9 333e a9ee 953e 5cd1 2bbe 5cb4 c6bd
00000240: 065f bc3d 27c4 e33d bb41 babe 6faa f13d
00000250: 1b8c 8f3e 8f84 b73d a513 7fbe 539b 54be
00000260: e323 9abd 1419 66be 037e ebbd b9d6 743d
00000270: 6020 313e 6d38 9a3e d885 533e cd60 59bd
00000280: 37d2 a83d 374d b23c cbce e3bd 009b bebd
00000290: 1ce7 913e 8af1 1bbe 78fd 663d 65f8 153e
000002a0: b429 d43d aa86 233d a0b4 9d3c 8f7b b73d
000002b0: 7d16 583e 326e 21be 6349 413e a9b7 173e
000002c0: 2ce2 033e e120 12be d01b 5e3d 4e58 01be
000002d0: d540 c43e d71b 20be e31e 1cbd d11c 4abe
000002e0: 8c91 7d3e bee9 473d 2f09 98be 8080 7f3c
000002f0: b0fa e8bc e4f9 90be 7654 3cbe 042b 003e
00000300: 4fc0 0bbd b5d8 c5be 53cb 873d 9a90 90be
00000310: 6ef4 013e c340 8cbc 0f03 b83e fe57 9e3e
00000320: 10b8 67bd fc90 43be 40ce 443e 1845 2f3e
00000330: 7f8c 823d 949a 093e 0ac4 1bbe 89d1 d63d
00000340: 2faa 073d 91f5 c23d 0d42 723e 4f99 773e
00000350: 999e e8bd fa51 9ebe fe20 0ebc 63f4 d1bd
00000360: c949 d23d 7335 9e3e 99a5 56be 04e6 043e
00000370: 105c 3fbe af3f 8cbc 34f4 22bd ca18 ce3d
00000380: cb86 7c3d 9264 133e 0d4a dd3b c38d dabc
00000390: 5563 ddbd 8ed6 6bbd 8f1d 63bd 611f b5bd
000003a0: 6514 57be e534 4cbd 398b e33d 0972 793e
000003b0: 4444 cb3d b0fd 68be 074c 5f3c d4bb 40be
000003c0: bdfe 07be b3d3 e43d 50f7 ff3d 0ccc d93d
000003d0: fde6 02bd 1bb3 983d 64c1 003e a979 2fbe
000003e0: cb6d b2bd 231a 36be 86f4 84be 085b 4c3d
000003f0: 1c27 5fbe ca95 c93d 4561 b43e 69b7 be3d

reg_head.0.bias f4 [16]
-0.05540695 0.26386654 0.30594575 0.14426145 0.23584871 0.16216569 0.11369498 -0.21990232
0.16331969 0.32092047 0.02463422 0.18341951 0.17794204 0.27831435 0.20011276 -0.15502454
00000000: 66f2 62bd 8419 873e eca4 9c3e 46b9 133e
00000010: 5382 713e c30e 263e ead8 e83d 132e 61be
00000020: 473d 273e b04f a43e b4cd c93c 53d2 3b3e
00000030: 7036 363e 387f 8e3e 5cea 4c3e c1be 1ebe

reg_head.2.weight f4 [2, 16]
0.3143719 -0.37405345 -0.26897028 0.2282983 0.09442828 -0.23090588 -0.40667954 -0.049046557
0.38431028 0.08744649 -0.13615565 0.26921743 0.30104423 0.14845508 0.3193418 -0.18775225
0.32007197 0.36510795 -0.4062073 -0.29730165 -0.2589865 0.3530292 0.033926494 0.4217602
0.038764782 -0.36953148 0.48774543 -0.3238105 0.26934263 -0.21131812 0.101124965 -0.03035053
00000000: 5bf5 a03e ef83 bfbe 79b6 89be 08c7 693e
00000010: 9d63 c13d 9772 6cbe 4d38 d0be 0be5 48bd
00000020: 51c4 c43e 2517 b33d 636c 0bbe ded6 893e
00000030: 7822 9a3e 9c04 183e c580 a33e 2042 40be
00000040: 79e0 a33e 6eef ba3e 67fa cfbe ec37 98be
00000050: e199 84be 3ec0 b43e 82f6 0a3d f4f0 d73e
00000060: d2c7 1e3d 3b33 bdbe c5b9 f93e 7dca a5be
00000070: 47e7 893e c763 58be 9b1a cf3d ada1 f8bc

reg_head.2.bias f4 [2]
-0.054931786 0.04979199
00000000: 2700 61bd b0f2 4b3d

cls_head.0.weight f4 [16, 32]
0.104129314 0.8174405 -0.23736854 -0.6624964 0.425518 -0.10891545 -0.6306635 0.6499899
0.018780326 0.46393862 -0.9344796 0.4881712 0.50853854 -0.37331697 -0.088180594 -0.8437729
-0.26292804 -0.46246412 -0.5725279 -0.51238394 0.3381534 -0.15444028 -0.38898894 0.07728443
0.30645448 -0.27488673 -0.13400659 -0.47515377 0.5066743 -0.7470867 -0.12087741 -0.6927684
-0.28740883 0.35573265 -0.27247998 -0.16708073 -0.1428368 -0.24407804 -0.915515 0.14124323
-0.5377411 0.0068839486 -0.4533319 0.8707454 0.09550077 -0.27944458 0.2612694 -0.35052928
0.44123852 0.48198777 -0.42626345 -0.49367237 0.25673938 -0.4420983 -0.06738002 0.80390054
0.10352912 -0.45165786 -0.8509639 -0.63594645 0.047400955 -0.2567503 0.6909841 -0.3899813
0.09999396 0.016510293 0.13652615 -0.00993076 0.0021086931 0.11326434 -0.12653999 -0.037408218
-0.1209511 0.058803782 0.065729424 0.10690667 -0.12705404 0.11444299 0.17071103 0.16421707
0.11661957 0.0008765459 -0.043459788 -0.030496448 0.06027046 0.012569755 -0.17604774 -0.10940839
-0.021991387 -0.09491721 0.060634583 -0.09928145 0.05613354 0.10583164 -0.16124782 0.12968142
0.45456627 0.09532322 0.46715382 -0.27542174 0.42603868 -0.21884738 0.3394863 0.38326794
0.42491186 -0.20348828 0.13796243 -0.40016788 -0.025255395 0.12578093 -0.22151655 0.5604647
-0.5322263 -0.33148426 -0.09752122 0.59565127 0.0028159884 -0.2937067 0.093687676 -0.39568615
0.28306532 0.21975169 0.9982214 0.5816841 -0.46071485 -0.13377206 -0.6422362 0.25924084
-0.34102067 -0.13082975 -0.52195656 0.08031722 0.3145044 -0.033885054 0.9238089 -0.34388295
-0.5346516 0.3390122 0.23961453 -0.2627 0.2299584 -0.06528832 -0.97199833 0.2660337
0.42806637 -0.35826313 0.72145516 -0.29979196 -0.23512836 -0.26541123 -0.66526014 -0.5017098
0.1306785 0.7295049 -0.34813064 0.0033814276 0.6793616 -0.12580575 -0.007993022 0.66615254
0.19282597 0.4601767 -0.21461678 -0.1879592 0.43162778 -0.31891578 -0.26767552 0.59290236
-0.07389211 0.27806744 -0.6147314 0.15206797 0.4156504 -0.3359666 -0.11138271 -0.39809585
-0.26770428 -0.38488632 -0.20969608 -0.12577385 0.5094677 0.05969365 -0.34938028 0.05474754
0.18153605 0.12577383 -0.042747717 -0.3769678 0.5534819 -0.495247 -0.05068111 -0.4779215
-0.39947534 -0.3711232 -0.11253519 -0.08467307 0.24908873 -0.20459907 0.4304691 -0.12324557
-0.117595926 0.32177514 -0.068945035 -0.4634435 0.13182274 -0.3064797 -0.6303075 0.38903427
0.33525944 -0.48110354 0.52747196 0.3811815 0.064899616 0.055628557 -0.44507194 -0.3044467
0.13197504 0.74200004 0.35184875 0.34629828 0.3580792 -0.2701024 -0.092306726 0.63063484
0.5663426 0.6065221 0.5240875 -0.5372168 0.43554926 0.0008988049 0.2977185 0.361934
0.3520471 -0.09310604 0.51787835 -0.20679505 0.24667612 0.025063723 -0.12962544 0.34514254
-0.66499025 -0.075184554 -0.1374 0.4957999 -0.1724336 -0.73814505 0.72099626 -0.5984663
0.606494 0.32125667 0.6224436 0.35419872 -0.44079816 -0.55480635 -0.378916 0.579389
00000000: c041 d53d c843 513f bd10 73be 5d99 29bf
00000010: 7fdd d93e 100f dfbd 2a73 21bf bd65 263f
00000020: 33d9 993c 5d89 ed3e 0e3a 6fbf 93f1 f93e
00000030: 952f 023f 6723 bfbe 0798 b4bd 8001 58bf
00000040: 819e 86be 19c8 ecbe 3091 12bf 982b 03bf
00000050: 7122 ad3e 9825 1ebe 8f29 c7be 4d47 9e3d
00000060: 9ae7 9c3e f4bd 8cbe 0639 09be 5b47 f3be
00000070: 68b5 013f 1341 3fbf 938e f7bd 4559 31bf
00000080: 4027 93be 9722 b63e 7f82 8bbe 3617 2bbe
00000090: cf43 12be 98ef 79be 315f 6abf 11a2 103e
000000a0: 67a9 09bf bf92 e13b 1e1b e8be 2ce9 5e3f
000000b0: e895 c33d 5c13 8fbe 1ac5 853e 9378 b3be
000000c0: 04ea e13e 1ac7 f63e 343f dabe a0c2 fcbe
000000d0: 5873 833e b55a e2be 89fe 89bd 6dcc 4d3f
000000e0: 1307 d43d b33f e7be c5d8 59bf 63cd 22bf
000000f0: 8127 423d c674 83be 55e4 303f a1ab c7be
00000100: a2c9 cc3d 9840 873c 83cd 0b3e a0b4 22bc
00000110: 0032 0a3b 22f7 e73d b393 01be 5c39 19bd
00000120: 36b5 f7bd 3cdc 703d 269d 863d e2f1 da3d
00000130: 741a 02be 1661 ea3d dfce 2e3e 8528 283e
00000140: 3ed6 ee3d 00c8 653a e402 32bd b0d3 f9bc
00000150: 28de 763d 60f1 4d3c dc45 34be 8211 e0bd
00000160: 4827 b4bc f463 c2bd f85b 783d 1354 cbbd
00000170: 48ec 653d 42be d83d 261e 25be 35cb 043e
00000180: e9bc e83e d238 c33d c92e ef3e 1404 8dbe
00000190: be21 da3e 8719 60be 26d1 ad3e b23b c43e
000001a0: 0c8e d93e 3b5f 50be 0646 0d3e cee2 ccbe
000001b0: 67e4 cebc b7cc 003e 3cd5 62be 9d7a 0f3f
000001c0: fc3f 08bf 4eb8 a9be 35b9 c7bd 9a7c 183f
000001d0: 728c 383b b960 96be 53df bf3d 6097 cabe
000001e0: f0ed 903e 9606 613e 708b 7f3f 40e9 143f
000001f0: d1e2 ebbe 8bfb 08be 9769 24bf 37bb 843e
00000200: 439a aebe 3cf8 05be f29e 05bf 5b7d a43d
00000210: b906 a13e 0ecb 0abd bd7e 6c3f 6d11 b0be
00000220: edde 08bf 0293 ad3e 835d 753e 9d80 86be
00000230: 377a 6b3e e2b5 85bd e2d4 78bf 9235 883e
00000240: 842b db3e 446e b7be 49b1 383f 557e 99be
00000250: 7dc5 70be fbe3 87be 7d4e 2abf 0e70 00bf
00000260: 96d0 053e d5c0 3a3f 2e3e b2be f19a 5d3b
00000270: a4ea 2d3f 39d3 00be 2af5 02bc f988 2a3f
00000280: 2c74 453e 489c eb3e 80c4 5bbe 6078 40be
00000290: 51fe dc3e ee48 a3be c40c 89be 73c8 173f
000002a0: bf54 97bd db5e 8e3e 095f 1dbf b5b7 1b3e
000002b0: 21d0 d43e d003 acbe 9e1c e4bd 38d3 cbbe
000002c0: 8910 89be d20f c5be 92ba 56be dcca 00be
000002d0: 7a6c 023f 5481 743d f9e1 b2be f53e 603d
000002e0: 96e4 393e dbca 003e 3b18 2fbd ec01 c1be
000002f0: fdb0 0d3f 0491 fdbe ff96 4fbd 20b2 f4be
00000300: 0888 ccbe dc03 bebe da78 e6bd 1369 adbd
00000310: 1e11 7f3e 6b82 51be 7266 dc3e 2c68 fcbd
00000320: 22d6 f0bd b6bf a43e 0e33 8dbd 7748 edbe
00000330: 8afc 063e e8ea 9cbe d55b 21bf 802f c73e
00000340: 20a7 ab3e 3453 f6be 6708 073f 392a c33e
00000350: 17ea 843d c5da 633d 78e0 e3be 70e0 9bbe
00000360: 7724 073e b7f3 3d3f 8525 b43e 024e b13e
00000370: 2856 b73e dd4a 8abe 4f0b bdbd 4971 213f
00000380: d4fb 103f 0845 1b3f 992a 063f 0a87 09bf
00000390: 5000 df3e c79d 6b3a 8f6e 983e 6a4f b93e
000003a0: 843f b43e 61ae bebd ad93 043f 15c2 53be
000003b0: aa98 7c3e 7052 cd3c 88bc 04be 86b6 b03e
000003c0: cd3c 2abf 5cfa 99bd 96b2 0cbe 7cd9 fd3e
000003d0: 6f92 30be 13f7 3cbf 3693 383f 1635 19bf
000003e0: 3143 1b3f c17b a43e 7758 1f3f 8959 b53e
000003f0: 4cb0 e1be ca07 0ebf 4701 c2be d652 143f

cls_head.0.bias f4 [16]
0.40336668 0.06053214 -0.17036492 0.2647175 -0.05722919 0.3925317 0.025661878 0.24959444
0.21211101 0.29003012 0.39098853 0.11167645 0.34029785 0.13673644 0.3391072 0.45843607
00000000: 1486 ce3e 8df0 773d 2474 2ebe 0d89 873e
00000010: 2869 6abd eaf9 c83e dc38 d23c af95 7f3e
00000020: a133 593e d47e 943e a62f c83e 9fb6 e43d
00000030: 853b ae3e a304 0c3e 759f ad3e 22b8 ea3e

cls_head.2.weight f4 [25, 16]
0.24657165 0.009907429 0.0084849 -0.09728026 -1.3008442 0.18534307 -0.33460274 -0.30749744
0.11455126 -0.547763 -0.16837767 0.29904577 0.1488687 0.29463628 0.31117362 -0.13684966
0.2277248 0.5691086 -0.08847335 0.13636771 -0.15774025 0.32224402 -1.1027281 0.09770735
-0.43435994 0.46679685 0.20123796 -0.09845406 -1.1326715 -0.72009945 -1.1188847 -0.90213126
-0.31457028 0.1264091 0.031865984 -0.5386452 0.47833455 -0.44136706 -0.38792875 -0.28731394
-0.68418264 -0.7746782 -0.37292612 -0.07093022 0.36057967 0.28436458 -0.18720326 0.2316844
0.110480934 -0.638774 0.21384165 -0.46707773 0.41355804 -0.073275074 -0.22071718 -0.5822004
0.07425905 -0.3907063 0.24290882 -0.26941818 -0.075937666 0.08130246 0.17799616 0.09185891
0.41536224 0.3354475 -0.027103573 0.028103285 -1.1484265 0.24344303 -0.20352316 0.19467685
0.16231193 0.18724564 -0.15959758 0.12484497 0.29103076 -0.4250546 -0.30372316 -0.33009145
0.3788042 -0.5184678 0.24420142 0.009323619 -0.08352774 0.20194632 -0.029450519 -0.48544562
-0.007366025 0.24715304 0.1480689 0.201671 0.07540949 -0.43064022 0.16720009 -0.4290448
-0.5102184 0.5743992 -0.13507625 -0.52519935 -1.0747528 -0.31507188 -1.2551279 -0.38683748
-0.37189025 -0.029666262 -0.49275085 -0.43638498 -0.05632457 0.15344563 -0.39144802 -0.08986317
-0.24191898 -0.6714163 -0.10690102 -0.34925678 -0.16006562 0.10966257 -0.2674169 -0.56944776
0.11451124 -0.9737649 0.35698348 -0.19010296 0.22492719 -0.026330516 0.40946552 0.034568608
-0.06663424 0.15196046 -0.07610673 0.56093943 -1.3923101 -0.24079548 -0.5027372 0.6141718
0.62863415 -0.7593916 -0.59325266 0.42262167 -0.5798953 -0.9659576 -0.033430625 0.45478448
0.006459217 -1.325831 -0.11983195 -0.22478421 -0.10324105 0.245961 -0.1572097 -0.9443747
0.056714408 -0.5092767 -0.0882218 -0.07240928 0.03919446 0.16595411 0.20763043 -0.1679074
-0.09216548 0.5530407 -0.22231752 -0.69889116 0.49477714 0.22861773 -0.70018554 -0.23245896
-0.19647707 -0.041662805 -0.2602864 -0.331832 -0.1724635 -0.059270617 -0.36561948 -0.29480535
-0.16457725 -0.64841974 -0.027440876 -0.13819012 0.3285894 0.0353264 -0.34551778 -0.7034514
0.100859515 -0.38405845 0.07286515 -0.40334263 0.18844503 0.04427688 0.19867715 -0.07440289
0.046205044 0.14724064 -0.24234453 0.081267044 -0.42040202 -0.15301575 -0.44618076 -0.043083746
0.21341804 0.35124132 0.026365938 -0.18667798 0.0346548 0.23966938 -0.16264586 -0.15093136
0.25260755 0.07874261 -0.056450933 -0.27858233 0.051125973 0.13031971 -0.54563785 -0.48330984
-0.18318693 0.106328286 -0.11252905 -0.13522172 -0.06891676 -0.7329607 -0.30968136 -0.33553445
-0.82263273 -0.9119542 -0.0928494 -0.8669012 -0.04786027 -1.018179 -0.56515753 -0.74231136
-0.07178597 -0.5976332 -0.6226502 -0.42080265 0.0748079 0.6292508 0.34214547 0.1330684
-0.1769679 0.20859972 0.015307307 -0.22742756 -0.5969138 -0.5991441 -1.1482803 -0.20554696
-0.4040967 -0.47853458 -0.6092285 -0.55645514 0.023382233 0.1800289 0.056776322 0.13690381
00000000: 477d 7c3e c552 223c 4004 0b3c df3a c7bd
00000010: 1082 a6bf 93ca 3d3e 0d51 abbe 4e70 9dbe
00000020: da99 ea3d 323a 0cbf 326b 2cbe 871c 993e
00000030: 0971 183e 91da 963e 2652 9f3e 5122 0cbe
00000040: b130 693e 1ab1 113f 8431 b5bd faa3 0b3e
00000050: a986 21be 2bfd a43e 3226 8dbf cb1a c83d
00000060: 6d64 debe ffff ee3e 5311 4e3e 48a2 c9bd
00000070: 61fb 90bf 7058 38bf 9d37 8fbf 13f2 66bf
00000080: 5b0f a1be 6371 013e e885 023d a7e4 09bf
00000090: 44e8 f43e ddfa e1be 999e c6be d01a 93be
000000a0: 9826 2fbf 4f51 46bf 2cf0 bebe dd43 91bd
000000b0: e69d b83e 3c98 913e 36b2 3fbe ad3e 6d3e
000000c0: d443 e23d b186 23bf 4ef9 5a3e d024 efbe
000000d0: e1bd d33e 3e11 96bd af03 62be 160b 15bf
000000e0: 2115 983d a80a c8be 17bd 783e 2ef1 89be
000000f0: 3585 9bbd e781 a63d a044 363e 8620 bc3d
00000100: 5caa d43e c6bf ab3e 5008 debc dc38 e63c
00000110: a4ff 92bf 2149 793e 6068 50be 5e59 473e
00000120: 1935 263e 52bd 3f3e 8c6d 23be b8ae ff3d
00000130: fc01 953e c2a0 d9be 9a81 9bbe bf01 a9be
00000140: a0f2 c13e 4eba 04bf f00f 7a3e 18c2 183c
00000150: 9710 abbd 04cb 4e3e 3742 f1bc 548c f8be
00000160: b25e f1bb b015 7d3e 609f 173e d882 4e3e
00000170: 4a70 9a3d e07c dcbe 8036 2b3e c3ab dbbe
00000180: ac9d 02bf d30b 133f 6e51 0abe 7773 06bf
00000190: 8091 89bf 1a51 a1be 08a8 a0bf 900f c6be
000001a0: 6668 bebe a906 f3bc d749 fcbe da6d dfbe
000001b0: 98b4 66bd da20 1d3e e06b c8be 2f0a b8bd
000001c0: 9cb9 77be f0e1 2bbf ecee dabd c9d1 b2be
000001d0: 3ee8 23be c596 e03d deea 88be 54c7 11bf
000001e0: de84 ea3d a848 79bf 8ac6 b63e 5aaa 42be
000001f0: 5053 663e 18b3 d7bc 77a5 d13e d097 0d3d
00000200: 8877 88bd 869b 1b3e d8dd 9bbd ba99 0f3f
00000210: 3837 b2bf 1793 76be 63b3 00bf 5d3a 1d3f
00000220: 2bee 203f 7d67 42bf 68df 17bf de61 d83e
00000230: 0574 14bf ff48 77bf 8dee 08bd 83d9 e83e
00000240: d7a7 d33b d5b4 a9bf 746a f5bd d52d 66be
00000250: 0b70 d3bd 33dd 7b3e 94fb 20be 8ac2 71bf
00000260: 5e4d 683d f55f 02bf a2ad b4bd 514b 94bd
00000270: 5f8a 203d e0ef 293e 129d 543e ebef 2bbe
00000280: 41c1 bcbd 1394 0d3f 34a7 63be 88ea 32bf
00000290: 6e53 fd3e c41a 6a3e 5c3f 33bf b909 6ebe
000002a0: 4931 49be 9ea6 2abd 4244 85be e2e5 a9be
000002b0: 469a 30be bfc5 72bd 7a32 bbbe baf0 96be
000002c0: f086 28be d6fe 25bf b0cb e0bc b681 0dbe
000002d0: df3c a83e 6ab2 103d b5e7 b0be 6415 34bf
000002e0: 6f8f ce3d 4fa3 c4be 533a 953d ed82 cebe
000002f0: bcf7 403e ac5b 353d 0672 4b3e 8b60 98bd
00000300: 8041 3d3d 40c6 163e 2a29 78be 566f a63d
00000310: ef3e d7be 29b0 1cbe ce71 e4be 9578 30bd
00000320: 428a 5a3e e7d5 b33e 61fd d73c 8328 3fbe
00000330: 31f2 0d3d e46b 753e a38c 26be c08d 1abe
00000340: c755 813e ce43 a13d 1839 67bd 58a2 8ebe
00000350: 7869 513d 8872 053e ecae 0bbf 6374 f7be
00000360: 5b95 3bbe a5c2 d93d a175 e6bd 9077 0abe
00000370: 3b24 8dbd 50a3 3bbf 8e8e 9ebe 2ccb abbe
00000380: 0f98 52bf d575 69bf d427 bebd 3ded 5dbf
00000390: 2109 44bd b153 82bf 2aae 10bf 1e08 3ebf
000003a0: 8604 93bd 7dfe 18bf 0166 1fbf 7273 d7be
000003b0: e234 993d 9516 213f b12d af3e 1543 083e
000003c0: 1337 35be 2a9b 553e 80cb 7a3c c5e2 68be
000003d0: 58cf 18bf 8261 19bf d9fa 92bf e77a 52be
000003e0: c3e5 cebe 7c02 f5be 66f6 1bbf d873 0ebf
000003f0: 198c bf3c 7f59 383e 4a8e 683d 8330 0c3e

cls_head.2.bias f4 [25]
-0.21341473 -0.29862294 -0.1670437 -0.23070689 0.038319718 0.19392245 0.08509719 0.22520168
-0.03635796 0.08175089 -0.12044619 -0.103027 -0.076361634 0.10409638 -0.35430977 0.05174704
-0.07361985 0.34453675 -0.30364674 -0.15314056 -0.014354137 0.113861725 -0.25218213 0.19437785
0.22773562
00000000: 6489 5abe 1be5 98be 810d 2bbe 6d3e 6cbe
00000010: 23f5 1c3d 9b93 463e 7047 ae3d 459b 663e
00000020: 16ec 14bd 036d a73d 7eac f6bd d2ff d2bd
00000030: 7d63 9cbd 7c30 d53d 1768 b5be b4f4 533d
00000040: 01c6 96bd 1f67 b03e 9677 9bbe e1d0 1cbe
00000050: 9d2d 6bbc 5630 e93d 041e 81be fd0a 473e
00000060: 8733 693e
