baseline_rnn_birds.pth (torch, 31266 bytes, 12 tensors)

lstm.weight_ih_l0 f4 [128, 4]
-0.115407035 0.58963805 -0.17133623 -0.37257382 -0.11785016 0.67055243 -0.28996095 0.11922078
0.102865785 0.43395317 0.16134448 0.07825904 0.0315559 -0.21170875 0.030669691 0.07591697
-0.1755312 -0.43076074 0.07832512 -0.102000535 -0.19989961 -0.4568239 -0.29229888 0.22943261
-0.40105098 0.12173825 -0.520222 -0.11426748 -0.2299336 0.1902593 -0.13759138 0.36185864
0.258619 -0.09458538 0.025581447 -0.06287532 -0.1421849 -0.52412105 0.1683223 0.10341413
0.05276334 0.2677796 -0.27682927 0.14668326 0.028323198 -0.10130511 -0.12222867 -0.32696775
-0.627403 -0.23946474 0.30216002 0.6242477 0.23750035 -0.05598813 0.057667416 0.0964878
-0.20094754 -0.060953345 -0.17095393 0.0022823603 0.010979888 -0.16608375 0.12176527 0.16023766
-0.33442152 0.32933837 0.32429987 0.14457802 -0.15139939 0.08475939 -0.5170899 -0.15260276
-0.48315498 0.32190856 0.18609002 -0.30458605 -0.77588284 0.29445848 0.06994581 0.39190826
0.06316451 0.5051561 0.04256131 -0.061322164 -0.2183896 0.57223773 -0.34288678 0.3238178
-0.44927865 0.09135707 -0.28890258 -0.025978409 0.36098707 -0.47883248 0.5658988 0.49821985
0.17229438 0.4672686 0.08822327 -0.6751943 0.0948363 -0.19737816 -0.46220344 -0.008361599
-0.4002736 -0.6879258 0.4143935 0.6599735 0.22194032 -0.1794694 0.38751996 0.6887032
0.62291074 0.29009652 0.26980013 -0.27404505 -0.34135458 -0.30154076 0.08103431 0.21056813
-0.19458623 0.2492656 -0.23000856 0.5194901 -0.16687757 0.43729958 0.28737736 0.22294934
0.08238585 0.12360932 -0.1621718 0.1680239 -0.033039078 0.1204883 -0.13683103 -0.12149958
0.050656438 -0.03895977 -0.14801918 -0.14425549 -0.07748344 0.08084859 0.11556743 -0.14626735
-0.161312 -0.15852392 -0.17043412 -0.074375466 -0.07614793 -0.16895458 0.1295046 -0.1048913
0.17628323 -0.1216166 0.04928556 -0.100520335 -0.013407931 0.14629091 -0.0116325915 0.05166793
-0.058343843 -0.05556362 0.17203273 0.17123412 -0.12755474 0.15090634 0.07976146 -0.067294754
0.019098252 0.024954557 -0.11725257 0.05130714 -0.12917265 -0.1689872 -0.04656367 -0.07384509
-0.14130476 -0.10062349 0.027396888 -0.13351576 -0.16008219 -0.022110105 0.0024279952 0.089726046
-0.06788696 -0.07109528 0.028978005 -0.016349211 0.042966798 0.043038175 0.030657768 0.06542419
0.16833992 0.1540897 0.093011096 -0.10671097 0.00047843158 0.06659843 0.15616278 0.102213934
0.10260834 0.14393826 0.14258762 -0.12398336 -0.1448879 0.07081725 -0.12272547 0.1658809
0.15244736 -0.023110777 0.062748566 0.17499326 0.16513573 -0.03930916 0.08617826 0.12283595
-0.057350077 -0.0038214773 -0.14001155 0.053498045 -0.08949426 0.080300674 -0.16161145 -0.051422805
-0.089777865 0.026349708 0.1664144 0.020650297 0.17425255 -0.09117872 -0.081367336 0.13695647
0.13908406 -0.102878325 0.12950282 -0.1405651 0.0023721457 -0.023438916 -0.011608914 -0.12824093
0.17526902 -0.09996832 0.16387029 0.046023488 0.038787156 -0.15973893 0.13494678 -0.018054128
0.037831932 -0.07830556 -0.07783277 -0.04126954 -0.15646216 0.13675185 0.07850973 -0.15546413
00000000: 865a ecbd 85f2 163f c472 2fbe ffc1 bebe
00000010: 6d5b f1bd 53a9 2b3f c375 94be 062a f43d
00000020: 4cab d23d 1c2f de3e 7d37 253e 4746 a03d
00000030: c240 013d 2eca 58be 013f fb3c 5b7a 9b3d
00000040: 73be 33be ac8c dcbe ec68 a03d a8e5 d0bd
00000050: 7cb2 4cbe d2e4 e9be 33a8 95be 62f0 6a3e
00000060: 8e56 cdbe e751 f93d 452d 05bf 1205 eabd
00000070: b773 6bbe 55d3 423e c1e4 0cbe 8945 b93e
00000080: b669 843e fbb5 c1bd 2f90 d13c c7c4 80bd
00000090: eb98 11be cc2c 06bf ae5c 2c3e caca d33d
000000a0: 5f1e 583d 681a 893e 91bc 8dbe 2334 163e
000000b0: 0d06 e83c 0e79 cfbd 0653 fabd 5168 a7be
000000c0: 7c9d 20bf 3f36 75be b8b4 9a3e b3ce 1f3f
000000d0: 4b33 733e cf53 65bd ab34 6c3d 659b c53d
000000e0: 31c5 4dbe 37aa 79bd 8c0e 2fbe a793 153b
000000f0: fde4 333c dc11 2abe 1260 f93d 5715 243e
00000100: 4c39 abbe 0a9f a83e a20a a63e 430c 143e
00000110: 7108 1bbe 5596 ad3d 0160 04bf e643 1cbe
00000120: 1760 f7be 33d1 a43e 628e 3e3e b4f2 9bbe
00000130: 42a0 46bf 43c3 963e c03f 8f3d 33a8 c83e
00000140: 655c 813d e951 013f c554 2e3d f32c 7bbd
00000150: 86a1 5fbe 2c7e 123f db8e afbe 72cb a53e
00000160: da07 e6be 6a19 bb3d 0aeb 93be acd0 d4bc
00000170: 4cd3 b83e 8829 f5be bede 103f ac16 ff3e
00000180: f06d 303e d43d ef3e 67ae b43d 89d9 2cbf
00000190: 8939 c23d 801d 4abe eea5 ecbe 17ff 08bc
000001a0: a9f0 ccbe e81b 30bf 632b d43e 06f4 283f
000001b0: 5344 633e d4c6 37be 0469 c63e da4e 303f
000001c0: 1477 1f3f 8887 943e 3e23 8a3e a24f 8cbe
000001d0: 07c6 aebe 8d63 9abe 51f5 a53d 2c9f 573e
000001e0: 9d41 47be 7b3f 7f3e 5d87 6bbe 4efd 043f
000001f0: f4e1 2abe bbe5 df3e 2023 933e d54c 643e
00000200: eab9 a83d e226 fd3d 5d10 26be 750e 2c3e
00000210: fc53 07bd 92c2 f63d 6f1d 0cbe c6d4 f8bd
00000220: 207d 4f3d 4894 1fbd 5792 17be b6b7 13be
00000230: a3af 9ebd f293 a53d 9eae ec3d 1cc7 15be
00000240: f92e 25be 1854 22be 4886 2ebe 2a52 98bd
00000250: 72f3 9bbd 6e02 2dbe db9c 043e 40d1 d6bd
00000260: 9783 343e 2012 f9bd a8df 493d 9bdd cdbd
00000270: f0ac 5bbc 49cd 153e a096 3ebc c0a1 533d
00000280: f4f9 6ebd ae96 63bd 5929 303e ff57 2f3e
00000290: b69d 02be 3187 1a3e fa59 a33d d5d1 89bd
000002a0: f073 9c3c 806d cc3c 1e22 f0bd 7027 523d
000002b0: d645 04be fb0a 2dbe 8cb9 3ebd 183c 97bd
000002c0: 32b2 10be b013 cebd 706f e03c 5bb8 08be
000002d0: 96ec 23be 4020 b5bc 001f 1f3b 4ac2 b73d
000002e0: 5208 8bbd 679a 91bd 4863 ed3c c8ee 85bc
000002f0: f4fd 2f3d cc48 303d 0026 fb3c 1efd 853d
00000300: 4d61 2c3e b1c9 1d3e 9a7c be3d 488b dabd
00000310: 00d6 fa39 c264 883d 23e9 1f3e 8a55 d13d
00000320: 5224 d23d 8d64 133e 7d02 123e fdea fdbd
00000330: 7e5d 14be a208 913d 7e57 fbbd afdc 293e
00000340: 291b 1c3e d052 bdbc 5282 803d 6f31 333e
00000350: 5719 293e a402 21bd 3a7e b03d 6a91 fb3d
00000360: eae7 6abd c071 7abb 305f 0fbe c420 5b3d
00000370: c448 b7bd ae74 a43d 797d 25be b8a0 52bd
00000380: 75dd b7bd 58db d73c 8968 2a3e d02a a93c
00000390: 436f 323e e9bb babd eba3 a6bd 513e 0c3e
000003a0: 0d6c 0e3e dfb1 d2bd 639c 043e 4cf0 0fbe
000003b0: 0076 1b3b f802 c0bc 5033 3ebc 9751 03be
000003c0: b979 333e 31bc ccbd 9dcd 273e 2083 3c3d
000003d0: 48df 1e3d 9a92 23be 7d2f 0a3e 40e6 93bc
000003e0: a8f5 1a3d aa5e a0bd ca66 9fbd 400a 29bd
000003f0: 9e37 20be ad08 0c3e b6c9 a03d fd31 1fbe

lstm.weight_hh_l0 f4 [128, 32]
-0.16821487 -0.12428454 0.07910918 0.16650383 -0.073716775 -0.016616434 0.08786626 -0.16002947
-0.13347417 0.08297278 -0.14147173 0.015713796 0.08814399 0.1490535 0.04703951 -0.042663544
0.1584595 0.12404202 -0.02656497 -0.07722476 0.103634015 0.084752396 -0.09689042 0.003907606
-0.02018562 0.064526334 -0.09243297 -0.0365261 0.11270751 0.089223996 0.03722325 0.08441441
0.08325352 -0.12634984 0.17461051 0.09792252 0.14167081 0.16935058 -0.13403082 -0.006441638
-0.059712604 -0.024027914 0.1751092 0.15597488 -0.13286136 -0.006076455 0.03493333 -0.116640225
-0.005377218 -0.15750721 0.052657977 0.16788013 0.04022883 -0.03385745 -0.08171498 -0.15831771
0.053545594 -0.06162809 0.05297418 -0.03123808 0.06648968 0.025136545 0.15690424 0.119825736
0.12202917 -0.16215678 0.060141444 0.011755437 -0.012476772 -0.16590522 -0.07533678 -0.06325521
0.12392922 0.056855634 -0.016408667 -0.04316111 -0.08786802 -0.074671865 -0.12977698 -0.16662475
-0.05836057 -0.020540684 -0.13227959 0.14474215 0.03636539 -0.11344382 0.022953168 -0.09542883
0.11138709 -0.03880872 -0.091804855 -0.038710788 -0.13288021 0.115464464 -0.039321303 0.13390471
-0.076028295 0.12102525 0.12677787 -0.115139246 -0.13215205 -0.016764715 -0.14247204 -0.041235104
-0.16070323 0.051670596 -0.02362293 0.13788329 -0.010598183 0.036979765 0.16429196 0.074190155
-0.03314358 0.087434635 0.031766042 0.16362248 0.1730635 -0.043793738 0.08814807 0.07452698
0.030967817 -0.048829004 0.009851232 -0.16206892 -0.004777223 0.10909571 -0.13043407 0.091446444
0.17602076 -0.044264868 0.049090326 -0.1632123 -0.06563796 -0.022452384 0.054503843 -0.073556826
-0.0057530254 0.09045471 -0.118976295 -0.081400104 0.09390147 -0.08940246 -0.13506573 -0.023578107
-0.026655942 -0.0019755214 0.029616088 0.14636858 -0.06560104 0.14949043 0.06070669 0.16232537
-0.13919893 0.060703963 0.14043172 0.16004024 -0.012452692 -0.013563186 0.06723659 -0.16994596
0.124035254 0.026686162 0.012081832 0.02346164 -0.13110971 0.13175265 -0.15108536 -0.16654198
0.10506682 -0.08835187 0.07553007 0.073039144 0.1345699 -0.018835843 -0.049000815 0.024179518
-0.086756945 0.13884173 0.09904112 0.03746587 -0.09392783 0.05465509 0.14395545 0.0100988
-0.011382267 0.026990548 -0.033623338 0.15669174 -0.057399035 -0.064685 0.16778527 -0.11191586
-0.0012487322 0.12537663 0.05847095 0.12928863 0.020647913 0.072862685 -0.14717068 -0.06727145
0.1649565 0.04128726 -0.15629616 0.14767314 -0.0072081387 0.1277409 0.16679572 -0.097909786
0.08527906 -0.16057624 -0.058802903 0.07760896 -0.0865047 -0.058295727 0.11154471 -0.16595049
0.13124208 0.06412649 -0.1752007 -0.16453177 0.09608619 -0.026176184 -0.06125418 -0.036876127
-0.10121772 0.094068274 0.106952 0.03795941 -0.11308063 -0.054754063 0.044538394 0.16434462
0.115501985 0.1520917 0.08365457 0.009300172 0.004209459 0.15410589 -0.10766242 -0.022949591
0.1489083 -0.02634053 -0.07965013 -0.1475668 -0.1380941 0.14078896 0.013185531 -0.030926242
-0.16826677 0.12785567 0.08521451 0.10596202 -0.0603534 -0.06749541 0.1560293 -0.118668854
00000000: 8540 2cbe e588 febd fe03 a23d fb7f 2a3e
00000010: d2f8 96bd 301f 88bc 3af3 b33d c4de 23be
00000020: 74ad 08be a2ed a93d f7dd 10be 38ba 803c
00000030: d684 b43d 7ba1 183e 80ac 403d f8bf 2ebd
00000040: 3543 223e be09 fe3d c89e d9bc 0428 9ebd
00000050: 123e d43d aa92 ad3d 7c6e c6bd 600b 803b
00000060: 505c a5bc 6226 843d 7f4d bdbd 649c 15bd
00000070: 32d3 e63d 12bb b63d 6877 183d 76e1 ac3d
00000080: d280 aa3d da61 01be 19cd 323e 9a8b c83d
00000090: 2712 113e 3d6a 2d3e 603f 09be 6014 d3bb
000000a0: 3495 74bd 30d6 c4bc d34f 333e e1b7 1f3e
000000b0: cf0c 08be 001d c7bb 4016 0f3d 12e1 eebd
000000c0: 6033 b0bb 9249 21be e4af 573d c5e8 2b3e
000000d0: fcc6 243d 1cae 0abd 2f5a a7bd 0a1e 22be
000000e0: a052 5b3d bc6d 7cbd 74fb 583d 00e7 ffbc
000000f0: be2b 883d 28eb cd3c 81ab 203e 3267 f53d
00000100: 6eea f93d 6d0c 26be e056 763d e099 403c
00000110: 606b 4cbc 0fe3 29be 2b4a 9abd f38b 81bd
00000120: 9ace fd3d 74e1 683d 786b 86bc b4c9 30bd
00000130: 26f4 b3bd 90ed 98bd 42e4 04be ae9f 2abe
00000140: 7e0b 6fbd f044 a8bc 4d74 07be 4937 143e
00000150: e0f3 143d 3c55 e8bd 4808 bc3c 3170 c3bd
00000160: ea1e e43d e4f5 1ebd 2f04 bcbd 348f 1ebd
00000170: c011 08be a278 ec3d 600f 21bd 511e 093e
00000180: b9b4 9bbd 16dc f73d 0fd2 013e 20ce ebbd
00000190: de52 07be 2856 89bc 31e4 11be 24e6 28bd
000001a0: 638f 24be 8ca4 533d e084 c1bc 4731 0d3e
000001b0: 00a4 2dbc 1878 173d 273c 283e 02f1 973d
000001c0: 90c1 07bd ee10 b33d 1c1d 023d a78c 273e
000001d0: 8f37 313e 1061 33bd fa86 b43d 9aa1 983d
000001e0: 38b0 fd3c ec00 48bd 1067 213c 65f5 25be
000001f0: 408a 9cbb 926d df3d 8290 05be 4648 bb3d
00000200: c93e 343e 144f 35bd f012 493d 2021 27be
00000210: 326d 86bd 10ee b7bc 6c3f 5f3d f6a4 96bd
00000220: e083 bcbb 5240 b93d d8a9 f3bd 19b5 a6bd
00000230: 6a4f c03d a318 b7bd ac4e 0abe e026 c1bc
00000240: 905d dabc c077 01bb 709d f23c a5e1 153e
00000250: d759 86bd 0514 193e 94a7 783d 9f38 263e
00000260: 2a8a 0ebe b8a4 783d 55cd 0f3e 97e1 233e
00000270: 6006 4cbc 2038 5ebc 56b3 893d 5006 2ebe
00000280: 3206 fe3d f09c da3c e0f2 453c a032 c03c
00000290: a041 06be 2bea 063e 1fb6 1abe fb89 2abe
000002a0: 462d d73d d3f1 b4bd 82af 9a3d 8c95 953d
000002b0: b1cc 093e a04d 9abc 14b5 48bd 2014 c63c
000002c0: a0ad b1bd 872c 0e3e 12d6 ca3d d075 193d
000002d0: 3c5d c0bd 04de 5f3d 0f69 133e 7075 253c
000002e0: b07c 3abc 481b dd3c a0b8 09bd cd73 203e
000002f0: 401b 6bbd 9279 84bd e7cf 2b3e 2434 e5bd
00000300: 80ac a3ba bb62 003e 3c7f 6f3d 3d64 043e
00000310: d025 a93c 0839 953d e9b3 16be 9dc5 89bd
00000320: 5bea 283e d41c 293d 1a0c 20be a137 173e
00000330: 4032 ecbb 83ce 023e 7fcc 2a3e ed84 c8bd
00000340: caa6 ae3d 196e 24be 50db 70bd 72f1 9e3d
00000350: 6029 b1bd 80c7 6ebd 8e71 e43d edee 29be
00000360: 5364 063e c054 833d d067 33be 047b 28be
00000370: d6c8 c43d 706f d6bc aae5 7abd 6c0b 17bd
00000380: 3c4b cfbd dea6 c03d a609 db3d 547b 1b3d
00000390: d196 e7bd cc45 60bd e46d 363d f549 283e
000003a0: 4e8c ec3d edbd 1b3e 1653 ab3d c05f 183c
000003b0: 80ef 893b efcd 1d3e 1d7e dcbd c800 bcbc
000003c0: 6b7b 183e 18c8 d7bc 9b1f a3bd c01b 17be
000003d0: 8a68 0dbe fb2a 103e 2008 583c 0859 fdbc
000003e0: 204e 2cbe 99ec 023e f284 ae3d 9e02 d93d
000003f0: 2035 77bd 093b 8abd 25c6 1f3e a808 f3bd

lstm.bias_ih_l0 f4 [128]
0.40084884 0.3745422 0.71474135 0.48870277 0.3093289 0.48212793 0.5739192 0.5851344
0.55901617 0.7277183 0.5868729 0.60968256 0.47508696 0.29220143 0.62018305 0.4289442
0.5950255 0.5021915 0.5843755 0.49026844 0.52078706 0.60185224 0.4236729 0.68988866
0.52667135 0.5862031 0.5446498 0.6672635 0.5330729 0.69387996 0.4537525 0.36805162
-0.15011734 0.13468976 0.05074504 -0.1542798 -0.16502105 -0.017990842 0.023759276 0.1385058
0.13047145 0.008053139 0.043230787 0.1263475 -0.08375647 0.08523114 0.16718383 -0.055636935
-0.10768201 0.1658351 0.09580435 -0.15326004 -0.14952876 -0.14049146 0.04937215 0.1327994
-0.064424135 -0.10972546 0.118588164 -0.12956816 0.023446351 -0.051850356 0.13987152 0.038812667
0.07473443 -0.22602539 0.028104713 0.22789226 -0.07304934 -0.45078123 0.44231325 0.2567481
0.3568002 0.46509093 -0.5261456 0.34133413 -0.18077108 0.4126407 0.11724829 0.017322991
0.3003895 -0.45246106 0.04475519 0.16657498 0.14347862 -0.40464732 -0.2515603 0.070661604
0.15162669 0.46459463 0.027490823 -0.04844175 -0.068053104 -0.07555203 0.36811122 0.3398507
0.52516466 0.59106255 0.80453616 0.5928691 0.47923914 0.5332892 0.61585087 0.5084343
0.28300932 0.520492 0.57637984 0.5687034 0.4670247 0.48597714 0.4769048 0.63073945
0.47130156 0.5624886 0.4985776 0.4962961 0.3984322 0.40255496 0.60693836 0.598248
0.4871889 0.39349377 0.649744 0.65567064 0.53251106 0.70708823 0.45137602 0.6670348
00000000: 0f3c cd3e ffc3 bf3e 4af9 363f 4037 fa3e
00000010: 5c60 9e3e 79d9 f63e 5eec 123f 5ecb 153f
00000020: af1b 0f3f bf4b 3a3f 4d3d 163f 2814 1c3f
00000030: 993e f33e 6d9b 953e 51c4 1e3f 939e db3e
00000040: 9753 183f 9f8f 003f a299 153f 7704 fb3e
00000050: 4d52 053f fd12 1a3f a8eb d83e 8b9c 303f
00000060: efd3 063f 6811 163f 2b6e 0b3f c8d1 2a3f
00000070: 7777 083f 1ea2 313f 3f52 e83e 4371 bc3e
00000080: 5cb8 19be 1dec 093e 08da 4f3d 86fb 1dbe
00000090: 47fb 28be 8861 93bc d0a2 c23c 77d4 0d3e
000000a0: 4f9a 053e 50f1 033c c412 313d 3d61 013e
000000b0: 8388 abbd aa8d ae3d 3d32 2b3e 8ee3 63bd
000000c0: 6388 dcbd add0 293e 1235 c43d 33f0 1cbe
000000d0: 111e 19be fedc 0fbe 743a 4a3d 91fc 073e
000000e0: cdf0 83bd beb7 e0bd 5ade f23d 84ad 04be
000000f0: 9012 c03c 0a61 54bd 7b3a 0f3e 08fa 1e3d
00000100: 5d0e 993d 3373 67be db3b e63c 975c 693e
00000110: e49a 95bd cccc e6be e276 e23e 7d74 833e
00000120: 84ae b63e 6620 ee3e 7ab1 06bf 59c3 ae3e
00000130: 0e1c 39be a445 d33e df1f f03d f2e8 8d3c
00000140: a7cc 993e faa8 e7be 3851 373d a292 2a3e
00000150: 0fec 123e ef2d cfbe 83cc 80be 08b7 903d
00000160: 0744 1b3e 59df ed3e 6f34 e13c db6a 46bd
00000170: 6d5f 8bbd 06bb 9abd 1379 bc3e e900 ae3e
00000180: 3171 063f e04f 173f 15f6 4d3f 45c6 173f
00000190: d55e f53e a485 083f 67a8 1d3f c028 023f
000001a0: 99e6 903e f73e 053f a18d 133f 8c96 113f
000001b0: dd1d ef3e ffd1 f83e de2c f43e 2478 213f
000001c0: 704e f13e 41ff 0f3f 9045 ff3e 861a fe3e
000001d0: 4eff cb3e af1b ce3e 5060 1b3f c826 193f
000001e0: d370 f93e 0478 c93e 9f55 263f 08da 273f
000001f0: a552 083f bc03 353f c21a e73e cbc2 2a3f

lstm.bias_hh_l0 f4 [128]
0.42177358 0.4686091 0.6907926 0.31049156 0.3700455 0.37770304 0.6895842 0.6306206
0.2343585 0.7185728 0.6161558 0.60858023 0.26489443 0.5247091 0.45020327 0.51783985
0.6033153 0.6378442 0.4784823 0.6062019 0.47516444 0.678783 0.512587 0.7769647
0.49616686 0.434677 0.43113264 0.78933114 0.48247874 0.5508465 0.5934588 0.3917426
0.02561991 -0.045439154 0.072450936 0.14834581 0.11374985 -0.013456181 0.09088682 0.07208812
0.050342172 -0.14014918 -0.09220426 0.15958609 0.15261184 0.016456202 0.090339646 0.08673118
0.16490741 0.16054131 -0.15712903 -0.15857264 0.0092791915 0.065284 0.16606246 0.03207004
0.1368383 0.06681831 -0.085020036 0.08260159 0.1026995 0.097795114 -0.14077716 0.07232614
-0.085044704 -0.2520856 0.02550458 0.1417021 -0.41069263 -0.46490934 0.37266785 0.44074786
0.18284403 0.4304993 -0.46426684 0.15514886 -0.08165406 0.27106634 0.071345225 -0.04605521
0.30208874 -0.29783982 -0.19690122 0.15701678 -0.16208802 -0.4417227 -0.43259463 -0.14305495
0.2946627 0.43084583 0.14419322 -0.17370866 -0.36962238 0.09168078 0.39649495 0.45266953
0.56816345 0.48741 0.8594631 0.46146393 0.5760549 0.4135997 0.4930101 0.65964687
0.356453 0.5775115 0.68258804 0.5904823 0.59542817 0.49810013 0.603927 0.6711091
0.46790957 0.5550282 0.72177356 0.41109604 0.4250159 0.42799798 0.65678704 0.9016279
0.61748433 0.29185677 0.6155508 0.59464335 0.66805667 0.7747988 0.6312628 0.4609629
00000000: b5f2 d73e 88ed ef3e c9d7 303f c0f8 9e3e
00000010: 9b76 bd3e 4b62 c13e 9788 303f 5a70 213f
00000020: adfb 6f3e 63f4 373f 63bc 1d3f eacb 1b3f
00000030: 3ea0 873e 5653 063f 0b81 e63e 2791 043f
00000040: df72 1a3f c249 233f a2fb f43e 0c30 1b3f
00000050: c148 f33e b9c4 2d3f e738 033f 29e7 463f
00000060: 9509 fe3e fc8d de3e 6bbd dc3e 9b11 4a3f
00000070: 7407 f73e 4704 0d3f eaec 173f 7c92 c83e
00000080: d8e0 d13c 681e 3abd 2861 943d f7e7 173e
00000090: aef5 e83d 5077 5cbc de22 ba3d f0a2 933d
000000a0: 9833 4e3d 4483 0fbe 96d5 bcbd 896a 233e
000000b0: 4746 1c3e 28cf 863c fe03 b93d 1ea0 b13d
000000c0: 7ddd 283e f164 243e 6fe6 20be de60 22be
000000d0: c007 183c 9eb3 853d 470c 2a3e e05b 033d
000000e0: 571f 0c3e 0ad8 883d fc1e aebd 062b a93d
000000f0: 1e54 d23d ce48 c83d e327 10be ba1f 943d
00000100: eb2b aebd 5d11 81be fbee d03c 5b1a 113e
00000110: 4e46 d2be 9908 eebe 52ce be3e b4a9 e13e
00000120: 773b 3b3e 676a dc3e 62b4 edbe 58df 1e3e
00000130: 3e3a a7bd 35c9 8a3e 721d 923d 63a4 3cbd
00000140: 60ab 9a3e 767e 98be 79a0 49be 02c9 203e
00000150: 67fa 25be 7a29 e2be 0b7d ddbe ff7c 12be
00000160: 08de 963e d397 dc3e 63a7 133e afe0 31be
00000170: 253f bdbe 22c3 bb3d 6301 cb3e 4dc4 e73e
00000180: 2973 113f ce8d f93e c605 5c3f 0045 ec3e
00000190: 5578 133f 57c3 d33e d26b fc3e 9ede 283f
000001a0: 0281 b63e cbd7 133f 17be 2e3f d929 173f
000001b0: fb6d 183f fb06 ff3e f69a 1a3f cecd 2b3f
000001c0: d891 ef3e 5416 0e3f 27c6 383f 2e7b d23e
000001d0: af9b d93e 8d22 db3e 3223 283f 16d1 663f
000001e0: 7413 1e3f 406e 953e bd94 1d3f 8c3a 183f
000001f0: c305 2b3f 3759 463f 709a 213f 5403 ec3e

reg_head.0.weight f4 [16, 32]
-0.071193896 -0.25510362 -0.22124387 0.10267553 0.08808463 -0.27258745 0.13405472 0.050655417
0.03107068 0.22543849 -0.2994347 -0.109969646 -0.07448978 -0.006730235 0.063631706 -0.15194711
0.26796243 -0.09017034 0.2067618 0.062483173 0.24538635 -0.22517885 -0.09997645 0.1823206
0.12708502 0.031782374 -0.04746213 -0.23483896 -0.25866073 0.07310327 0.17217076 -0.008817537
0.050406225 -0.35301852 -0.12817657 0.2786724 -0.06208018 -0.07724066 -0.024226824 -0.15126562
0.3276822 -0.12540472 -0.13827446 -0.18008177 -0.26597732 0.29671258 0.18553448 0.22774103
0.36184204 0.11653008 0.093778394 0.117449574 0.295999 0.0427871 -0.02735381 0.37194085
-0.050217435 -0.2647375 -0.12462132 -0.36548808 -0.2820708 -0.008562655 -0.11140805 -0.028562527
-0.028420374 -0.004559852 -0.095365465 0.12204347 -0.23344716 0.10252409 0.007287643 -0.08023961
0.0433205 0.074054435 0.25588188 -0.113866106 0.17423381 -0.13185106 -0.008170905 0.13286708
0.09188296 0.075351045 -0.1192311 -0.08873352 0.09525675 -0.06710051 0.0575893 -0.046917014
-0.05081849 0.055158474 -0.07864933 -0.008456296 -0.11257371 -0.09495225 0.09448234 -0.10505561
-0.035328496 -0.17505044 -0.21185213 0.35280183 0.03475497 -0.17786987 0.074268706 -0.23674774
0.050710056 -0.2862727 -0.37014502 -0.089625366 -0.37538758 0.3388818 -0.10473974 -0.2727769
0.3062874 0.2740026 0.34484005 0.63958305 0.27245474 -0.065346524 0.14322656 0.3426921
0.14065464 0.27375886 -0.15657873 -0.4315661 -0.34854394 -0.04433202 0.34150243 -0.0052951863
-0.17118098 -0.04521249 0.20862399 0.0028245626 -0.121772505 -0.025644084 0.31241342 0.22788753
-0.26898912 0.20842187 -0.283636 0.23344058 0.3328874 -0.20430978 0.11638836 -0.04399253
-0.03223967 -0.21558072 -0.0076723075 -0.09829311 -0.08567785 -0.25932178 -0.32468343 -0.23946404
-0.107083894 0.09739924 0.13265154 0.09172619 -0.07597384 0.11359296 0.20382164 0.24818383
-0.0070932554 -0.19322495 0.15231293 0.37336797 -0.16386813 -0.09497563 0.22240782 0.20994079
0.30576906 -0.252826 0.18524238 0.32282895 -0.25141767 0.34605494 0.19754323 0.21516794
0.08594209 -0.26016727 -0.021760168 0.062624596 -0.100868486 -0.06680026 -0.07555148 0.14881513
-0.057464577 -0.32547754 -0.1321032 -0.13171983 -0.11288956 0.015938584 -0.073357575 0.12582673
-0.046887204 0.13764873 0.09770001 0.34891444 -0.2153256 -0.30757138 0.02112216 0.06699451
0.12236136 0.043761823 -0.009925131 0.26176658 -0.23625052 0.26024085 0.20240231 0.1780152
0.11282989 0.08877857 -0.046613265 0.17271522 0.10912481 -0.1176612 -0.15877207 0.26598477
-0.12839423 -0.23777182 -0.10231551 -0.1743142 0.091657646 -0.17694874 0.05523712 0.045514066
-0.029002463 -0.14978904 0.007233043 0.20668748 0.116307445 -0.27719638 0.05561502 0.09290622
-0.087900385 0.17406206 -0.07322935 -0.09877829 0.17748715 -0.06915226 -0.21614036 -0.029239217
-0.055808134 -0.05823416 0.12809214 -0.15189852 0.12436075 -0.18210958 0.08964342 0.017187497
0.061850823 0.27790344 0.057136174 -0.3478452 -0.106357 0.06478497 0.13326506 0.26871166
00000000: 1bce 91bd f19c 82be c18d 62be 8c47 d23d
00000010: b765 b43d 9590 8bbe a445 093e 0e7c 4f3d
00000020: f087 fe3c 59d9 663e 814f 99be c437 e1bd
00000030: 198e 98bd 4e89 dcbb 5751 823d 0698 1bbe
00000040: 5f32 893e 3aab b8bd 5eb9 533e 5bee 7f3d
00000050: 8f46 7b3e 4995 66be 74c0 ccbd 40b2 3a3e
00000060: 9322 023e 3c2e 023d a767 42bd a079 70be
00000070: 2e6f 84be 2bb7 953d 884d 303e 6e77 10bc
00000080: c276 4e3d d8be b4be b840 03be 26ae 8e3e
00000090: c947 7ebd 5a30 9ebd 5577 c6bc 60e5 1abe
000000a0: f6c5 a73e 186a 00be d297 0dbe 5b67 38be
000000b0: 2e2e 88be b6ea 973e c0fc 3d3e f234 693e
000000c0: 5c43 b93e 53a7 ee3d e30e c03d 6789 f03d
000000d0: 2e8d 973e 8741 2f3d 1915 e0bc 086f be3e
000000e0: ccb0 4dbd ac8b 87be 7639 ffbd 4121 bbbe
000000f0: 956b 90be 614a 0cbc e729 e4bd f6fb e9bc
00000100: d8d1 e8bc d06a 95bb f84e c3bd edf1 f93d
00000110: c60c 6fbe 26f8 d13d 2ecd ee3b aa54 a4bd
00000120: d670 313d daa9 973d f302 833e a232 e9bd
00000130: 596a 323e f703 07be 42df 05bc 4f0e 083e
00000140: 222d bc3d a651 9a3d 6f2f f4bd ebb9 b5bd
00000150: f915 c33d fe6b 89bd c2e2 6b3d 0e2c 40bd
00000160: 0d27 50bd daed 613d e612 a1bd 478c 0abc
00000170: 0c8d e6bd 5376 c2bd f57f c13d 6527 d7bd
00000180: 9db4 10bd 6c40 33be c4ef 58be 71a2 b43e
00000190: 3a5b 0e3d 8523 36be 311a 983d 006e 72be
000001a0: 59b5 4f3d 5692 92be a683 bdbe 818d b7bd
000001b0: cd32 c0be ea81 ad3e ca81 d6bd 6aa9 8bbe
000001c0: b4d1 9c3e 124a 8c3e e08e b03e b7bb 233f
000001d0: 307f 8b3e 66d4 85bd fca9 123e 5775 af3e
000001e0: c507 103e 1f2a 8c3e 2d56 20be 3bf6 dcbe
000001f0: 5a74 b2be 7e95 35bd 68d9 ae3e 3e83 adbb
00000200: 114a 2fbe bb30 39bd 87a1 553e 4c1c 393b
00000210: dd63 f9bd 8b13 d2bc a7f4 9f3e 595b 693e
00000220: f1b8 89be 8b6c 553e bd38 91be 0c0b 6f3e
00000230: 3870 aa3e 9536 51be 055d ee3d 8331 34bd
00000240: bf0d 04bd 31c1 5cbe fb67 fbbb e64d c9bd
00000250: de77 afbd d3c5 84be e83c a6be 1036 75be
00000260: cd4e dbbd 4179 c73d ced5 073e f1da bb3d
00000270: 2c98 9bbd 6da3 e83d 9fb6 503e e723 7e3e
00000280: 8a6e e8bb c3dc 45be ecf7 1b3e 162a bf3e
00000290: 0ccd 27be 9582 c2bd e0be 633e b8fa 563e
000002a0: c38d 9c3e 6972 81be 2eb0 3d3e d649 a53e
000002b0: d1b9 80be 1d2e b13e c648 4a3e fc54 5c3e
000002c0: 6802 b03d a534 85be 6142 b2bc 5341 803d
000002d0: 2394 cebd 93ce 88bd bcba 9abd fe62 183e
000002e0: fa5f 6bbd fea4 a6be 1046 07be 90e1 06be
000002f0: a432 e7bd a291 823c 7f3c 96bd b9d8 003e
00000300: cc0c 40bd caf3 0c3e f116 c83d eaa4 b23e
00000310: 507e 5cbe ff79 9dbe 6108 ad3c 6b34 893d
00000320: 9898 fa3d 993f 333d 049d 22bc 4506 863e
00000330: a8eb 71be 4a3e 853e 8d42 4f3e 9e49 363e
00000340: 5b13 e73d 8ad1 b53d 8ded 3ebd 42dc 303e
00000350: d47c df3d 5bf8 f0bd 2595 22be 282f 883e
00000360: c779 03be 757a 73be cb8a d1bd 6c7f 32be
00000370: 01b7 bb3d 0d32 35be 5140 623d f56c 3a3d
00000380: 9396 edbc 4c62 19be 2a03 ed3b e2a5 533e
00000390: 9932 ee3d afec 8dbe 93cc 633d 9e45 be3d
000003a0: 1e05 b4bd 533d 323e 45f9 95bd 464c cabd
000003b0: 31bf 353e b39f 8dbd e653 5dbe 1587 efbc
000003c0: 1297 64bd f186 6ebd 962a 033e 498b 1bbe
000003d0: d9b0 fe3d ef7a 3abe f896 b73d cbcc 8c3c
000003e0: 4a57 7d3d 5c49 8e3e 9f07 6a3d c418 b2be
000003f0: b3d1 d9bd fbad 843d a376 083e 9394 893e

reg_head.0.bias f4 [16]
0.15777545 0.28612646 -0.12721312 0.1014822 0.036955297 0.15701102 0.20780985 0.30132788
0.11183863 0.05735017 -0.09842675 0.15914927 0.10371354 0.1873381 0.12796265 0.15467045
00000000: e38f 213e 2b7f 923e 2844 02be e6d5 cf3d
00000010: 705e 173d 7fc7 203e 1bcc 543e a647 9a3e
00000020: a70b e53d 03e8 6a3d f793 c9bd 07f8 223e
00000030: c467 d43d 8fd5 3f3e a408 033e ee61 1e3e

reg_head.2.weight f4 [2, 16]
0.001958792 0.37983528 0.012493745 0.26405153 -0.33406875 0.37480754 0.34377277 -0.15731318
-0.17805536 -0.35253644 0.063575715 0.032817822 0.29270482 0.012083616 -0.27103764 -0.17107303
0.27357358 -0.034855265 -0.15631606 0.19683562 -0.31126508 -0.3861517 -0.31618276 0.33075917
0.4179759 -0.03044607 -0.07884566 -0.3001468 -0.19289523 -0.3202351 -0.32661062 0.33675805
00000000: 145f 003b c579 c23e 91b2 4c3c c331 873e
00000010: 0f0b abbe c6e6 bf3e fc02 b03e b516 21be
00000020: 2554 36be a87f b4be fc33 823d fb6b 063d
00000030: 68dd 953e 5cfa 453c 72c5 8abe c52d 2fbe
00000040: d611 8c3e 65c4 0ebd 5111 20be 478f 493e
00000050: 235e 9fbe adb5 c5be b5e2 a1be 4459 a93e
00000060: f000 d63e 096a f9bc d579 a1bd d7ac 99be
00000070: 5486 45be dbf5 a3be 8239 a7be 8d6b ac3e

reg_head.2.bias f4 [2]
-0.008041742 0.027861902
00000000: 83c1 03bc a53e e43c

cls_head.0.weight f4 [16, 32]
-0.6872423 -0.39226997 -0.45720422 0.25395787 0.60020244 -0.114563346 0.777983 0.07372238
-0.5004659 0.7242489 -0.3730522 -0.20751828 0.20434815 -0.64678884 -0.41769567 -0.554184
0.34732595 -0.37409022 -0.7673842 -0.3376762 0.60656035 -0.5307218 -0.26630792 -0.23654209
0.28769487 0.5865218 0.8358609 0.31093135 -0.32504013 0.5747092 0.53270286 0.56997144
-0.1403104 -0.28578484 -0.647507 0.21766873 0.038539283 -0.011651275 0.39505112 -0.004093638
0.5483525 0.74801254 -0.5217249 -0.19008075 -0.36449492 0.4874698 0.20109074 -0.2375579
0.7556453 -0.078469604 0.3545153 0.11198014 0.33091536 -0.25051445 -0.100450076 -0.5879228
0.81789005 0.49407056 -0.14418334 -0.08435467 -0.7402623 0.35872826 0.19831727 0.65380317
0.59115773 0.2841001 0.5481095 -0.25800577 -0.4492815 -0.37985033 0.56809497 0.47252405
-0.18549593 0.73852557 -0.3348354 0.5746783 0.43030605 -0.26118767 -0.0058784573 -0.022929542
-0.3711412 -0.5986266 -0.6977041 -0.15184845 -0.6680545 -0.006263412 -0.44345567 -0.2536688
-0.65110254 0.47555348 0.7393429 0.51569223 0.30769536 0.07225822 0.20444354 0.2865097
0.48090726 -0.036258183 0.41426528 -0.28088263 -0.36214808 -0.38757 0.42021957 0.55635583
-0.14525416 0.8673222 -0.2914731 0.39678165 0.2944468 -0.075951874 -0.09216111 -0.3436868
-0.34392422 -0.4589223 -0.6236063 -0.39666602 -0.5381778 -0.60618275 -0.58718073 -0.11080483
-0.3873186 0.60300785 0.6535635 -0.06474022 0.14289945 0.38675544 0.43356648 0.53777975
0.30035135 -0.23442343 0.46263936 0.4903161 -0.47349888 -0.7385657 0.25951868 0.50958794
0.3652087 -0.10649501 -0.6213797 0.63399357 -0.5212108 0.41041481 0.2043758 0.40618294
0.3308986 -0.82195354 -0.6423597 0.9585501 -0.561465 -0.44628572 -0.63466156 0.71450233
-0.21395732 0.23747301 -0.2488233 -0.38975802 0.52398515 -0.52862614 0.5990029 -0.34860957
-0.5459125 -0.35721925 -0.3581306 0.34619007 0.08876014 -0.25888556 0.57872057 -0.13025522
-0.032536417 0.33393595 -0.62166774 -0.13405162 -0.62378526 0.44012055 -0.27256107 -0.48718557
0.55506366 -0.39315104 -0.062442433 0.93067354 0.415102 -0.56436646 0.036234517 -0.01660565
0.48069364 0.62555426 0.01976192 -0.25379965 -0.5734598 0.18998785 0.46375263 0.29654518
-0.27817434 -0.34636098 0.89988744 0.39113033 0.3355241 -0.28192624 -0.150189 0.58345014
-0.13208516 -0.17777643 -0.4737701 0.14689156 -0.537524 -0.0523574 -0.41677788 -0.0055605085
0.36223334 -0.22978148 0.288444 -0.54706335 -0.38084513 -0.49629304 -0.1869739 1.0080383
-0.33541203 0.10670443 -0.63215405 -0.86493814 0.13773273 0.5917638 0.7604561 0.05180962
0.00026592653 -0.41204637 0.65206707 0.12536956 -0.3765401 -0.5270226 0.39066377 0.55687827
-0.153938 -0.011319832 -0.29363284 0.35987675 0.12121816 0.18444121 -0.6593748 0.095319994
-0.3591097 -0.62769705 -0.35226396 -0.37351942 -0.45820725 -0.5066457 -0.61918795 1.0436649
-0.317525 0.10801295 0.051136516 -0.6817782 0.5866788 0.09038868 0.49906588 0.014513574
00000000: 1def 2fbf 9cd7 c8be ac16 eabe c406 823e
00000010: dea6 193f 30a0 eabd e529 473f c2fb 963d
00000020: 891e 00bf 6068 393f b300 bfbe ac7f 54be
00000030: a440 513e f493 25bf 35dc d5be 01df 0dbf
00000040: b5d4 b13e c188 bfbe 4a73 44bf e5e3 acbe
00000050: 8a47 1b3f 62dd 07bf 8359 88be 1738 72be
00000060: be4c 933e 4b26 163f fbfa 553f 6532 9f3e
00000070: a96b a6be 2420 133f 375f 083f a6e9 113f
00000080: 88ad 0fbe 6452 92be 05c3 25bf 8de4 5e3e
00000090: 5edb 1d3d fde4 3ebc 2444 ca3e ed23 86bb
000000a0: d460 0c3f c07d 3f3f c38f 05bf 87a4 42be
000000b0: 149f babe a495 f93e bbea 4d3e 6142 73be
000000c0: f871 413f acb4 a0bd 0883 b53e d855 e53d
000000d0: bd6d a93e 6e43 80be c5b8 cdbd 1c82 16bf
000000e0: 3e61 513f d1f6 fc3e cca4 13be 24c2 acbd
000000f0: d581 3dbf 3bab b73e af13 4b3e a55f 273f
00000100: 1d56 173f 9175 913e e750 0c3f 5519 84be
00000110: 3a08 e6be be7b c2be ac6e 113f acee f13e
00000120: a5f2 3dbe 0310 3d3f 8c6f abbe 1e1e 133f
00000130: 1351 dc3e 64ba 85be 13a0 c0bb bcd6 bbbc
00000140: 3806 bebe 983f 19bf bc9c 32bf 297e 1bbe
00000150: 9f05 2bbf 4f3d cdbb 9f0c e3be e1e0 81be
00000160: a8ae 26bf bf7b f33e 9445 3d3f 6804 043f
00000170: 3f8a 9d3e 1efc 933d a659 513e 66b1 923e
00000180: 7a39 f63e 7683 14bd 941a d43e d9cf 8fbe
00000190: 796b b9be 936f c6be 0527 d73e 566d 0e3f
000001a0: 82bd 14be d408 5e3f f63b 95be f726 cb3e
000001b0: bbc1 963e a88c 9bbd f7be bcbd b7f7 afbe
000001c0: d616 b0be ddf7 eabe aaa4 1fbf cf17 cbbe
000001d0: 05c6 09bf cb2e 1bbf 7a51 16bf a5ed e2bd
000001e0: a04e c6be b95e 1a3f f04f 273f 8596 84bd
000001f0: 3c54 123e cf04 c63e 6dfc dd3e efab 093f
00000200: a7c7 993e b20c 70be 11df ec3e b60a fb3e
00000210: 726e f2be a412 3dbf a2df 843e 5b74 023f
00000220: a2fc ba3e 0e1a dabd bd12 1fbf 674d 223f
00000230: 126e 05bf e421 d23e e447 513e 36f7 cf3e
00000240: 8b6b a93e 8c6b 52bf af71 24bf 8a63 753f
00000250: 2cbc 0fbf 907f e4be 2e79 22bf a0e9 363f
00000260: a117 5bbe 202c 733e 89cb 7ebe 5d8e c7be
00000270: e423 063f 0b54 07bf 4158 193f f47c b2be
00000280: ecc0 0bbf 71e5 b6be e55c b7be d33f b13e
00000290: e0c7 b53d a68c 84be 0827 143f a061 05be
000002a0: e844 05bd a7f9 aa3e 9e25 1fbf d444 09be
000002b0: 64b0 1fbf 7b57 e13e 208d 8bbe 6370 f9be
000002c0: a718 0e3f 184b c9be a3c3 7fbd 9f40 6e3f
000002d0: 4088 d43e 527a 10bf a56a 143d 9208 88bc
000002e0: 7a1d f63e 5324 203f c0e3 a13c 07f2 81be
000002f0: 43ce 12bf 2d8c 423e fc70 ed3e c5d4 973e
00000300: de6c 8ebe 3a56 b1be 065f 663f 3c42 c83e
00000310: d1c9 ab3e a358 90be 25cb 19be fd5c 153f
00000320: 5541 07be 060b 36be ff91 f2be be6a 163e
00000330: 2c9b 09bf b774 56bd e963 d5be ed34 b6bb
00000340: a676 b93e d64b 6bbe efae 933e 580c 0cbf
00000350: 22fe c2be 1f1a febe 1676 3fbe 6607 813f
00000360: 20bb abbe da87 da3d d9d4 21bf 966c 5dbf
00000370: cf09 0d3e d57d 173f 40ad 423f 5336 543d
00000380: 0e6c 8b39 bef7 d2be deed 263f e160 003e
00000390: ddc9 c0be f4ea 06bf 1505 c83e 938f 0e3f
000003a0: eca1 1dbe d176 39bc 0b57 96be c441 b83e
000003b0: 3a41 f83d 28de 3c3e c9cc 28bf 2137 c33d
000003c0: 3add b7be c1b0 20bf f15b b4be f03d bfbe
000003d0: 249a eabe 88b3 01bf 1a83 1ebf d096 853f
000003e0: a392 a2be e535 dd3d 8674 513d 0489 2ebf
000003f0: 9530 163f b31d b93d 9085 ff3e 57ca 6d3c

cls_head.0.bias f4 [16]
0.21742669 0.50719815 0.24330407 0.39400724 0.3073158 0.3380355 0.24858692 0.35685447
0.17442483 -0.10562268 0.33282554 -0.17244603 0.3014583 -0.07410312 -0.18472804 0.08992357
00000000: 1aa5 5e3e bdd7 013f b424 793e 51bb c93e
00000010: 7f58 9d3e fd12 ad3e 928d 7e3e a1b5 b63e
00000020: 6c9c 323e b450 d8bd 1c68 aa3e b195 30be
00000030: be58 9a3e 60c3 97bd 5929 3dbe d929 b83d

cls_head.2.weight f4 [25, 16]
-0.37348285 0.11825045 0.29590628 0.2623993 0.57483214 0.07549479 0.31290564 0.15651084
-0.9563237 -0.047537863 -0.60622644 0.2090395 -0.23265572 -0.06929374 -0.15663087 -0.40382963
0.45154667 0.15289775 -0.5368892 -0.93846565 -0.52282906 0.43709522 -0.25506884 -0.43777272
0.37258518 0.11511633 0.5044399 0.22854358 -1.0469315 0.100726455 0.0929793 -1.0832835
-0.42068356 -0.982902 -0.4904143 -0.21303098 0.66085356 -0.6638802 0.6083411 0.54643303
-0.44481888 0.02449891 -0.9248457 0.08811589 -0.113655016 0.2368643 0.09985275 -0.7393565
-0.3098955 -0.05049044 0.11840009 -0.02402195 0.038471386 -0.2117698 0.098397054 -0.047041874
-0.09744294 -0.12125993 0.21736717 0.00813686 0.253545 -0.16178364 0.070604935 0.26896715
0.5362822 -0.061659437 -0.63076717 -0.29175392 0.5353408 0.48912722 0.58442557 0.31245282
-0.1422776 0.23895133 0.16112003 0.12291654 -0.82043666 0.0023012161 -0.06118537 -0.9756945
0.21744418 0.48726436 -0.72216773 -0.124244794 -0.08008518 0.34500018 0.0802022 -0.14347684
-0.08443383 0.101166844 0.09140398 -0.05456507 0.110305496 -0.2022604 0.14964706 0.050076727
-0.086551495 -0.5466462 -0.20212173 -0.5196944 -0.22014377 -0.53780234 -0.12994239 -0.508953
-0.14062822 -0.24704978 -0.24170093 -0.22037761 -0.6841069 -0.02275303 0.14542687 -0.53625315
-0.10003402 0.7133112 0.22050492 0.034162 0.25241455 -0.040830866 -0.48598063 -0.1889585
-0.426354 -0.14089859 -0.81823653 -0.15832561 0.17949219 -0.026536673 0.014743138 0.13932078
-0.24972852 -0.16859506 -0.5565523 -0.2428716 -0.5599587 -0.20721582 -0.34412977 -0.49222082
-0.29321852 -0.20923576 -0.39375043 0.2034451 -0.8080754 -0.04441178 -0.028178787 -0.9476855
-0.039343413 0.038185436 0.18139075 -0.032609 -0.058068547 0.2509538 -0.36675546 0.025773676
-0.51304007 -0.010064244 -0.49317595 -0.13076581 0.377515 -0.13070679 0.2228235 -0.23346908
-0.17541991 -0.07272256 -0.2505302 -0.41867933 -0.6145512 -0.36982474 -0.3445318 -0.46629962
-0.21642788 -0.08420473 -0.47506624 -0.24364153 -0.9113256 0.040969044 0.092440374 -0.5558292
-0.7282789 0.24322951 0.15262796 0.15369518 0.3904745 -0.028410256 0.40730605 0.3859361
-0.18031582 0.008693725 -0.7085393 0.062343244 -0.22584857 -0.14177895 -0.025231002 -0.40087998
0.29434407 0.05778014 -0.17489141 -0.22861207 0.044844083 -0.1325079 0.09444151 0.38419405
0.14955428 -0.2267699 0.32743472 0.2102524 0.34587815 -0.24240044 -0.14342861 -0.52670383
0.07103531 0.20246828 -0.2904357 -0.12699085 -0.38654867 -0.022691397 -0.35582322 -0.12541053
-0.09399905 -0.1982812 0.29628196 -0.15459888 -0.14241631 -0.021920562 -0.07467264 -0.8140118
-0.5821084 -0.90603834 0.33988854 0.081863 0.27210027 -0.79370916 -0.6144242 0.11877296
-0.5943942 -0.21965599 -0.62357366 0.15161467 0.29640144 -0.08884224 0.16449425 0.22864398
-0.1338842 -0.32648113 -0.1451466 -0.4932926 0.34999833 -0.22250979 0.07077005 0.15897217
-0.5190264 -0.21373484 -0.73190343 -0.23914987 0.28138086 0.15247148 0.08812365 -0.7436702
00000000: 2539 bfbe 4b2d f23d 0781 973e 3359 863e
00000010: 3328 133f 039d 9a3d 2b35 a03e 6144 203e
00000020: a1d1 74bf 10b7 42bd a831 1bbf 730e 563e
00000030: 4d3d 6ebe e0e9 8dbd d863 20be c2c2 cebe
00000040: 2031 e73e 3a91 1c3e 9271 09bf 493f 70bf
00000050: 20d8 05bf f2ca df3e 6298 82be bf23 e0be
00000060: 7cc3 be3e 1cc2 eb3d f922 013f 5407 6a3e
00000070: da01 86bf ac49 ce3d ee6b be3d 09a9 8abf
00000080: d663 d7be 779f 7bbf 9517 fbbe cb24 5abe
00000090: b32d 293f 0ef4 29bf 3ebc 1b3f 09e3 0b3f
000000a0: 4dbf e3be f0b1 c83c b0c2 6cbf 1b76 b43d
000000b0: f6c3 e8bd 8e8c 723e 997f cc3d 7846 3dbf
000000c0: 9faa 9ebe 10cf 4ebd bf7b f23d aec9 c4bc
000000d0: 2c94 1d3d 2fda 58be 6584 c93d fbae 40bd
000000e0: 2a90 c7bd 2057 f8bd 8095 5e3e 7750 053c
000000f0: a6d0 813e 9caa 25be 5299 903d 10b6 893e
00000100: ca49 093f 9b8e 7cbd f579 21bf c560 95be
00000110: 180c 093f e26e fa3e ea9c 153f d1f9 9f3e
00000120: 38b1 11be a8af 743e a6fc 243e abbb fb3d
00000130: 2308 52bf 00d0 163b 839d 7abd 1dc7 79bf
00000140: b0a9 5e3e b77a f93e fcdf 38bf 0e74 febd
00000150: b303 a4bd dda3 b03e 0d41 a43d 98eb 12be
00000160: a5eb acbd 9030 cf3d 0332 bb3d 9f7f 5fbd
00000170: d9e7 e13d 5a1d 4fbe 143d 193e 411d 4d3d
00000180: e941 b1bd 01f1 0bbf 00f9 4ebe b10a 05bf
00000190: 5e6d 61be 6aad 09bf 9e0f 05be be4a 02bf
000001a0: d800 10be 9efa 7cbe 7380 77be abaa 61be
000001b0: a121 2fbf 9064 babc c8ea 143e e347 09bf
000001c0: a3de ccbd 909b 363f 0bcc 613e 74ed 0b3d
000001d0: 7b3c 813e 443e 27bd 74d2 f8be 567e 41be
000001e0: 124b dabe b847 10be f377 51bf 1c20 22be
000001f0: cdcc 373e 7063 d9bc 348d 713c 1baa 0e3e
00000200: d5b8 7fbe 2fa4 2cbe 367a 0ebf 55b3 78be
00000210: 7459 0fbf 6230 54be c731 b0be 5e04 fcbe
00000220: bd20 96be e641 56be a899 c9be ea53 503e
00000230: 08de 4ebf 20e9 35bd 33d7 e6bc 849b 72bf
00000240: 8f26 21bd 5568 1c3d 7fbe 393e 0491 05bd
00000250: 49d9 6dbd 047d 803e 5fc7 bbbe 5123 d33c
00000260: 9856 03bf 80e4 24bc 8f81 fcbe 79e7 05be
00000270: a549 c13e 00d8 05be d82b 643e 8512 6fbe
00000280: 47a1 33be 91ef 94bd 7f45 80be 235d d6be
00000290: 3a53 1dbf ab59 bdbe 7966 b0be d3be eebe
000002a0: 459f 5dbe 8873 acbd e23b f3be 2a7d 79be
000002b0: a24c 69bf 28cf 273d 6151 bd3d d34a 0ebf
000002c0: 7c70 3abf 2811 793e 814a 1c3e 4562 1d3e
000002d0: 46ec c73e a0bc e8bc 6b8a d03e 6b99 c53e
000002e0: b6a4 38be 2070 0e3c d562 35bf a15b 7f3d
000002f0: d944 67be 802e 11be 3fb1 cebc 2440 cdbe
00000300: 44b4 963e deaa 6c3d bc16 33be 4819 6abe
00000310: 6eae 373d 27b0 07be 8d6a c13d 15b5 c43e
00000320: c224 193e 5e36 68be 86a5 a73e 684c 573e
00000330: f116 b13e d237 78be f3de 12be 10d6 06bf
00000340: f67a 913d d853 4f3e fdb3 94be e409 02be
00000350: b5e9 c5be 4fe3 b9bc 762e b6be 9e6b 00be
00000360: 9382 c0bd 3a0a 4bbe 45b2 973e 2b4f 1ebe
00000370: 95d5 11be c092 b3bc f8ed 98bd 1463 50bf
00000380: 0e05 15bf 21f2 67bf df05 ae3e caa7 a73d
00000390: ba50 8b3e 8630 4bbf e84a 1dbf 3d3f f33d
000003a0: 382a 18bf 80ed 60be 86a2 1fbf e040 1b3e
000003b0: eec1 973e ecf2 b5bd 2e71 283e a621 6a3e
000003c0: f118 09be 8928 a7be 4fa1 14be d990 fcbe
000003d0: fb32 b33e 9bd9 63be e3ef 903d 9ac9 223e
000003e0: eade 04bf 4edd 5abe 065e 3bbf b4e3 74be
000003f0: 2711 903e 7c21 1c3e 2c7a b43d 2c61 3ebf

cls_head.2.bias f4 [25]
0.071324736 -0.33370674 0.19582582 0.03696612 -0.1857927 0.34103045 -0.31418622 0.40541077
-0.20448071 0.14304781 0.06280839 0.061501935 -0.05210274 -0.07089372 0.17425771 0.041137103
-0.021472251 0.12159012 -0.082453564 0.047635037 -0.19289733 0.29014853 -0.02346591 -0.0143049145
-0.2160352
00000000: b412 923d 9cdb aabe 9086 483e c969 173d
00000010: 7140 3ebe 8b9b ae3e 04dd a0be 0092 cf3e
00000020: 6463 51be 207b 123e afa1 803d 74e9 7b3d
00000030: af69 55bd ba30 91bd 9d70 323e 617f 283d
00000040: 93e6 afbc 3e04 f93d 6add a8bd f51c 433d
00000050: e186 45be 598e 943e 953b c0bc 295f 6abc
00000060: 5538 5dbe
