baseline_rnn_birds.pth (torch, 31685 bytes, 12 tensors)

lstm.weight_ih_l0 f4 [128, 4]
-0.92337024 0.3902209 -0.1694333 -0.11989202 -0.09237934 0.048883338 0.010628165 -0.6770399
-0.6014366 0.6087086 -0.41473553 -0.01774728 -0.4404784 0.27382776 0.3607379 0.7056769
0.35749128 -0.29141003 0.49700454 0.7137289 -0.49640197 0.44218227 -0.49161386 -0.28044006
-0.10776275 0.049540468 -0.22310764 0.25307757 -0.04368254 -0.02868189 -0.06278259 -0.8509948
-0.5113609 0.24385113 -0.006706277 0.09678891 0.35103095 -0.099986695 0.47177812 0.36435482
0.22979937 -0.051385686 -0.19209173 -0.3412485 -0.025938664 -0.16751176 0.018566836 -0.10637236
-0.58027047 0.51119906 -0.30360225 -0.74657255 -0.39356586 -0.037289746 0.05279717 0.3210384
-0.3657452 0.0073594875 0.19983226 0.13643953 0.07771389 -0.1772179 0.033655245 -0.2393266
-0.08040379 -0.1933151 -0.17839974 -0.71284485 0.07257597 -0.20226954 0.23913358 -0.4960225
-0.27765515 -0.036599234 0.66152114 0.0065173297 0.3886861 -0.18499506 0.4684007 0.3114165
-0.4524567 0.17172486 0.37228552 0.35302413 -0.019018417 -0.31724316 0.93031275 -0.11788071
-0.5686367 0.10052098 0.2789793 -0.13215731 -0.6218689 -0.1481604 0.40958238 -0.037473217
0.1217259 -0.090207145 -0.38495305 0.22312756 0.051142685 -0.44623187 0.24893962 -0.482358
-0.46882403 0.16903701 0.36687618 -0.15476248 -0.14157034 0.36108887 0.28592458 -0.13616297
-0.12587316 -0.12754917 0.0055928715 0.43793005 -0.2156065 0.22292285 -0.24293147 -0.44218045
0.011631846 0.07482221 0.10343428 0.14948373 0.16120745 -0.01929449 0.28530616 0.10305014
0.0639099 -0.0005665379 0.10588127 -0.040552855 -0.14317337 0.14699595 -0.16194825 -0.1187628
-0.09535771 -0.10164722 0.03405438 0.14561523 0.12597685 0.0926072 -0.08931905 -0.11305039
0.08827234 -0.008530458 -0.07105145 0.04284126 0.060766798 -0.0655942 -0.006200307 0.08880588
-0.060451876 -0.03276968 0.06499113 -0.038079865 -0.013808572 -0.056531124 -0.116593294 -0.011462531
-0.043910503 0.039041087 -0.13680121 -0.0014716625 -0.10020015 0.020256007 -0.067216404 -0.12532547
-0.029041708 -0.08670561 -0.11093885 -0.045298863 0.10389838 -0.085178085 0.025836503 0.031381067
0.14443064 0.105209954 0.17203726 0.0160613 0.096748196 0.04031249 0.14791308 0.05214214
-0.12773302 0.03587371 0.100054406 -0.08433563 -0.054577343 -0.046069264 0.06805544 0.089216426
-0.1298248 0.14908202 -0.17401102 0.029696079 0.06067024 -0.1219043 0.13761097 0.05853251
0.09909647 -0.08956243 -0.08350755 8.610601e-05 0.08987063 -0.050573688 -0.13917597 -0.10193312
-0.113226935 -0.124478504 0.1733208 -0.067061454 0.11392736 -0.11516089 -0.024184199 0.093399756
-0.06147655 0.13469069 -0.07676395 -0.091568224 -0.062582254 0.039373502 0.14032823 0.12729096
0.0009544786 -0.029571388 -0.10560809 -0.06077801 0.040507693 -0.119314246 -0.07354024 0.030761888
0.023866832 0.041881155 0.03161652 0.10554304 -0.09121288 -0.15762392 0.08975487 -0.0028066428
0.13876763 -0.14070748 -0.014292776 0.023656078 -0.09157159 -0.023050174 0.05424291 0.12120753
-0.12323612 0.040045425 0.11703149 -0.003184953 -0.083517246 0.039580654 -0.075059325 0.15572038
00000000: fe61 6cbf 09cb c73e ec7f 2dbe f389 f5bd
00000010: 6131 bdbd e539 483d c121 2e3c 7d52 2dbf
00000020: c0f7 19bf 54d4 1b3f 3758 d4be be62 91bc
00000030: 6386 e1be 2733 8c3e a3b2 b83e 3ea7 343f
00000040: 1909 b73e b233 95be 6177 fe3e f0b6 363f
00000050: 6628 febe b765 e23e d0b4 fbbe d795 8fbe
00000060: b7b2 dcbd f2ea 4a3d 5476 64be 6293 813e
00000070: 77ec 32bd 48f6 eabc 2994 80bd ccda 59bf
00000080: 8ce8 02bf 1cb4 793e 54c0 dbbb 4439 c63d
00000090: 54ba b33e d3c5 ccbd e78c f13e b78c ba3e
000000a0: 8750 6b3e cc79 52bd b2b3 44be 20b8 aebe
000000b0: 527d d4bc 3488 2bbe 7a19 983c c0d9 d9bd
000000c0: 9b8c 14bf f1dd 023f c171 9bbe 611f 3fbf
000000d0: 7781 c9be 22bd 18bd d841 583d 255f a43e
000000e0: f442 bbbe db27 f13b d4a0 4c3e ceb6 0b3e
000000f0: 7628 9f3d 9c78 35be 15da 093d 0812 75be
00000100: beaa a4bd 65f4 45be 6cae 36be 007d 36bf
00000110: b6a2 943d bf1f 4fbe 6fdf 743e a9f6 fdbe
00000120: d128 8ebe 14e9 15bd 7359 293f 538f d53b
00000130: dd01 c73e 586f 3dbe 37d2 ef3e fc71 9f3e
00000140: 68a8 e7be a4d8 2f3e 359c be3e 94bf b43e
00000150: 83cc 9bbc b26d a2be fa28 6e3f 716b f1bd
00000160: 2d92 11bf f2dd cd3d 60d6 8e3e 3f54 07be
00000170: cd32 1fbf 5cb7 17be c8b4 d13e 847d 19bd
00000180: 6e4b f93d 86be b8bd 9118 c5be 8d7b 643e
00000190: fe7a 513d 8178 e4be 07ea 7e3e a1f7 f6be
000001a0: b409 f0be 0a18 2d3e 32d7 bb3e 0e7a 1ebe
000001b0: d1f7 10be a4e0 b83e b564 923e 4e6e 0bbe
000001c0: e5e4 00be 409c 02be 6844 b73b 5e38 e03e
000001d0: f3c7 5cbe e345 643e 07c3 78be 7a65 e2be
000001e0: 8093 3e3c 633c 993d 5ad5 d33d 4312 193e
000001f0: 9113 253e 7a0f 9ebc a613 923e f40b d33d
00000200: 32e3 823d b783 14ba 47d8 d83d c01a 26bd
00000210: 0a9c 12be 1b86 163e c3d5 25be e939 f3bd
00000220: e74a c3bd 6b2c d0bd 9b7c 0b3d 291c 153e
00000230: 1300 013e d8a8 bd3d e8ec b6bd f686 e7bd
00000240: 21c8 b43d 56c3 0bbc 6c83 91bd 517a 2f3d
00000250: 9be6 783d 4056 86bd f22b cbbb dbdf b53d
00000260: 639c 77bd 8039 06bd 121a 853d a2f9 1bbd
00000270: 593d 62bc 2e8d 67bd 77c8 eebd 57cd 3bbc
00000280: 80db 33bd 8ce9 1f3d 9e15 0cbe cde4 c0ba
00000290: bc35 cdbd edef a53c c1a8 89bd 5255 00be
000002a0: e0e8 edbc b692 b1bd e833 e3bd 4d8b 39bd
000002b0: adc8 d43d d971 aebd 13a7 d33c 6f89 003d
000002c0: a0e5 133e 5178 d73d 892a 303e fd92 833c
000002d0: eb23 c63d b61e 253d 8776 173e ff92 553d
000002e0: 72cc 02be 50f0 123d 53e9 cc3d 29b8 acbd
000002f0: 7e8c 5fbd 20b3 3cbd a760 8b3d 1ab7 b63d
00000300: cbf0 04be f5a8 183e f22f 32be 3145 f33c
00000310: 5c81 783d f6a8 f9bd e4e9 0c3e c9bf 6f3d
00000320: 17f3 ca3d 826c b7bd 0206 abbd d093 b438
00000330: 180e b83d 5b26 4fbd 2584 0ebe 50c2 d0bd
00000340: 86e3 e7bd 96ee febd 027b 313e 8457 89bd
00000350: bf52 e93d 79d9 ebbd f11d c6bc 5f48 bf3d
00000360: d6ce 7bbd 5bec 093e 6b36 9dbd 1f88 bbbd
00000370: 202b 80bd 1c46 213d 34b2 0f3e 9058 023e
00000380: f935 7a3a b23f f2bc 0e49 d8bd 5df2 78bd
00000390: 65eb 253d 075b f4bd 449c 96bd 5b00 fc3c
000003a0: 6084 c33c 938b 2b3d 5380 013d f326 d83d
000003b0: d2cd babd 2a68 21be 67d1 b73d a7ef 37bb
000003c0: 1a19 0e3e 9f15 10be 3f2c 6abc 64ca c13c
000003d0: e389 bbbd b8d3 bcbc d02d 5e3d a73b f83d
000003e0: 3863 fcbd ac06 243d 35ae ef3d a5ba 50bb
000003f0: 170b abbd 531f 223d b4b8 99bd 2a75 1f3e

lstm.weight_hh_l0 f4 [128, 32]
-0.050497297 0.13032429 0.13202897 -0.11956444 0.087214135 -0.04840456 -0.035225324 0.106349476
-0.032304127 0.01756746 0.07405047 -0.01843168 -0.17075087 0.13690582 0.092517346 0.028136477
0.17223401 0.092079945 -0.16855603 0.15919147 -0.05805621 -0.076540716 0.1353357 -0.10269225
-0.051688388 0.13229749 -0.12052734 -0.11310994 -0.0077130417 -0.052017156 -0.15200421 -0.17603548
0.029634207 -0.14526226 -0.16272162 -0.08596412 -0.04128977 -0.09797366 0.017599765 -0.016278166
-0.12812041 -0.117098086 -0.0054145004 0.11931937 -0.044852886 -0.022041937 0.1075043 -0.081501216
0.10924003 -0.11412934 -0.01043714 0.06541846 0.10586135 0.033446472 -0.16888832 -0.04477365
0.0742686 -0.15280573 -0.0074478746 0.14151144 0.056932867 -0.16390094 0.059377573 0.08535167
-0.04830332 -0.03872602 0.03607743 0.08554383 -0.1372959 -0.07854598 -0.058475062 0.044025943
-0.10327769 0.09813822 0.040868197 -0.1176576 -0.121472165 0.16077465 -0.11829965 -0.1574025
0.006708556 -0.108128056 0.17625289 -0.031335317 -0.060895916 -0.15344733 0.09888498 0.012556621
-0.15909077 -0.032636918 0.0039972705 0.091103196 -0.12569688 -0.0873893 -0.09294621 0.13700159
-0.09458615 0.15753038 -0.117716335 0.07683994 0.05906607 0.14026883 -0.11499877 -0.07595705
0.10013832 -0.099063784 -0.15225825 0.064426854 -0.054469425 0.0502064 -0.05126776 0.16155228
-0.12750728 -0.11068296 -0.06642524 -0.120904975 -0.064703315 0.06516301 -0.0778768 -0.06719244
-0.07123159 -0.010248048 -0.16241051 0.1728085 0.11316066 -0.01262551 -0.119230144 0.11663502
-0.163883 0.09827631 -0.031377614 0.065545894 -0.101068266 0.12631278 -0.06661269 -0.0832746
0.11598457 0.12434218 0.0512622 -0.09183691 0.1507124 -0.1655976 0.16623998 -0.14194414
0.022492297 0.055205017 -0.1645913 0.12846464 0.07621094 -0.07993363 0.048239995 -0.08700503
-0.10536012 -0.049495973 -0.05001819 0.01621817 -0.03341242 -0.1752668 0.049553312 0.12597421
0.09629933 -0.058633473 -0.12375866 0.14951862 0.112510905 -0.044275053 0.042131234 -0.10370238
0.08813926 0.16040026 -0.14059716 -0.026650527 0.004080089 0.075886324 0.09311602 -0.17384721
-0.046190437 -0.0723116 -0.12758762 0.030582638 -0.0062092002 0.024523312 -0.019623699 0.123498164
0.037526816 -0.018910764 -0.04992389 0.021583507 0.004514138 -0.11523498 -0.124040425 0.06934733
-0.14687534 0.092689835 0.023020187 -0.038232923 -0.16803236 0.11842948 -0.061776847 -0.15755238
-0.12414786 0.036686134 0.06618739 -0.071879216 0.014881525 0.16506891 0.09986236 0.13733457
-0.13350733 0.1613208 -0.028181573 0.10989584 -0.05759274 -0.0031452507 0.16483524 -0.07319852
0.1726769 0.12426874 -0.060040608 -0.12664361 0.06822142 -0.05021443 0.1363883 0.0688341
0.10277878 0.12906165 0.05222922 0.08644253 0.043178644 -0.14092037 -0.16730337 -0.1555851
0.11028374 -0.16821344 0.06842368 -0.03831058 0.16206394 0.014544223 0.008788903 0.071962774
0.068052955 -0.09054782 -0.15566732 -0.012491019 0.07738492 -0.067410044 -0.16708781 -0.038496424
0.13991807 -0.15097404 0.12237609 -0.02044529 -0.03751023 0.058068283 0.12117166 -0.11608076
00000000: 41d6 4ebd bb73 053e 9a32 073e 33de f4bd
00000010: 539d b23d dc43 46bd 6e48 10bd c1cd d93d
00000020: 5551 04bd a2e9 8f3c c6a7 973d 09fe 96bc
00000030: 51d9 2ebe 0a31 0c3e bc79 bd3d 787e e63c
00000040: 1d5e 303e 6994 bc3d f499 2cbe 1703 233e
00000050: 59cc 6dbd 61c1 9cbd 7195 0a3e 5050 d2bd
00000060: 34b7 53bd fe78 073e 0ad7 f6bd 2fa6 e7bd
00000070: afbd fcbb f10f 55bd fea6 1bbe a542 34be
00000080: 70c3 f23c a1bf 14be 7fa0 26be f50d b0bd
00000090: 761f 29bd 6aa6 c8bd 622d 903c ca59 85bc
000000a0: ff31 03be 1fd1 efbd 1f6c b1bb b75d f43d
000000b0: a9b7 37bd 4b91 b4bc 372b dc3d 1cea a6bd
000000c0: 3db9 df3d a5bc e9bd 8a00 2bbc 1dfa 853d
000000d0: d6cd d83d 2bff 083d 0ff1 2cbe 9364 37bd
000000e0: 231a 983d 1b79 1cbe 4d0d f4bb 60e8 103e
000000f0: 7032 693d a6d5 27be e635 733d dbcc ae3d
00000100: b4d9 45bd 2d9f 1ebd edc5 133d 9b31 af3d
00000110: 4c97 0cbe b7dc a0bd 8c83 6fbd 8c54 343d
00000120: 4183 d3bd b1fc c83d 6965 273d 78f6 f0bd
00000130: 66c6 f8bd 1ca2 243e 1647 f2bd 1f2e 21be
00000140: 72d3 db3b 3e72 ddbd a37b 343e 7659 00bd
00000150: ff6d 79bd 4c21 1dbe 3584 ca3d 49ba 4d3c
00000160: b1e8 22be 4aae 05bd 89fb 823b 5094 ba3d
00000170: afb6 00be 29f9 b2bd 955a bebd 254a 0c3e
00000180: 62b6 c1bd a54f 213e 4315 f1bd 425e 9d3d
00000190: 43ef 713d a2a2 0f3e 7a84 ebbd 5f8f 9bbd
000001a0: 5215 cd3d f4e1 cabd 96e9 1bbe 3af2 833d
000001b0: 551b 5fbd 3aa5 4d3d 25fe 51bd f66d 253e
000001c0: 4591 02be bfad e2bd f509 88bd 079d f7bd
000001d0: 2c83 84bd 2f74 853d df7d 9fbd 319c 89bd
000001e0: dee1 91bd 6ee7 27bc f14e 26be b6f4 303e
000001f0: c7c0 e73d 3adb 4ebc ef2e f4bd 57de ee3d
00000200: f2d0 27be 1745 c93d d085 00bd ed3c 863d
00000210: e1fc cebd 2358 013e 3c6c 88bd e08b aabd
00000220: 5189 ed3d 1da7 fe3d 50f8 513d fd14 bcbd
00000230: 5a54 1a3e 6b92 29be d03a 2a3e ce59 11be
00000240: c441 b83c a81e 623d 9f8a 28be 3c8c 033e
00000250: 7b14 9c3d 3eb4 a3bd 4d97 453d b12f b2bd
00000260: 0cc7 d7bd 4abc 4abd e0df 4cbd f8db 843c
00000270: 76db 08bd 2479 33be 6af8 4a3d 62ff 003e
00000280: 9538 c53d a729 70bd 2e75 fdbd 691b 193e
00000290: 1e6c e63d c259 35bd cd91 2c3d ea61 d4bd
000002a0: 5b82 b43d f73f 243e b4f8 0fbe 3552 dabc
000002b0: 44b2 853b 4a6a 9b3d 9db3 be3d 0105 32be
000002c0: 2f32 3dbd 1b18 94bd 54a6 02be 7188 fa3c
000002d0: 8c76 cbbb 1de5 c83c e1c1 a0bc 9bec fc3d
000002e0: b8b5 193d bfea 9abc fe7c 4cbd e5cf b03c
000002f0: 56eb 933b 5100 ecbd e808 febd f905 8e3d
00000300: 7d66 16be 2bd4 bd3d d594 bc3c 209a 1cbd
00000310: ad10 2cbe 288b f23d b809 7dbd 6955 21be
00000320: 3c41 febd 3344 163d 418d 873d 6935 93bd
00000330: a4d1 733c d307 293e a384 cc3d 6fa1 0c3e
00000340: 25b6 08be 4831 253e 0bdd e6bc 1211 e13d
00000350: 5de6 6bbd 8d20 4ebb 92ca 283e 1be9 95bd
00000360: 37d2 303e 9c80 fe3d 24ed 75bd ddae 01be
00000370: acb7 8b3d a5ad 4dbd 60a9 0b3e e5f8 8c3d
00000380: ae7d d23d bd28 043e 4eee 553d c808 b13d
00000390: 17dc 303d 6e4d 10be 9351 2bbe b351 1fbe
000003a0: 71dc e13d 2540 2cbe b721 8c3d 8eeb 1cbd
000003b0: 17f4 253e e54a 6e3c 55ff 0f3c 3861 933d
000003c0: 595f 8b3d 2371 b9bd 4167 1fbe 22a7 4cbc
000003d0: fc7b 9e3d 470e 8abd 1119 2bbe 6dae 1dbd
000003e0: af46 0f3e f098 1abe 51a0 fa3d e17c a7bc
000003f0: 54a4 19bd 02d9 6d3d d928 f83d c0bb edbd

lstm.bias_ih_l0 f4 [128]
0.7926711 0.70750743 0.8636611 0.36262172 0.41554952 0.57255554 0.4952756 0.41223943
0.5269102 0.5230585 0.584222 0.42866212 0.5001566 0.4729396 0.41715917 0.66149503
0.45708594 0.38356075 0.6304984 0.46639574 0.42291608 0.48188108 0.6755279 0.37471843
0.68108046 0.27857563 0.656737 0.4696314 0.5557009 0.66575867 0.7004356 0.25999668
0.17072842 0.097590774 0.07426458 -0.010929268 -0.0010484239 -0.13655931 -0.04917469 -0.07256347
-0.17354098 -0.01374807 -0.050605994 0.10928943 0.14123565 0.12316666 0.008483318 -0.10706292
0.00012285807 0.015808629 0.015217372 -0.14282559 -0.05322009 -0.0170814 -0.14131077 -0.116269395
-0.13642247 0.08522101 -0.14387962 0.027674569 -0.12370932 -0.14172474 -0.039792188 -0.17180109
-0.11111042 0.24419995 -0.2405382 -0.16375314 -0.12940952 0.4212327 0.038832348 -0.15737969
-0.084456764 -0.19711481 -0.02327267 -0.0735856 -0.1432153 -0.034295384 0.559734 0.16707431
-0.28073323 -0.456931 0.3623067 0.22216198 -0.11022846 -0.191715 0.28931308 -0.4605494
0.25131384 -0.44571114 -0.19806524 -0.17320861 0.28625587 0.10100961 0.46755683 0.23504896
0.90729886 0.68550354 0.75146157 0.52716297 0.23840949 0.6643183 0.44706127 0.5263857
0.66372603 0.74342746 0.71773446 0.74634504 0.7013218 0.5250561 0.69314516 0.77923644
0.50236744 0.4242665 0.6704365 0.533114 0.4647119 0.6091886 0.54755414 0.4028855
0.62609905 0.5040895 0.7434869 0.4736657 0.669418 0.57369584 0.42968684 0.4634938
00000000: 7eec 4a3f 351f 353f e518 5d3f 8ea9 b93e
00000010: e8c2 d43e 0093 123f c394 fd3e 0c11 d33e
00000020: 96e3 063f 29e7 053f 938f 153f 9a79 db3e
00000030: 430a 003f 2425 f23e e395 d53e bd57 293f
00000040: 2b07 ea3e 1362 c43e 5868 213f 6ccb ee3e
00000050: 7588 d83e 1eb9 f63e 65ef 2c3f 18db bf3e
00000060: 4a5b 2e3f 77a1 8e3e eb1f 283f 8773 f03e
00000070: 6a42 0e3f 296f 2a3f bf4f 333f 491e 853e
00000080: 6ed3 2e3e acdd c73d 0718 983d ac10 33bc
00000090: 456b 89ba 34d6 0bbe 666b 49bd 289c 94bd
000000a0: bab4 31be 963f 61bc 3b48 4fbd 23d3 df3d
000000b0: 14a0 103e cd3e fc3d 9dfd 0a3c ce43 dbbd
000000c0: 76d3 0039 1981 813c 4952 793c df40 12be
000000d0: 4ffd 59bd 4bee 8bbc c5b3 10be a61e eebd
000000e0: 55b2 0bbe 5a88 ae3d 2e55 13be c7b5 e23c
000000f0: 505b fdbd 4a20 11be 22fd 22bd a0ec 2fbe
00000100: dc8d e3bd 8d0f 7a3e a54f 76be e7ae 27be
00000110: ee83 04be d0ab d73e ab0e 1f3d 2428 21be
00000120: abf7 acbd 77d8 49be 54a6 bebc 0cb4 96bd
00000130: 08a7 12be 5179 0cbd ba4a 0f3f 8715 2b3e
00000140: 44bc 8fbe dcf2 e9be 4480 b93e 6e7e 633e
00000150: 75bf e1bd f050 44be d820 943e 22cd ebbe
00000160: 35ac 803e 4034 e4be 9dd1 4abe 995d 31be
00000170: 2190 923e 20de ce3d 9c63 ef3e adb0 703e
00000180: bd44 683f 297d 2f3f c95f 403f 27f4 063f
00000190: 9e21 743e c410 2a3f 37e5 e43e 37c1 063f
000001a0: f3e9 293f 4351 3e3f 72bd 373f 7810 3f3f
000001b0: d389 333f 146a 063f f671 313f 0a7c 473f
000001c0: 279b 003f 7539 d93e baa1 2b3f 297a 083f
000001d0: b8ee ed3e c9f3 1b3f 822c 0c3f 0247 ce3e
000001e0: 0748 203f 020c 013f 2855 3e3f 5084 f23e
000001f0: fa5e 2b3f bbdd 123f eaff db3e 0f4f ed3e

lstm.bias_hh_l0 f4 [128]
0.7751839 0.6711332 0.94290733 0.6366915 0.41283318 0.45464212 0.6407522 0.58978975
0.7100699 0.70850635 0.6068813 0.5838983 0.6541628 0.49225113 0.43666527 0.7341831
0.5108635 0.39676753 0.47009078 0.46563166 0.5765613 0.40395892 0.75859183 0.53217566
0.5746611 0.47337767 0.7008827 0.48756936 0.5658809 0.60009044 0.47949028 0.46504155
-0.024832627 0.02250098 0.13926569 -0.06918323 0.07635852 0.060774997 -0.06106678 0.13465726
-0.06833338 -0.07472487 -0.16211669 -0.00013937963 0.15821926 0.033690926 -0.011697035 -0.04403688
-0.11775317 0.06589411 -0.13248739 0.16300751 0.13616747 0.13125995 0.034784257 0.17439714
-0.094149396 0.1409656 0.094546214 -0.17031038 -0.01363539 0.048297655 0.08513027 0.17223287
-0.11863576 0.3050011 -0.10030362 -0.1188244 0.028067693 0.5054733 0.27555913 -0.11467772
-0.03435486 -0.010210825 -0.067225814 -0.040198922 -0.43262985 -0.011216807 0.56138396 0.44073492
-0.25529024 -0.41725892 0.52239656 0.08042364 -0.025206191 -0.3335005 0.5461852 -0.25893164
0.5088336 -0.39808205 0.05077263 -0.040121574 0.24763115 0.3368482 0.2146278 0.11609484
0.6849156 0.52814347 1.0020566 0.6385507 0.22267556 0.62203944 0.58985186 0.6912786
0.40179884 0.5256698 0.6163174 0.7066959 0.63411087 0.67030674 0.74557173 0.771262
0.4430913 0.63317466 0.48479387 0.5412748 0.47487783 0.45012856 0.7214163 0.35230055
0.80924743 0.43503404 0.7445488 0.6731595 0.6117226 0.8535949 0.5936221 0.5847495
00000000: 7472 463f 63cf 2b3f 6062 713f 37fe 223f
00000010: df5e d33e dac6 e83e 5608 243f 76fc 163f
00000020: 24c7 353f ac60 353f 935c 1b3f 5c7a 153f
00000030: 3777 273f 5708 fc3e 9792 df3e 6cf3 3b3f
00000040: f3c7 023f 1d25 cb3e bdaf f03e 4667 ee3e
00000050: 8599 133f b4d3 ce3e 1333 423f aa3c 083f
00000060: fd1c 133f 8f5e f23e 0c6d 333f b1a2 f93e
00000070: 92dd 103f 879f 193f c07f f53e ed19 ee3e
00000080: cb6d cbbc fa53 b83c aa9b 0e3e f0af 8dbd
00000090: db61 9c3d 34ef 783d 2921 7abd 98e3 093e
000000a0: 5ff2 8bbd 5a09 99bd eb01 26be 6f26 12b9
000000b0: 3b04 223e 7fff 093d eca4 3fbc 0460 34bd
000000c0: 9328 f1bd 7ef3 863d c6aa 07be 71eb 263e
000000d0: 7c6f 0b3e 0269 063e f079 0e3d 2a95 323e
000000e0: 66d1 c0bd 4959 103e 72a1 c13d d865 2ebe
000000f0: f966 5fbc c3d3 453d c758 ae3d d05d 303e
00000100: 4ef7 f2bd 1b29 9c3e fc6b cdbd 355a f3bd
00000110: 38ee e53c b366 013f 1616 8d3e 27dc eabd
00000120: afb7 0cbd 4e4b 27bc b0ad 89bd a0a7 24bd
00000130: a981 ddbe b3c6 37bc dcb6 0f3f 02a8 e13e
00000140: 67b5 82be f6a2 d5be c8bb 053f 26b5 a43d
00000150: 377d cebc 94c0 aabe cbd2 0b3f b092 84be
00000160: eb42 023f 69d1 cbbe f6f6 4f3d 8556 24bd
00000170: 0593 7d3e 5e77 ac3e 64c7 5b3e 22c3 ed3d
00000180: a156 2f3f 6934 073f 6443 803f 0f78 233f
00000190: 1005 643e fa3d 1f3f 8800 173f a2f7 303f
000001a0: 94b8 cd3e 4c92 063f fac6 1d3f 06ea 343f
000001b0: 1755 223f 3999 2b3f cadd 3e3f 6d71 453f
000001c0: dddc e23e bc17 223f e736 f83e fc90 0a3f
000001d0: 3023 f33e 4077 e63e bdae 383f bd60 b43e
000001e0: d72a 4f3f c8bc de3e c09a 3e3f 2e54 2c3f
000001f0: da99 1c3f 3285 5a3f 9ef7 173f 25b2 153f

reg_head.0.weight f4 [16, 32]
-0.14413446 0.09431428 0.14098874 -0.03898745 -0.09147662 0.2914797 0.14717346 -0.025956063
0.120570354 -0.108154505 -0.25455743 -0.029109528 -0.28814107 0.0022226395 0.20363373 0.29639232
-0.17584223 0.007549354 0.1771014 0.14598188 0.19674306 -0.36784476 0.12437705 -0.29298788
-0.053456042 0.016949778 0.21546352 0.07054737 -0.023238607 0.21860002 0.20621021 0.110722825
-0.18228894 -0.033778355 -0.1829995 0.06460415 0.084334426 -0.21212332 -0.20165911 -0.116833456
-0.26990265 -0.006990353 0.1607538 0.25273058 -0.2815752 0.038117576 0.014527887 -0.52370185
-0.02267622 0.20669518 -0.127952 -0.00026884052 0.08721406 0.033895265 0.047219597 -0.12862763
-0.1268231 0.17113036 0.087480456 0.4141943 -0.058045167 0.10254541 0.057272486 -0.07697893
-0.06568294 0.17171498 -0.1261284 -0.03542936 0.23563181 -0.034972895 -0.32793036 -0.26521623
-0.15153453 -0.17755386 0.24549806 -0.30668747 0.022751635 -0.03414852 0.29661494 -0.23437946
-0.27938932 -0.19112435 0.11031432 -0.19588807 -0.056549914 0.09134592 0.24253228 -0.084280334
0.048761368 -0.09393519 0.056405425 -0.14304268 0.17502616 0.06006276 0.16086735 0.42560458
0.26498675 0.04726326 0.19246739 -0.19000153 -0.31592238 0.0966251 0.32275477 0.13584463
0.44858065 0.23127851 -0.40658408 -0.01221866 0.22916828 -0.3052046 -0.026384113 0.33091712
0.20599905 -0.066169284 0.20102054 0.2832471 0.06362267 0.004476437 -0.066621274 -0.051253606
0.15971483 0.31098318 -0.10158169 0.029055558 0.021350168 -0.23843017 -0.012795655 -0.23639497
0.19001539 0.19648795 0.10004086 -0.12728788 0.3046857 0.03735499 -0.09953955 -0.081491835
0.059026897 -0.1811403 0.028567934 0.1409587 -0.14891756 -0.070135936 0.18242015 -0.026760845
-0.2363567 -0.09373861 -0.119805686 -0.24458003 -0.03000149 -0.12442421 0.17467739 -0.19007015
-0.02048348 -0.07678972 0.12039161 0.057199594 -0.27762583 0.13819213 0.16657877 0.026599657
0.15036036 0.063760474 0.06645192 0.05167517 -0.034893606 0.22828954 -0.10000804 -0.28983897
0.20003669 0.20641497 0.053951267 0.2392005 -0.0905744 0.040358588 0.28686082 -0.1749425
-0.050823122 -0.21278693 0.16311231 -0.10673199 0.15658766 -0.21848425 0.28873697 -0.27396044
0.13366032 -0.090338975 0.13163906 0.13358177 0.004849099 0.08132523 0.12541331 -0.14459224
0.09097822 0.1130557 0.18611205 0.03437608 -0.044446703 0.16545302 0.0391917 -0.29534584
0.0015502878 -0.0904057 0.07603495 0.14108722 -0.0839996 -0.13717794 -0.020728147 0.09819711
-0.16825911 -0.11850834 -0.16786657 -0.17758517 0.102360815 0.015197177 -0.030355543 -0.1119839
-0.10332167 -0.13720946 -0.0047030626 0.110268965 -0.102384694 -0.15191266 0.25524184 -0.23875652
-0.012070185 0.28616923 -0.14080366 -0.036008555 0.39317968 0.2455319 -0.28634715 -0.06504605
-0.19506378 -0.13659145 0.35927194 -0.2561943 0.107802995 0.22277021 0.16415635 -0.47743678
-0.16369696 -0.3996901 0.12492776 -0.37012222 0.12715757 -0.085249655 0.23246135 -0.23697866
0.12409821 -0.39641368 -0.013849585 -0.2271193 0.11355179 0.24945343 0.17027839 0.37543938
00000000: fc97 13be d827 c13d 5a5f 103e 4eb1 1fbd
00000010: 1858 bbbd d43c 953e a4b4 163e cfa1 d4bc
00000020: 97ed f63d 1c80 ddbd 5a55 82be 1b77 eebc
00000030: 3a87 93be b4a9 113b 5c85 503e bcc0 973e
00000040: fc0f 34be 9260 f73b 125a 353e 467c 153e
00000050: 0377 493e 2656 bcbe 65b9 fe3d 8202 96be
00000060: b9f4 5abd 43da 8a3c 78a2 5c3e 247b 903d
00000070: e45e bebc afd8 5f3e c528 533e a6c2 e23d
00000080: f4a9 3abe 2c5b 0abd 3964 3bbe 2e4f 843d
00000090: 87b7 ac3d db36 59be ba7f 4ebe 6146 efbd
000000a0: ae30 8abe 550f e5bb a59c 243e e765 813e
000000b0: a02a 90be 2d21 1c3d 6006 6e3c 5311 06bf
000000c0: 7bc3 b9bc e7a7 533e d905 03be 2af3 8cb9
000000d0: 499d b23d c3d5 0a3d 5669 413d f6b6 03be
000000e0: eadd 01be cc3c 2f3e f428 b33d 4611 d43e
000000f0: c5c0 6dbd 5403 d23d 8e96 6a3d 21a7 9dbd
00000100: c784 86bd 0dd6 2f3e ce27 01be 601e 11bd
00000110: 7749 713e bd3f 0fbd 7de6 a7be 6cca 87be
00000120: de2b 1bbe aed0 35be d863 7b3e 2406 9dbe
00000130: a361 ba3c 52df 0bbd eadd 973e 2b01 70be
00000140: 1e0c 8fbe 1ab6 43be 79ec e13d e296 48be
00000150: e2a0 67bd 9213 bb3d 625a 783e 2b9b acbd
00000160: 00ba 473d 1861 c0bd 6009 673d c879 12be
00000170: 0f3a 333e 5e04 763d 69ba 243e d8e8 d93e
00000180: 58ac 873e 1f97 413d 2c16 453e c38f 42be
00000190: 94c0 a1be 61e3 c53d 1d40 a53e db1a 0b3e
000001a0: 5dac e53e 46d4 6c3e ca2b d0be c630 48bc
000001b0: 17ab 6a3e c743 9cbe 7f23 d8bc f86d a93e
000001c0: 6af1 523e c383 87bd 54d8 4d3e c405 913e
000001d0: 9a4c 823d 13af 923b bc70 88bd 4def 51bd
000001e0: 498c 233e 3039 9f3e 100a d0bd ec05 ee3c
000001f0: 8ce6 ae3c 0a27 74be dea4 51bc 8611 72be
00000200: 6593 423e 2334 493e 39e2 cc3d c157 02be
00000210: c4ff 9b3e 8c01 193d 64db cbbd 31e5 a6bd
00000220: 30c6 713d d87c 39be 4d07 ea3c 7a57 103e
00000230: d87d 18be 6ea3 8fbd 59cc 3a3e 8f39 dbbc
00000240: 7e07 72be 07fa bfbd af5c f5bd 3073 7abe
00000250: afc5 f5bc 1fd2 febd a1de 323e c0a1 42be
00000260: f9cc a7bc ee43 9dbd e08f f63d 1f4a 6a3d
00000270: f924 8ebe 3d82 0d3e a093 2a3e 86e7 d93c
00000280: 11f8 193e da94 823d f217 883d 58a9 533d
00000290: 99ec 0ebd bcc4 693e 04d1 ccbd c665 94be
000002a0: 6bd6 4c3e 725e 533e 01fc 5c3d faf0 743e
000002b0: 127f b9bd 0c4f 253d 6cdf 923e 2024 33be
000002c0: e82b 50bd d1e4 59be ea06 273e 4d96 dabd
000002d0: 8458 203e 56ba 5fbe 55d5 933e 8b44 8cbe
000002e0: 40de 083e a403 b9bd 64cc 063e a9c9 083e
000002f0: 31e5 9e3b d88d a63d 596c 003e fd0f 14be
00000300: ca52 ba3d bf89 e73d 2894 3e3e efcd 0c3d
00000310: bf0d 36bd 846c 293e 7a87 203d 9237 97be
00000320: 0733 cb3a a026 b9bd 36b8 9b3d 2b79 103e
00000330: fb07 acbd 6078 0cbe 13ce a9bc 911b c93d
00000340: 1e4c 2cbe 80b4 f2bd 37e5 2bbe e3d8 35be
00000350: 8ca2 d13d 95fd 783c 30ac f8bc d157 e5bd
00000360: 509a d3bd a380 0cbe 261c 9abb b2d4 e13d
00000370: 11af d1bd fe8e 1bbe 0faf 823e 977c 74be
00000380: 06c2 45bc c684 923e d62e 10be b57d 13bd
00000390: d94e c93e b76c 7b3e 189c 92be dd36 85bd
000003a0: cdbe 47be a1de 0bbe 7ef2 b73e e62b 83be
000003b0: d1c7 dc3d e01d 643e 9a18 283e 9872 f4be
000003c0: 2da0 27be 2ea4 ccbe 20da ff3d a980 bdbe
000003d0: 9835 023e 5f97 aebd 590a 6e3e 89aa 72be
000003e0: 3427 fe3d bcf6 cabe 5fe9 62bc f691 68be
000003f0: d78d e83d b870 7f3e 755d 2e3e 9739 c03e

reg_head.0.bias f4 [16]
0.33052212 0.12730192 0.1668352 0.17764284 0.16284649 0.10363173 0.11632592 0.11607576
-0.20589913 0.018491155 0.17156185 0.13765427 0.25216275 -0.06271615 0.25757077 0.19447115
00000000: 323a a93e 6f5b 023e d9d6 2a3e 01e8 353e
00000010: 3bc1 263e df3c d43d 493c ee3d 21b9 ed3d
00000020: 39d7 52be c37a 973c e9ad 2f3e 3ef5 0c3e
00000030: 7a1b 813e 5371 80bd 51e0 833e 7223 473e

reg_head.2.weight f4 [2, 16]
-0.17301524 -0.092673704 0.09721038 -0.05985333 -0.096646346 -0.2717647 -0.3293569 0.11413463
-0.1061814 0.30364943 -0.31543708 0.36382255 -0.29960808 0.14600286 0.30985752 0.3301277
0.28225833 -0.24377298 -0.301517 0.39579913 -0.22870025 -0.2114961 -0.31273985 -0.4209198
-0.19163269 0.06585699 -0.11820451 -0.3180296 0.28819326 0.21024787 -0.2917485 0.2293556
00000000: e82a 31be b6cb bdbd 3c16 c73d c428 75bd
00000010: 85ee c5bd be24 8bbe 78a1 a8be 6bbf e93d
00000020: a275 d9bd f077 9b3e f880 a1be f346 ba3e
00000030: 3b66 99be c681 153e a5a5 9e3e 7f06 a93e
00000040: 2a84 903e a09f 79be 7060 9abe 2fa6 ca3e
00000050: 6630 6abe 6f92 58be 701f a0be cd82 d7be
00000060: 5c3b 44be 08e0 863d 3515 f2bd c7d4 a2be
00000070: 118e 933e 384b 573e 0f60 95be 32dc 6a3e

reg_head.2.bias f4 [2]
0.18184778 0.24657486
00000000: 4e36 3a3e 1f7e 7c3e

cls_head.0.weight f4 [16, 32]
-0.068765864 0.21043022 -0.49611384 0.5441528 0.32042667 -0.06619712 -0.23673847 -0.4349904
-0.62020934 -0.28724208 -0.15515307 -0.4673496 -0.87822276 0.20884472 0.39942843 0.18634325
-0.25456306 -0.19489776 0.3656902 -0.20828746 -0.66231006 -0.42787236 0.25604802 -0.081703074
0.30388775 -0.2200079 -0.30830336 -0.21634123 0.15143985 0.43202144 0.12284676 0.5380947
-0.78180826 0.6273302 -0.6573251 -0.33927912 -0.57300913 0.454897 0.20786947 -0.57127583
-0.0545218 0.016830927 0.12620363 0.33173475 -0.87074864 -0.11737488 0.39684826 0.4107917
-0.657331 -0.47003406 0.6762467 0.75263226 0.32242283 -0.6708207 0.59238803 -0.6692216
0.53907096 -0.3472422 0.5036428 0.5293055 0.4580281 0.8599767 0.5858879 -0.35142174
0.33367744 0.53780276 -0.026470058 0.23546004 0.38162827 0.23866025 -0.48635554 -0.40294075
-0.6493568 -0.41921958 0.012057959 -0.23433757 -0.6716443 0.31098887 0.43085334 0.345044
-0.53473824 -0.35598937 0.10921938 -0.34587997 -0.39411882 -0.39964727 0.57674176 -0.4042467
-0.10004831 -0.52479106 -0.010529938 0.054696523 -0.37582636 0.40415686 0.10742361 0.27196267
1.0080721 0.56020015 0.7387662 -0.5271665 0.2777203 0.2947431 0.5287674 0.448265
0.25075793 -0.67894363 -0.6436517 -0.5765521 0.6757757 -0.32165807 0.38781378 0.3779354
0.3206563 -0.43946263 0.4774654 0.12594981 -0.677225 0.28726912 0.24068372 0.0038071573
0.19892892 -0.59710747 -0.9515881 -0.7555546 0.15317674 -0.61689574 0.117764436 0.33672348
-0.8272866 0.28581583 -0.92383695 0.7781501 0.964469 -0.38897154 -0.87958616 -0.81884044
-0.6890853 -0.6303096 0.9484806 -0.52589 -0.39860404 0.7670667 0.27051744 -0.6328251
-0.3652842 -0.36941698 0.20709738 -1.2153577 -0.12069385 0.081538916 0.07735794 -0.3091218
-0.9211855 -0.6085133 0.5327139 -0.034314994 -0.6573304 0.71985525 -0.31485087 0.5503223
0.1610277 -0.07277743 -0.0657023 0.17489296 -0.042083398 -0.1084093 -0.08535453 -0.005845325
0.12152074 0.1427721 -0.108494185 -0.05808278 -0.091770165 -0.03363158 0.067923166 0.104524754
0.1376251 0.1307486 0.025756886 -0.15526913 -0.008628492 -0.10263857 0.053623077 0.02092867
-0.08453608 -0.078409575 0.08762433 0.069741294 -0.08015268 0.06916064 -0.008993968 0.14808744
-0.41349173 -0.48113447 -0.68975073 -0.07665353 -0.36316505 0.16991206 0.306877 -0.27270907
-0.14051129 0.7661887 0.83487105 -0.301712 -0.16818789 -0.06324522 -0.41668126 -0.07510218
-0.16497692 0.19709775 -0.17439513 0.20816097 0.30254605 0.045896415 0.11562026 0.103251465
0.39211756 0.13457096 0.17937176 -0.079608455 0.26868144 0.43779868 0.21072851 0.18702315
0.12753251 -0.16814893 0.057460688 0.17909043 -0.036330923 0.11355964 0.123927176 -0.1262041
0.072428904 0.108313635 -0.025909858 -0.15655878 0.013890358 0.08843478 -0.14678188 0.06307255
0.010826542 0.04996688 -0.064597644 -0.08481335 0.076196924 0.15957531 -0.10236286 0.08443889
-0.010434695 -0.059458654 0.09435068 0.08299826 -0.003632826 0.003427797 0.004235928 -0.1962446
00000000: 1ed5 8cbd 057b 573e a202 febe 994d 0b3f
00000010: f70e a43e 5b92 87bd 926b 72be 10b7 debe
00000020: 0ac6 1ebf 6511 93be 72e0 1ebe 7248 efbe
00000030: 35d3 60bf 64db 553e e281 cc3e c4d0 3e3e
00000040: 1756 82be 4793 47be bf3b bb3e 4f49 55be
00000050: 278d 29bf 1612 dbbe ba18 833e f153 a7bd
00000060: 2d97 9b3e c049 61be f0d9 9dbe 8e88 5dbe
00000070: 0c13 1b3e ea31 dd3e 1597 fb3d 93c0 093f
00000080: 9624 48bf b698 203f 7546 28bf feb5 adbe
00000090: bab0 12bf 42e8 e83e bcdb 543e 223f 12bf
000000a0: 4052 5fbd 03e1 893c 863b 013e 23d9 a93e
000000b0: 62e9 5ebf 3e62 f0bd b22f cb3e 4a53 d23e
000000c0: d846 28bf 4ea8 f0be 811e 2d3f 82ac 403f
000000d0: 9b14 a53e e8ba 2bbf bea6 173f 1b52 2bbf
000000e0: 8e00 0a3f bbc9 b1be bcee 003f 9180 073f
000000f0: a982 ea3e 6f27 5c3f c0fc 153f 8ded b3be
00000100: c5d7 aa3e 71ad 093f bcd7 d8bc 701c 713e
00000110: c864 c33e 5a63 743e 9803 f9be 404e cebe
00000120: 3f3c 26bf f3a3 d6be bf8e 453c 30f6 6fbe
00000130: e1f0 2bbf ef39 9f3e cf98 dc3e 9ba9 b03e
00000140: 9be4 08bf 3d44 b6be 69ae df3d 2e17 b1be
00000150: f1c9 c9be 919e ccbe 59a5 133f 6cf9 cebe
00000160: 21e6 ccbd b558 06bf c385 2cbc 7609 603d
00000170: 506c c0be a6ed ce3e e900 dc3d b13e 8b3e
00000180: 8208 813f 4769 0f3f c81f 3d3f 62f4 06bf
00000190: 5b31 8e3e 91e8 963e 4d5d 073f fd82 e53e
000001a0: 5863 803e 40cf 2dbf 5cc6 24bf eb98 13bf
000001b0: a3ff 2c3f 5eb0 a4be 878f c63e c080 c13e
000001c0: 102d a43e 3f01 e1be 5876 f43e fdf8 003e
000001d0: 9e5e 2dbf f014 933e cb75 763e 8081 793b
000001e0: 06b4 4b3e 09dc 18bf 479b 73bf 076c 41bf
000001f0: 5dda 1c3e e1ec 1dbf 7b2e f13d 0567 ac3e
00000200: 0ec9 53bf 7456 923e 9480 6cbf d834 473f
00000210: 71e7 763f 4727 c7be 8f2c 61bf 879f 51bf
00000220: e567 30bf f85b 21bf a0cf 723f baa0 06bf
00000230: d415 ccbe 7c5e 443f 4381 8a3e d300 22bf
00000240: 8806 bbbe 3924 bdbe 5611 543e d790 9bbf
00000250: 562e f7bd e0fd a63d d76d 9e3d 3645 9ebe
00000260: d0d2 6bbf 87c7 1bbf f05f 083f e18d 0cbd
00000270: ce46 28bf 6f48 383f 2234 a1be ece1 0c3f
00000280: 72e4 243e 550c 95bd ed8e 86bd 2417 333e
00000290: a45f 2cbd b205 debd 5bce aebd 248a bfbb
000002a0: dedf f83d d932 123e 3332 debd 36e8 6dbd
000002b0: fff1 bbbd 45c1 09bd 4d1b 8b3d 1311 d63d
000002c0: 98ed 0c3e f6e2 053e 1b00 d33c dffe 1ebe
000002d0: 855e 0dbc 2c34 d2bd dfa3 5b3d 9a72 ab3c
000002e0: 4121 adbd 3395 a0bd 6274 b33d 86d4 8e3d
000002f0: 1727 a4bd 18a4 8d3d 705b 13bc 3ca4 173e
00000300: 30b5 d3be 4257 f6be 8193 30bf 87fc 9cbd
00000310: c5f0 b9be 6dfd 2d3e fb1e 9d3e 86a0 8bbe
00000320: 31e2 0fbe f124 443f 1cba 553f ff79 9abe
00000330: 7239 2cbe b686 81bd 3f57 d5be 2ccf 99bd
00000340: b6ef 28be fed3 493e a394 32be 2628 553e
00000350: 51e7 9a3e e1fd 3b3d 51ca ec3d 8175 d33d
00000360: a2c3 c83e f8cc 093e 3bad 373e c209 a3bd
00000370: 9d90 893e 2627 e03e 37c9 573e ff82 3f3e
00000380: e297 023e 3c2f 2cbe e65b 6b3d 7b63 373e
00000390: bccf 14bd f591 e83d 88cd fd3d a63b 01be
000003a0: 9b55 943d 8ad3 dd3d e940 d4bc f250 20be
000003b0: 6294 633c 4b1d b53d fd4d 16be 2e2c 813d
000003c0: cf61 313c 12aa 4c3d c54b 84bd 9fb2 adbd
000003d0: 220d 9c3d b667 233e 9fa3 d1bd 4cee ac3d
000003e0: 48f6 2abc eb8a 73bd ee3a c13d fefa a93d
000003f0: b514 6ebb e4a4 603b 8acd 8a3b 58f4 48be

cls_head.0.bias f4 [16]
0.31505373 0.29244527 0.28801402 0.44935596 0.1304047 -0.17069267 0.034937195 -0.096800484
-0.18922219 0.38864765 0.23962702 0.3078398 0.33074594 0.35970658 -0.18744312 0.20949183
00000000: b94e a13e 63bb 953e 9376 933e fc11 e63e
00000010: cf88 053e 0fca 2ebe 4e1a 0f3d 553f c6bd
00000020: 76c3 41be d3fc c63e c960 753e 2e9d 9d3e
00000030: 8857 a93e 762b b83e 17f1 3fbe 0785 563e

cls_head.2.weight f4 [25, 16]
0.17065129 -0.1764729 0.4343792 -0.39457032 0.07650368 0.037683487 -0.19117747 -0.042919524
0.21831192 0.029898835 -0.11508903 -0.07795058 0.048749987 0.40992367 0.1341365 -0.6437877
-1.2033447 -0.9116964 -1.351989 0.36526003 -0.49761534 -0.22230732 -0.48769286 0.015607364
0.007139798 0.13556507 -1.0153751 -0.82985735 0.0944372 0.34874663 -0.1739944 0.47065687
0.23107003 -0.6493153 0.24603093 -0.33418337 0.3421956 -0.012500137 -0.45801854 -0.027603807
-0.13882113 -0.35978052 0.18154216 -0.37837762 -0.2288703 -0.32736123 0.10824714 -0.48207867
0.19820784 -0.1898819 0.23776367 -0.04733922 -0.32370993 0.21482578 -0.78919506 -0.050679155
0.1873374 -0.26818377 0.36022022 -0.1899187 -0.13567391 0.056941733 0.19600396 -0.62506926
0.09263845 -0.40327433 -0.10301384 0.12130232 0.015314437 0.20480916 -1.2199436 0.116880484
-0.20539765 0.3205096 -0.45871755 -0.016523609 0.2688559 0.31079927 -0.15932946 -0.027456421
0.1458834 0.059446946 0.32015154 0.32083216 -0.75698256 0.13621426 -0.0031165115 0.02235133
0.07491341 -0.2080503 -0.18628484 -0.36524907 0.035947975 0.17432316 -0.052625634 0.037316762
-0.16336708 -0.89506006 0.18365715 -0.19435294 0.23782106 0.058942437 -0.32758597 0.1866897
-0.22764564 -0.28682494 0.15431374 -0.5537753 -0.3306594 -0.22957644 -0.08608612 -0.51508224
0.3543514 0.09986773 0.12859145 -0.4846512 -0.114488594 0.23218518 -0.105605535 -0.14842698
-0.0116687305 -0.13188489 0.24974126 -0.4214937 0.35963246 0.21355458 0.21449316 -1.1481217
-0.21915506 0.42611426 -0.63287526 -0.36116028 -0.29959378 -0.24673247 0.0014329487 -0.10164849
-0.12676187 0.77312577 -0.71498305 0.5044501 -0.80759615 -0.24055845 -0.18930995 0.12701169
0.39549807 -0.1680333 0.3112264 -0.21256928 -0.2777468 -0.24075025 -0.25858122 -0.04930851
0.16684172 -0.21270746 0.25885248 -0.44262746 -0.04473823 -0.16355361 0.15429647 -0.55534786
-0.15339741 -0.77461594 0.047624454 0.13815935 -0.041816227 -0.14440763 -0.42794293 -0.20469165
-0.088715136 -0.6357889 0.06699273 -0.7948766 -0.23218398 0.19086553 0.123775564 -0.29280418
0.33601347 0.060365826 0.26028705 -0.3353003 0.022509137 0.0038615763 -0.6565743 -0.097637564
-0.11926129 -0.21439515 -0.1345843 -0.48183462 0.07296248 -0.29973337 0.16667348 -0.17398779
-0.27246454 -0.13918424 0.005273292 -0.100158095 0.23199067 0.094497204 0.07163754 -0.27411467
-0.23414469 -0.0038960285 0.08699656 -0.37655184 0.1304832 0.2700008 -0.17224252 -0.004026616
0.3083536 -0.63014793 -0.08179744 0.048375636 -0.895245 -0.08375996 0.17603305 0.16183239
-0.14998218 -0.09256696 -0.36765 -0.6388288 0.2616438 0.044159584 -0.12641026 -0.22940782
0.16556658 0.0017757673 0.22019757 -1.3824608 0.3587014 0.1331079 -0.5693672 -0.24182914
-0.24408764 -0.977142 0.30211425 -0.7834017 -0.8870073 -0.800836 0.007697977 -0.6950277
0.033374615 -0.58211845 0.28813624 -0.7170861 0.24051547 -0.09611806 -0.14746505 -0.17228158
0.062466204 -0.5285558 0.11157191 -0.7976133 -0.14067449 -0.2613718 -0.24724771 -0.6747194
00000000: 36bf 2e3e 50b5 34be f366 de3e 1f05 cabe
00000010: f6ad 9c3d 005a 1a3d 07c4 43be 62cc 2fbd
00000020: 298d 5f3e 67ee f43c ccb3 ebbd 8ea4 9fbd
00000030: 11ae 473d 84e1 d13e 145b 093e 45cf 24bf
00000040: 3307 9abf ef64 69bf fa0d adbf 5d03 bb3e
00000050: 70c7 febe 88a4 63be e1b2 f9be 07b6 7f3c
00000060: f7f4 e93b 92d1 0a3e d0f7 81bf 8871 54bf
00000070: 4a68 c13d eb8e b23e 972b 32be f0f9 f03e
00000080: 9f9d 6c3e 8739 26bf 88ef 7b3e 151a abbe
00000090: 4334 af3e 60cd 4cbc 6881 eabe 6121 e2bc
000000a0: 2027 0ebe 2735 b8be 30e6 393e b6ba c1be
000000b0: fa5c 6abe e49b a7be adb0 dd3d 04d3 f6be
000000c0: fff6 4a3e 6770 42be 5278 733e c5e6 41bd
000000d0: 4fbd a5be 4afb 5b3e b008 4abf f294 4fbd
000000e0: 60d5 3f3e 624f 89be c96e b83e 0c7a 42be
000000f0: 1aee 0abe bc3b 693d 43b5 483e 8a04 20bf
00000100: 3ab9 bd3d f979 cebe ecf8 d2bd 5a6d f83d
00000110: 68e9 7a3c 7eb9 513e 1d27 9cbf 095f ef3d
00000120: c353 52be d619 a43e 07dd eabe 855c 87bc
00000130: 7ba7 893e 1521 9f3e 4327 23be 4aec e0bc
00000140: 7562 153e a47e 733d e7ea a33e 1d44 a43e
00000150: 9cc9 41bf c07b 0b3e 633e 4cbb 231a b73c
00000160: 346c 993d 230b 55be 74c1 3ebe ed01 bbbe
00000170: 2f3e 133d c581 323e fa8d 57bd 76d9 183d
00000180: b349 27be a822 65bf 9f10 3c3e 7504 47be
00000190: 5d87 733e a06d 713d 59b9 a7be 962b 3f3e
000001a0: f01b 69be b8da 92be 6c04 1e3e 38c4 0dbf
000001b0: 304c a9be 1616 6bbe eb4d b0bd 6edc 03bf
000001c0: 8c6d b53e 7487 cc3d 7aad 033e 3424 f8be
000001d0: ff78 eabd f4c1 6d3e b747 d8bd 3efd 17be
000001e0: 342e 3fbc d50c 07be 2cbc 7f3e 06ce d7be
000001f0: bf21 b83e 0dae 5a3e 18a4 5b3e a7f5 92bf
00000200: 2f6a 60be a62b da3e 1d04 22bf 00ea b8be
00000210: 5b64 99be 70a7 7cbe c8d1 bb3a 152d d0bd
00000220: ddcd 01be 92eb 453f 2109 37bf a423 013f
00000230: 9fbe 4ebf f454 76be 78da 41be 5a0f 023e
00000240: b97e ca3e ec10 2cbe 1159 9f3e c3ab 59be
00000250: d434 8ebe 3c87 76be c264 84be b8f7 49bd
00000260: 8ed8 2a3e fccf 59be 5088 843e 11a0 e2be
00000270: 6f3f 37bd 997a 27be e5ff 1d3e 472b 0ebf
00000280: 3614 1dbe 3b4d 46bf dc11 433d a579 0d3e
00000290: 7e47 2bbd 98df 13be 561b dbbe b09a 51be
000002a0: 48b0 b5bd 10c3 22bf 7c33 893d 087d 4bbf
000002b0: a3c1 6dbe 4172 433e 0b7e fd3d 6eea 95be
000002c0: f509 ac3e 2842 773d 5844 853e 7bac abbe
000002d0: 1565 b83c 8012 7d3b 4115 28bf 34f6 c7bd
000002e0: 433f f4bd 678a 5bbe 77d0 09be 07b3 f6be
000002f0: 5a6d 953d a776 99be 74ac 2a3e db29 32be
00000300: 7980 8bbe 5086 0ebe 94cb ac3b b01f cdbd
00000310: f68e 6d3e c087 c13d b4b6 923d c258 8cbe
00000320: a0c3 6fbe 8354 7fbb 412b b23d 67cb c0be
00000330: 639d 053e 8b3d 8a3e 5860 30be b4f1 83bb
00000340: 86e0 9d3e 6051 21bf 6b85 a7bd 8825 463d
00000350: c72e 65bf 588a abbd 0242 343e 64b7 253e
00000360: ee94 19be bf93 bdbd 9f3c bcbe 498a 23bf
00000370: 2df6 853e aee0 343d b171 01be e2e9 6abe
00000380: 498a 293e ddc0 e83a 797b 613e 7af4 b0bf
00000390: b6a7 b73e 704d 083e 0cc2 11bf 0fa2 77be
000003a0: 1cf2 79be fa25 7abf b8ae 9a3e 048d 48bf
000003b0: e912 63bf 9703 4dbf 503f fc3b 56ed 31bf
000003c0: d2b3 083d b705 15bf 9886 933e f492 37bf
000003d0: b049 763e 8cd9 c4bd 1401 17be 956a 30be
000003e0: 90dc 7f3d 6f4f 07bf d07f e43d 6330 4cbf
000003f0: f90c 10be 86d2 85be 812e 7dbe 69ba 2cbf

cls_head.2.bias f4 [25]
0.056556728 -0.21675073 0.088869065 0.099724434 0.102128856 -0.07265125 -0.08468765 -0.034278326
0.3841891 -0.26861113 -0.20359744 -0.07998585 -0.2210952 -0.20487432 -0.38910478 -0.23861676
-0.1637915 0.1614563 0.061911315 0.041195437 -0.20700476 -0.02129663 -0.10650504 0.15273526
0.16848092
00000000: 07a8 673d e7f3 5dbe fc00 b63d 533c cc3d
00000010: ef28 d13d 2eca 94bd b870 adbd 6e67 0cbd
00000020: 6fb4 c43e 6687 89be d97b 50be 9fcf a3bd
00000030: c866 62be 93ca 51be be38 c7be f457 74be
00000040: f5b8 27be cd54 253e b896 7d3d 8cbc 283d
00000050: 0ef9 53be 4576 aebc 501f dabd a266 1c3e
00000060: 4386 2c3e
